output/weights10.pt (torch, 82708 bytes, 22 tensors)

fc1.weight f4 [138, 23]
000000 39 e0 84 3d 78 07 ba ba 7f 5f 81 3d d1 cd de bd
       0.064880796 -0.00141929 0.063170426 -0.108791
000010 a0 83 38 3e b5 1b 2f 3d cd 62 94 bd 1a e2 d1 bd
       0.18018961 0.042751033 -0.07245407 -0.102482036
000020 2a f9 9b 3c ae d9 16 3d 53 01 36 be fc a1 93 bd
       0.01903971 0.03682869 -0.17773943 -0.072086304
000030 dd bc 32 be ef cb fd 3d 86 06 aa 3d 45 3f 1c be
       -0.17454858 0.12392413 0.083020255 -0.1525851
000040 66 30 22 3e fb f6 a0 bd 17 c3 ae bb ff 1b ce bc
       0.15838775 -0.07859608 -0.005333315 -0.025159834
000050 3f 32 6d bd 68 c8 a4 3d df 2d e1 3d 19 d9 09 3d
       -0.057909247 0.08046037 0.10995077 0.033654306
000060 d3 b4 4b bc 3f 77 02 3e af 3c 16 3e fd 87 32 3e
       -0.012433249 0.12740801 0.14671586 0.17434688
000070 b4 c2 55 bb ab 0a 09 bd 37 da 27 3e 54 09 0f be
       -0.0032617273 -0.03345744 0.16391836 -0.13968402
000080 94 c7 52 3e 0e 99 c2 3d 47 dd 58 3c b2 ba 89 3d
       0.20583946 0.09501849 0.01323635 0.067250624
000090 c2 e7 10 3e 05 8e 0f 3e 45 ab 03 3b 40 dd 2e be
       0.14150909 0.1401902 0.0020091098 -0.17076588
0000a0 c2 a1 0d be 45 ef c9 3b b5 00 2c be 1b 2a 0e be
       -0.13831237 0.0061625564 -0.16797145 -0.1388325
0000b0 18 4c 9d bb 51 b9 b6 3c e6 26 49 bd 52 cd 08 3e
       -0.004800331 0.022305163 -0.049109362 0.13359573
0000c0 5e a7 51 3e 06 d8 3d 3d 3e 8b fb bd 1b 6f 68 be
       0.20474002 0.046348594 -0.12282418 -0.22698633
0000d0 be aa 84 3d d9 db 24 be d9 0b 89 bd b3 70 ee bd
       0.06477879 -0.1609949 -0.06691713 -0.116425894
0000e0 d7 ba 69 3e ff 4b 6d be 2e e4 73 be 73 ea 14 3e
       0.2282518 -0.23173521 -0.23817512 0.1454256
0000f0 a8 43 25 3e c7 44 27 3e ed de 09 3e 4a d8 4a 3d
       0.1613909 0.1633483 0.13463946 0.049522676
000100 2c f2 9e 3d 99 c6 57 be ea 7a 5b be 5b 54 25 bd
       0.07761034 -0.21071853 -0.21433607 -0.04036365
000110 12 d4 fb 3d 01 03 0b 3e 64 a4 af 3b d3 17 0e 3e
       0.122963086 0.13575365 0.005360173 0.13876276
000120 2d d4 04 bd da 7a 03 3e 13 20 0b bd 61 62 ac bd
       -0.03242891 0.12839833 -0.033966135 -0.08417202
000130 79 38 40 bc 4c b3 c1 3d 79 7a e7 3d f4 61 b4 3d
       -0.011732214 0.09458026 0.11302657 0.088077456
000140 58 ea 5e 3e 36 22 6b 3d 4f 1e 1f be c7 af 0c 3e
       0.21769083 0.057405673 -0.15538906 0.13738929
000150 9e 31 98 3d f8 a2 95 bb f1 2c 6b be 20 6f 76 bb
       0.07431339 -0.0045665465 -0.22966363 -0.0037602857
000160 24 13 c6 3d 8d 51 0a 3e b5 49 f1 3d 2e b1 84 3d
       0.096716195 0.13507672 0.117816366 0.06479107
000170 22 19 56 3d 8c fe 19 3e da d1 54 bd ab 26 84 bd
       0.052270062 0.15038508 -0.051957943 -0.06452688
000180 66 fa 8f 3d b0 bc 52 be d9 fe b1 bd 78 71 91 bd
       0.070301816 -0.20579791 -0.086911865 -0.071017206
000190 14 46 13 be eb 52 86 bd 5c 7f 71 3e 9a 91 e3 3c
       -0.14382201 -0.06558784 0.2358374 0.02777939
0001a0 e9 9d ea 3d d1 a4 46 3b 3b d9 50 3e f5 b3 1b be
       0.114559 0.003031064 0.20395367 -0.15205367
0001b0 2d 2c 68 bd 51 a3 67 3d 96 d4 f9 3d 92 a9 eb 3d
       -0.056682754 0.056552235 0.12198751 0.11506952
0001c0 2a 97 4b 3e 54 4a 15 3d 99 74 2e bd 44 a3 8d bd
       0.19881883 0.036447838 -0.042591665 -0.06915906
0001d0 e0 48 67 bd 24 06 2a be 87 a8 e4 bd 92 02 55 be
       -0.056465983 -0.16603905 -0.111649565 -0.20801762
0001e0 60 5e 3e bd 72 89 53 3d a9 bf 34 3e 44 cb 6c 3d
       -0.04647672 0.05164475 0.17651238 0.057811037
0001f0 0e a5 1d be fa 79 cd bb 48 a7 3d 3d 42 fc 3d 3d
       -0.15394995 -0.0062706443 0.04630211 0.04638315
000200 31 e1 49 3e 32 b4 a4 3c 31 e9 ff bd f7 75 63 3e
       0.1971481 0.020105455 -0.124956496 0.22212969
000210 26 71 22 3c b0 bd 88 bd 32 6e 3b 3d 8c 5e 08 3d
       0.009914672 -0.06676805 0.045759387 0.033293292
000220 71 c9 37 be 8f e8 a9 3d cd fd 1c 3e c0 eb 07 3e
       -0.17947938 0.0829631 0.15331192 0.13273525
000230 d0 0a ec bd b6 f0 ed bd c2 d2 6d 3d 48 06 f0 3d
       -0.115255 -0.116181776 0.058062322 0.11719948
000240 48 e0 62 3d 2b 87 1d be 8f 86 67 3b d5 c2 2d 3e
       0.055389673 -0.15383594 0.0035328006 0.16968854
000250 1e 28 ab bd 87 db 0d be 69 cc 51 bc 76 f1 09 3e
       -0.08357261 -0.13853274 -0.012805083 0.13471016
000260 2a 21 1c 3e b4 21 f9 bb e4 8b 21 3d 6b 36 23 3d
       0.15247026 -0.0076028947 0.03944005 0.03984682
000270 77 cb 5d bb 3c 91 37 3d 38 5e 35 be 55 3b b2 bd
       -0.0033843198 0.04481624 -0.17711723 -0.08702723
000280 ce 53 35 3d 10 61 04 bd b0 72 cb bd 0b f3 d2 bd
       0.044269376 -0.03231913 -0.09933984 -0.10300263
000290 d1 8a 05 bd c7 76 c0 3b 4f 50 21 3e ad e2 87 bd
       -0.03260309 0.0058735344 0.15753292 -0.06635032
0002a0 6f 1b 0b 3e b4 03 35 bd be 8c 5f bc e5 96 b0 bd
       0.13584684 -0.044192985 -0.013644395 -0.08622531
0002b0 eb c1 b9 3c b9 81 46 3e 2d e8 0a 3e 0a dc 28 3e
       0.022675475 0.19385423 0.1356513 0.16490188
0002c0 45 7c a4 ba 55 ea ce 3c f1 41 68 be 3a 21 b6 3d
       -0.0012549242 0.025258223 -0.22681405 0.08893056
0002d0 86 72 1a 3d 36 80 16 3e 28 5c 1b be 4e ba 58 bd
       0.037706874 0.14697346 -0.15171874 -0.05291205
0002e0 21 07 1f be 32 bc 89 bd bf ab b5 3d c2 d8 0a be
       -0.15530063 -0.067253485 0.088706486 -0.13559249
0002f0 94 96 01 bd fc e8 23 3e 76 b0 19 be dd 94 6f bd
       -0.031637743 0.16006845 -0.15008721 -0.058491576
000300 6a 21 26 3d fd 30 b4 3d bf bc 49 be ad 20 c7 bc
       0.04055921 0.08798406 -0.19700907 -0.024307573
000310 7b 8c d5 3d 53 64 38 3e 86 03 82 3c df 59 aa 3d
       0.10427185 0.1800702 0.01587082 0.08317923
000320 15 d2 d0 3d c4 01 a9 bd 5e 5e cb bd 39 ae 0d bd
       0.1019632 -0.0825229 -0.099301085 -0.03458998
000330 ef e6 57 3d c2 b7 8a 3c 26 79 f9 3d 76 c2 d1 bd
       0.05271047 0.016933326 0.1218131 -0.102421686
000340 13 d1 94 bb c9 5a db 3d 26 c4 37 be 82 3d 9e 3d
       -0.004541525 0.10710675 -0.17945918 0.077265754
000350 c6 53 28 3e 28 b3 92 3d cb 48 02 bd ad 98 70 bd
       0.16438207 0.071630776 -0.031807702 -0.058739353
000360 ec 72 a3 bd 92 75 7d bb 45 51 3a bd 8d 5e 43 3e
       -0.07980904 -0.0038674814 -0.04548766 0.19079037
000370 da c6 2c 3d a6 9b e8 3d 25 ba 9a bc 27 79 6c 3d
       0.042181827 0.113578126 -0.018887589 0.057732727
000380 cb e0 e6 bd 0e d4 a8 bc 97 cc 25 be 02 33 52 3e
       -0.112733446 -0.020608928 -0.16191326 0.2052727
000390 60 66 e0 bd 0c 98 2a bd a3 1a b0 3c 0b 99 03 3e
       -0.109570265 -0.04164891 0.021497076 0.1285135
0003a0 6c d1 c4 bd 92 7e 1d 3e 94 b0 48 3e ef 65 22 3e
       -0.096102566 0.15380314 0.19598609 0.15859197
0003b0 bd aa 67 bd 19 5b d5 3d c3 ad ca bc 14 9c 03 bd
       -0.056559313 0.10417766 -0.02474106 -0.03213127
0003c0 b9 59 c2 bd aa 3d 0f 3e 90 f4 eb bd bd 62 05 be
       -0.094897695 0.13988367 -0.11521256 -0.13025947
0003d0 2a c3 e8 3d d2 f5 ea 3d 1e 12 88 bd e1 21 14 be
       0.113653496 0.11472668 -0.066440806 -0.14466049
0003e0 59 a7 43 be ca a8 13 3e 0a 01 25 be b7 09 48 3c
       -0.19106807 0.14419857 -0.16113678 0.012209347
0003f0 37 70 3d 3c b8 b9 8b bc 83 ae 37 3e 51 cf 86 bd
       0.011562399 -0.017056331 0.17937665 -0.06582511

fc1.bias f4 [138]
000000 a4 54 7f 3e 96 b4 5b 3e 57 a6 8a 3d 75 37 a3 bd
       0.24934632 0.21455607 0.06770008 -0.07969562
000010 08 83 88 3e 42 50 96 be 45 09 07 be e8 e5 06 be
       0.2666247 -0.29358107 -0.1318713 -0.1317364
000020 b7 8d 94 bd ce ab 56 bd d9 cd f8 bd 64 47 67 3e
       -0.072535925 -0.05240994 -0.12148637 0.22585827
000030 bf 80 ab bd e9 62 91 3e 52 88 79 be 2a 1c 13 be
       -0.08374166 0.28395775 -0.24368408 -0.14366212
000040 b3 10 07 3e b8 ee ac bd 87 f3 b4 bd e0 f0 06 be
       0.13189964 -0.084439695 -0.08835512 -0.13177824
000050 97 48 8f 3e 97 9b 81 3e e0 4d 8e be cd d8 b0 3d
       0.2798507 0.25314018 -0.2779379 0.086351015
000060 1a 90 31 be b8 75 dd 3d 5f 4a 70 3e b1 25 68 3e
       -0.17340127 0.10813469 0.2346587 0.22670628
000070 2d 78 90 bd dc 72 80 3e b6 3f 9f be 8d 2c 55 3e
       -0.07054172 0.2508763 -0.31103295 0.20817776
000080 2e 94 9f bd 8b 2b 7a 3e d3 d7 ea bc 8f f5 85 3e
       -0.07791935 0.24430673 -0.028667366 0.2616391
000090 72 e0 20 be 7b db 1d 3e 67 a6 0a be 84 35 88 bd
       -0.15710619 0.15415756 -0.1354004 -0.06650832
0000a0 f1 eb 19 be 96 72 94 3e 6b 5e 85 be 88 0e a6 bd
       -0.15031411 0.28993672 -0.26048598 -0.0810824
0000b0 47 af ac bc c8 db a4 bd c1 00 3f 3e 36 02 50 be
       -0.021079673 -0.080497324 0.18652631 -0.20313343
0000c0 e2 f4 0c be 45 98 48 be d7 f9 28 3e c7 c4 6f be
       -0.1376529 -0.19589336 0.16501556 -0.23414908
0000d0 2a bb 11 3e 50 93 ab bd 0a 85 6b 3d 1b fb 09 be
       0.14231554 -0.08377707 0.057499923 -0.13474695
0000e0 7a 45 97 be 00 3d 70 be ca c5 8d be 4e da 33 be
       -0.29545194 -0.2346077 -0.27689964 -0.17563745
0000f0 12 cc 98 3e 8f 8a 5f 3e 5e a1 4e 3e 07 af 48 bd
       0.29843193 0.218302 0.20178744 -0.048995044
000100 24 ec 83 3e 9b c0 69 bd 5e 22 92 bd 78 f3 db bd
       0.25766098 -0.05706845 -0.07135461 -0.10739797
000110 ea a9 91 3e 1c aa 91 3e 0a 08 ae bd 66 b1 7c be
       0.28449947 0.28450096 -0.08497627 -0.24677047
000120 ae 23 59 3e e1 f1 88 3e 77 54 9c be b0 25 6a 3e
       0.21205017 0.2674704 -0.30533192 0.22865939
000130 87 c6 79 be d4 7b 2a bc 07 b3 4b 3e 17 d3 6b be
       -0.24392138 -0.0104054995 0.19892512 -0.23029743
000140 f4 6c 90 be 8d d0 9b be 30 ec 42 3e 8e f0 67 3e
       -0.28208125 -0.3043255 0.19035411 0.22650358
000150 f6 58 db bd 4d 80 4d 3e c6 55 5f 3e 70 02 95 3e
       -0.10710327 0.20068474 0.21810064 0.29103422
000160 c2 bd 73 be cb cb 3c bd 7f 08 20 be 24 10 ea 3d
       -0.23802856 -0.04609279 -0.15628241 0.1142886
000170 e8 2d 2e be b8 9e 2b 3e dc 12 7b be cc 95 72 be
       -0.170097 0.16759765 -0.24518913 -0.23689955
000180 00 67 9c be 62 7c 40 bd f3 8f b2 bd ec c5 4a be
       -0.30547333 -0.04699362 -0.087188624 -0.19802064
000190 fa e7 93 3e e8 40 3c 3c 1c e3 ae bd 0d 90 94 3e
       0.28887922 0.011490084 -0.085394114 0.29016152
0001a0 22 fa 80 3e c8 f2 60 be 9c e0 90 3e 29 01 e0 bd
       0.25190836 -0.21967614 0.28296363 -0.10937721
0001b0 14 51 ce 3d e7 8a 02 be 4e 09 60 be 4b 14 98 3e
       0.10074058 -0.127483 -0.2187855 0.29702982
0001c0 24 e9 20 3e 1b 38 4f 3e fb 05 ee 3d 16 94 9f be
       0.15713936 0.20236246 0.116222344 -0.31167668
0001d0 c8 87 6f 3e e6 25 47 be 74 f3 92 be 01 fd 50 be
       0.2339164 -0.19448051 -0.28701365 -0.20409013
0001e0 b0 79 3e be 39 ac 5f be e8 db dc bd a9 1e 0b be
       -0.18601108 -0.21843041 -0.10784131 -0.13585915
0001f0 a6 94 83 be 08 54 1f 3e 66 8f 93 bd e8 34 4b 3e
       -0.25699347 0.15559399 -0.072050855 0.19844401
000200 c6 4b 9b 3e 67 b8 17 be 8b f0 71 be d8 39 36 3e
       0.30331248 -0.14816438 -0.23626916 0.17795503
000210 b7 0a 8e be 47 ea 7e be fa 93 98 be 9a d9 05 3e
       -0.2774255 -0.24894057 -0.29800397 0.1307129
000220 4d 96 1d 3e e4 20 5b be
       0.15389366 -0.21399266

batchnorm1.weight f4 [138]
000000 00 00 80 3f 00 00 80 3f 00 00 80 3f 00 00 80 3f
       1.0 1.0 1.0 1.0
000010 00 00 80 3f 00 00 80 3f 00 00 80 3f 00 00 80 3f
       1.0 1.0 1.0 1.0
000020 00 00 80 3f 00 00 80 3f 00 00 80 3f 00 00 80 3f
       1.0 1.0 1.0 1.0
000030 00 00 80 3f 00 00 80 3f 00 00 80 3f 00 00 80 3f
       1.0 1.0 1.0 1.0
000040 00 00 80 3f 00 00 80 3f 00 00 80 3f 00 00 80 3f
       1.0 1.0 1.0 1.0
000050 00 00 80 3f 00 00 80 3f 00 00 80 3f 00 00 80 3f
       1.0 1.0 1.0 1.0
000060 00 00 80 3f 00 00 80 3f 00 00 80 3f 00 00 80 3f
       1.0 1.0 1.0 1.0
000070 00 00 80 3f 00 00 80 3f 00 00 80 3f 00 00 80 3f
       1.0 1.0 1.0 1.0
000080 00 00 80 3f 00 00 80 3f 00 00 80 3f 00 00 80 3f
       1.0 1.0 1.0 1.0
000090 00 00 80 3f 00 00 80 3f 00 00 80 3f 00 00 80 3f
       1.0 1.0 1.0 1.0
0000a0 00 00 80 3f 00 00 80 3f 00 00 80 3f 00 00 80 3f
       1.0 1.0 1.0 1.0
0000b0 00 00 80 3f 00 00 80 3f 00 00 80 3f 00 00 80 3f
       1.0 1.0 1.0 1.0
0000c0 00 00 80 3f 00 00 80 3f 00 00 80 3f 00 00 80 3f
       1.0 1.0 1.0 1.0
0000d0 00 00 80 3f 00 00 80 3f 00 00 80 3f 00 00 80 3f
       1.0 1.0 1.0 1.0
0000e0 00 00 80 3f 00 00 80 3f 00 00 80 3f 00 00 80 3f
       1.0 1.0 1.0 1.0
0000f0 00 00 80 3f 00 00 80 3f 00 00 80 3f 00 00 80 3f
       1.0 1.0 1.0 1.0
000100 00 00 80 3f 00 00 80 3f 00 00 80 3f 00 00 80 3f
       1.0 1.0 1.0 1.0
000110 00 00 80 3f 00 00 80 3f 00 00 80 3f 00 00 80 3f
       1.0 1.0 1.0 1.0
000120 00 00 80 3f 00 00 80 3f 00 00 80 3f 00 00 80 3f
       1.0 1.0 1.0 1.0
000130 00 00 80 3f 00 00 80 3f 00 00 80 3f 00 00 80 3f
       1.0 1.0 1.0 1.0
000140 00 00 80 3f 00 00 80 3f 00 00 80 3f 00 00 80 3f
       1.0 1.0 1.0 1.0
000150 00 00 80 3f 00 00 80 3f 00 00 80 3f 00 00 80 3f
       1.0 1.0 1.0 1.0
000160 00 00 80 3f 00 00 80 3f 00 00 80 3f 00 00 80 3f
       1.0 1.0 1.0 1.0
000170 00 00 80 3f 00 00 80 3f 00 00 80 3f 00 00 80 3f
       1.0 1.0 1.0 1.0
000180 00 00 80 3f 00 00 80 3f 00 00 80 3f 00 00 80 3f
       1.0 1.0 1.0 1.0
000190 00 00 80 3f 00 00 80 3f 00 00 80 3f 00 00 80 3f
       1.0 1.0 1.0 1.0
0001a0 00 00 80 3f 00 00 80 3f 00 00 80 3f 00 00 80 3f
       1.0 1.0 1.0 1.0
0001b0 00 00 80 3f 00 00 80 3f 00 00 80 3f 00 00 80 3f
       1.0 1.0 1.0 1.0
0001c0 00 00 80 3f 00 00 80 3f 00 00 80 3f 00 00 80 3f
       1.0 1.0 1.0 1.0
0001d0 00 00 80 3f 00 00 80 3f 00 00 80 3f 00 00 80 3f
       1.0 1.0 1.0 1.0
0001e0 00 00 80 3f 00 00 80 3f 00 00 80 3f 00 00 80 3f
       1.0 1.0 1.0 1.0
0001f0 00 00 80 3f 00 00 80 3f 00 00 80 3f 00 00 80 3f
       1.0 1.0 1.0 1.0
000200 00 00 80 3f 00 00 80 3f 00 00 80 3f 00 00 80 3f
       1.0 1.0 1.0 1.0
000210 00 00 80 3f 00 00 80 3f 00 00 80 3f 00 00 80 3f
       1.0 1.0 1.0 1.0
000220 00 00 80 3f 00 00 80 3f
       1.0 1.0

batchnorm1.bias f4 [138]
000000 00 00 00 00 00 00 00 00 00 00 00 00 00 00 00 00
       0.0 0.0 0.0 0.0
000010 00 00 00 00 00 00 00 00 00 00 00 00 00 00 00 00
       0.0 0.0 0.0 0.0
000020 00 00 00 00 00 00 00 00 00 00 00 00 00 00 00 00
       0.0 0.0 0.0 0.0
000030 00 00 00 00 00 00 00 00 00 00 00 00 00 00 00 00
       0.0 0.0 0.0 0.0
000040 00 00 00 00 00 00 00 00 00 00 00 00 00 00 00 00
       0.0 0.0 0.0 0.0
000050 00 00 00 00 00 00 00 00 00 00 00 00 00 00 00 00
       0.0 0.0 0.0 0.0
000060 00 00 00 00 00 00 00 00 00 00 00 00 00 00 00 00
       0.0 0.0 0.0 0.0
000070 00 00 00 00 00 00 00 00 00 00 00 00 00 00 00 00
       0.0 0.0 0.0 0.0
000080 00 00 00 00 00 00 00 00 00 00 00 00 00 00 00 00
       0.0 0.0 0.0 0.0
000090 00 00 00 00 00 00 00 00 00 00 00 00 00 00 00 00
       0.0 0.0 0.0 0.0
0000a0 00 00 00 00 00 00 00 00 00 00 00 00 00 00 00 00
       0.0 0.0 0.0 0.0
0000b0 00 00 00 00 00 00 00 00 00 00 00 00 00 00 00 00
       0.0 0.0 0.0 0.0
0000c0 00 00 00 00 00 00 00 00 00 00 00 00 00 00 00 00
       0.0 0.0 0.0 0.0
0000d0 00 00 00 00 00 00 00 00 00 00 00 00 00 00 00 00
       0.0 0.0 0.0 0.0
0000e0 00 00 00 00 00 00 00 00 00 00 00 00 00 00 00 00
       0.0 0.0 0.0 0.0
0000f0 00 00 00 00 00 00 00 00 00 00 00 00 00 00 00 00
       0.0 0.0 0.0 0.0
000100 00 00 00 00 00 00 00 00 00 00 00 00 00 00 00 00
       0.0 0.0 0.0 0.0
000110 00 00 00 00 00 00 00 00 00 00 00 00 00 00 00 00
       0.0 0.0 0.0 0.0
000120 00 00 00 00 00 00 00 00 00 00 00 00 00 00 00 00
       0.0 0.0 0.0 0.0
000130 00 00 00 00 00 00 00 00 00 00 00 00 00 00 00 00
       0.0 0.0 0.0 0.0
000140 00 00 00 00 00 00 00 00 00 00 00 00 00 00 00 00
       0.0 0.0 0.0 0.0
000150 00 00 00 00 00 00 00 00 00 00 00 00 00 00 00 00
       0.0 0.0 0.0 0.0
000160 00 00 00 00 00 00 00 00 00 00 00 00 00 00 00 00
       0.0 0.0 0.0 0.0
000170 00 00 00 00 00 00 00 00 00 00 00 00 00 00 00 00
       0.0 0.0 0.0 0.0
000180 00 00 00 00 00 00 00 00 00 00 00 00 00 00 00 00
       0.0 0.0 0.0 0.0
000190 00 00 00 00 00 00 00 00 00 00 00 00 00 00 00 00
       0.0 0.0 0.0 0.0
0001a0 00 00 00 00 00 00 00 00 00 00 00 00 00 00 00 00
       0.0 0.0 0.0 0.0
0001b0 00 00 00 00 00 00 00 00 00 00 00 00 00 00 00 00
       0.0 0.0 0.0 0.0
0001c0 00 00 00 00 00 00 00 00 00 00 00 00 00 00 00 00
       0.0 0.0 0.0 0.0
0001d0 00 00 00 00 00 00 00 00 00 00 00 00 00 00 00 00
       0.0 0.0 0.0 0.0
0001e0 00 00 00 00 00 00 00 00 00 00 00 00 00 00 00 00
       0.0 0.0 0.0 0.0
0001f0 00 00 00 00 00 00 00 00 00 00 00 00 00 00 00 00
       0.0 0.0 0.0 0.0
000200 00 00 00 00 00 00 00 00 00 00 00 00 00 00 00 00
       0.0 0.0 0.0 0.0
000210 00 00 00 00 00 00 00 00 00 00 00 00 00 00 00 00
       0.0 0.0 0.0 0.0
000220 00 00 00 00 00 00 00 00
       0.0 0.0

batchnorm1.running_mean f4 [138]
000000 3f 33 a1 3e 90 41 2a 3e f1 54 75 3e 07 70 85 be
       0.3148441 0.16626573 0.23958184 -0.26062033
000010 cf 61 65 3e c0 04 f6 be 24 b8 f9 bd 9b 11 94 be
       0.22400592 -0.480505 -0.12193325 -0.28919682
000020 93 cf 35 be c8 cc 31 be c2 3c 40 be 3e cb 88 3e
       -0.17754965 -0.17363274 -0.18773177 0.2671756
000030 8d 50 a9 be f9 a0 b3 3e 36 10 dd be 18 4a 4d be
       -0.33069268 0.3508375 -0.4317643 -0.20047796
000040 80 5b 8f 3e b7 db 7c be 7c 1a ca bd d0 b7 97 be
       0.27999496 -0.2469319 -0.09868333 -0.29632425
000050 da 7b 87 3e 39 ae a9 3e 12 b1 b4 be c1 32 35 3e
       0.2646168 0.33140734 -0.35291344 0.17695142
000060 9e 99 8b be 75 54 96 3e c3 5a 86 3e 80 df 59 3e
       -0.27265638 0.2936131 0.2624112 0.21276665
000070 d5 ce 8c be 7e 7b a8 3e 54 de e5 be 11 fb 9f 3e
       -0.2750155 0.32906717 -0.44896185 0.31246236
000080 4a e1 6a be 34 4b 74 3e dc d6 7c be e1 c2 82 3e
       -0.22937503 0.23856813 -0.24691337 0.25539306
000090 52 00 b9 be 70 6e 61 3e 58 06 37 be 56 31 74 be
       -0.36133057 0.22014785 -0.17873514 -0.23846945
0000a0 74 44 12 be 49 1f a6 3e 4c ee 02 bf 11 1b 3d be
       -0.14283925 0.32445744 -0.5114486 -0.18467356
0000b0 af 68 25 be 82 29 63 be 8b dd 18 3f 58 1e c9 be
       -0.16153215 -0.22183803 0.5971305 -0.39280963
0000c0 d2 7c 8e be 7b ed 8f be f7 7a 44 3e 41 10 d8 be
       -0.27829605 -0.2811087 0.19187532 -0.421999
0000d0 40 7a 8e 3e 36 5b 7e be 86 a5 e2 3d ea 71 19 be
       0.27827644 -0.24839482 0.11066727 -0.14984861
0000e0 dc b0 e3 be 5c 96 bc be da bb b5 be 49 93 ba be
       -0.4447087 -0.36833465 -0.35494882 -0.36440495
0000f0 a7 74 e4 3e 42 57 be 3e 9c ec a2 3e 4a 86 0d be
       0.4462025 0.37175947 0.31821144 -0.13820758
000100 fd c4 0e 3f 8a 65 27 be fe f8 3e be 40 3b 7e be
       0.5576933 -0.16347328 -0.1864967 -0.2482729
000110 6f 04 9f 3e e5 cc 9e 3e a4 92 6b be e5 d6 a8 be
       0.3105807 0.31015697 -0.23005158 -0.32976452
000120 21 89 88 3e 67 9b 9f 3e 70 ed ec be d7 4a a3 3e
       0.2666712 0.3117325 -0.462749 0.31893036
000130 f5 80 b0 be 53 3b 1c be e1 68 78 3e 66 83 b1 be
       -0.34473386 -0.15257005 0.24258758 -0.34670562
000140 38 df 04 bf f7 2e 06 bf c8 4f 3c 3e b2 4e 13 3e
       -0.51903105 -0.5241541 0.18389809 0.14385489
000150 96 60 ad bd 8f 6f 9a 3e 83 3a 6f 3e 4a 3f 9b 3e
       -0.08465688 0.30163237 0.23362164 0.30321723
000160 10 3b d5 be 8f 26 5f be b5 a7 93 be b6 8e 8f 3e
       -0.41646624 -0.21792053 -0.28838888 0.28038567
000170 2b 09 bd be b2 0d 81 3e e2 1f d2 be 25 e2 d7 be
       -0.36921057 0.2520576 -0.4103995 -0.42164722
000180 0e a8 db be bc 75 31 be ed 6f 9c be aa 36 c6 be
       -0.42901653 -0.17330068 -0.30554143 -0.3871358
000190 2f 65 c5 3e cf 96 43 be 69 ad ab be 30 72 c5 3e
       0.3855376 -0.19100498 -0.3353074 0.3856368
0001a0 f4 ea af 3e 5c 9e c9 be fb 67 de 3e 40 bd 6c be
       0.34358943 -0.3937863 0.43438706 -0.23119068
0001b0 06 aa 5a 3e 5f 87 5f be d0 69 c3 be 8a 1a c2 3e
       0.21353921 -0.21828984 -0.38166666 0.37910873
0001c0 f7 19 c7 3e 0c 57 8e 3e 27 dc 36 3e 97 9d d9 be
       0.38886997 0.27800786 0.17857419 -0.42503044
0001d0 6c d2 98 3e b8 5a ac be 39 f6 01 bf 41 6b 76 be
       0.2984804 -0.33662963 -0.5076633 -0.24064352
0001e0 b2 11 84 be ea dd d0 be 5c 96 38 be e4 14 86 be
       -0.2579475 -0.40794307 -0.18026108 -0.26187813
0001f0 f8 6f 81 be 15 dd 7c 3e 19 1a 7b be 7a 9d 60 3e
       -0.25280738 0.24693711 -0.24521674 0.21935073
000200 a0 cb 94 3e 80 99 bb be 3b 9d bd be 5c 35 56 3e
       0.29061604 -0.3664055 -0.3703402 0.20918792
000210 8e 4e ec be b8 79 a3 be cc a8 c1 be 9a 9f 6f 3e
       -0.46153682 -0.31928802 -0.37824094 0.23400727
000220 1e 1f 5f 3e 1c f9 e3 be
       0.21789214 -0.44525993

batchnorm1.running_var f4 [138]
000000 e8 88 44 3e ea 74 81 3e 30 b8 81 3e 28 bc d6 3e
       0.1919285 0.2528451 0.25335836 0.41940427
000010 c5 c8 08 3e b6 50 15 3e 35 fc 88 3e 39 f7 d1 3e
       0.13357837 0.1458157 0.2675492 0.41008928
000020 8c 25 b9 3e 15 1d 10 3f 54 b8 03 3f 05 99 9a 3d
       0.36161458 0.56294376 0.5145314 0.075487174
000030 be 44 8b 3e ac 76 fc 3d fc c5 3b 3e fb ee 05 3f
       0.27200884 0.12327322 0.18337244 0.5231778
000040 c0 f3 33 3e 13 b3 ea 3e b3 60 88 3e fd 51 a1 3e
       0.17573452 0.45839748 0.26636276 0.31507865
000050 70 a9 80 3f a5 7d 07 3e f2 77 14 3e c5 ca 41 3f
       1.0051708 0.13231523 0.1449888 0.75700027
000060 0b 81 7b 3e 99 2d 78 3f f1 a4 3b 3f 68 46 44 3f
       0.24560945 0.96944577 0.73298556 0.7666993
000070 f4 3c b8 3e 2d 40 8a 3e 92 95 f3 3d 28 30 24 3e
       0.35984004 0.27002087 0.11893763 0.16033995
000080 ad bd e0 3e a5 fa 17 3f a6 b7 cd 3e 06 f9 7e 3d
       0.4389471 0.5936683 0.40179175 0.062249206
000090 a8 7c 94 3e 0a d5 44 3f 34 57 86 3e 31 5d 4e 3e
       0.29001355 0.7688757 0.26238406 0.20152737
0000a0 a8 a2 4b 3e 33 09 7b 3d e3 ef 16 3e 8e 42 e2 3e
       0.19886267 0.06128807 0.14739947 0.44191402
0000b0 d4 c5 06 3f 17 2c e4 3e 1b cf 62 40 ff d6 77 3e
       0.5264561 0.44564888 3.5438907 0.24203108
0000c0 6c 64 88 3e 91 3f 93 3e a3 a9 83 3f 22 f2 cc 3d
       0.26639116 0.28759435 1.0286144 0.10007121
0000d0 3e 6f dd 3f b2 e6 7a 3e 10 fd f9 3e 9c 3f 71 3e
       1.7299573 0.24502066 0.48825884 0.23559421
0000e0 09 62 95 3d ba 78 90 3e 6c 50 a7 3d cd bf 9a 3e
       0.07294089 0.28217107 0.08169636 0.30224457
0000f0 f2 60 39 3e 31 fe 2f 3e b7 6e 4b 3e 9b 3f 88 3e
       0.18103388 0.1718681 0.19866453 0.26611027
000100 2e ab 23 40 03 8f 06 3f 28 08 13 3f 6c ec 90 3e
       2.557323 0.5256197 0.5743432 0.28305376
000110 d5 ce e7 3d 7d 88 3b 3e ea 06 a8 3e d4 4c 7b 3e
       0.11318747 0.18313785 0.32817775 0.24541026
000120 b1 c5 9c 3e 10 3b 14 40 be 08 9b 3d 48 96 2a 3f
       0.30619577 2.316105 0.07570027 0.6663556
000130 83 6c be 3e 1a e0 2d 3f 28 bb 40 3d 05 c8 e0 3d
       0.37192163 0.67920077 0.047053486 0.10975651
000140 69 80 ad 3d 2d 49 14 3e af 43 f8 3d 98 42 4f 3f
       0.08471758 0.1448104 0.121222846 0.8096099
000150 2d 78 9c 3e 3a 89 19 3e c5 54 94 3d 45 9a b1 3f
       0.30560437 0.14993754 0.07242731 1.3875204
000160 d5 79 1d 3e 86 94 ae 3e d4 a6 63 3e a9 16 48 40
       0.15378506 0.3409769 0.22231609 3.126383
000170 ad e4 84 3e b2 88 86 3e 6a 8a 41 3e 27 22 5e 3e
       0.25955716 0.26276165 0.18900457 0.21692716
000180 72 94 a1 3e bd 52 c9 3e 6e c8 8e 3e 9a e9 68 3e
       0.31558567 0.39320937 0.2788729 0.22745362
000190 c0 4a 35 3e ed d1 c6 3e 52 b9 8f 3e 49 68 d3 3d
       0.17704296 0.38832036 0.28071076 0.10322625
0001a0 32 e3 de 3d b7 09 c0 3d d2 24 bc 3f 69 22 a6 3e
       0.10883178 0.09376853 1.4698737 0.32448128
0001b0 bf 3e 12 3e f4 b9 42 3e 1f 8f 53 3e 69 19 9a 3d
       0.14281748 0.19016248 0.20660065 0.07524378
0001c0 fd f9 4e 40 d6 6e 09 3e 5e 1d 42 3e d6 9c 98 3e
       3.234008 0.13421187 0.18956515 0.29807156
0001d0 3f a3 52 3e 46 d9 89 3e 6e 62 2a 3e 25 16 46 3e
       0.20570086 0.2692358 0.1663911 0.19344385
0001e0 49 44 bc 3e 37 41 4e 3e c0 ef b4 3e 2e 78 f7 3e
       0.36770847 0.20142065 0.35339165 0.48333877
0001f0 6d 6a 45 3e 31 bc c4 3d 72 b9 ab 3e ce ff 82 3e
       0.1927888 0.09606207 0.3353992 0.25585788
000200 37 0c 3f 3d ec 17 90 3e 8e 68 05 3e 7e 34 16 3e
       0.04664251 0.2814325 0.13028166 0.14668462
000210 da d2 d6 3d 5d ef 9e 3d cd 13 6b 3e 7f 2a 27 3e
       0.104894355 0.07760499 0.22956772 0.16324805
000220 e6 59 bd 3e ac be 15 3e
       0.3698265 0.14623517

fc2.weight f4 [69, 138]
000000 00 81 01 be 58 c4 0b be 5d d1 9f bd fc 3e 12 3e
       -0.12646866 -0.13649118 -0.07803605 0.14281839
000010 a3 f6 bd bd bb 6e 41 3d 12 0e e2 3d 5c 28 10 bc
       -0.09275558 0.04722474 0.1103784 -0.008798685
000020 69 74 f5 3d f4 0b 08 3d 3c 85 8d 3d 4c 39 f2 bd
       0.11985094 0.033214524 0.06910178 -0.11827335
000030 a5 69 1c 3d c4 ca f8 bd 59 1c cc 3d 9b 13 dd 3d
       0.038186688 -0.121480495 0.099663444 0.10794755
000040 5c e6 2f bd 0a b2 08 3e 33 ee 84 3d 89 26 d1 3c
       -0.042944297 0.13349167 0.064907454 0.02553107
000050 49 ac ef bd 2e 1e 50 bd f3 83 7d 3d f9 73 b3 bd
       -0.11702783 -0.05081003 0.061893415 -0.087623544
000060 61 5c 00 3e cb 9d d8 bd ec a5 98 bd 30 1d 09 bd
       0.1253524 -0.105769716 -0.07453522 -0.0334751
000070 66 ec 52 3d 54 13 d1 bd 4e b7 25 3e ed e0 98 bc
       0.05149498 -0.10208765 0.16183206 -0.01866194
000080 5f 73 0f 3d 76 ab 6f bc b2 80 21 3d d4 87 da bd
       0.035022136 -0.014628282 0.039429374 -0.106704384
000090 03 4f 22 3e da a0 5a bd a2 9f 2c 3b ed d1 0d 3e
       0.15850453 -0.053376056 0.0026340266 0.13849612
0000a0 d7 82 35 3c d8 5c cc bd e9 7a 5c 3d 15 5a 05 bd
       0.011078558 -0.09978646 0.053828154 -0.032556612
0000b0 10 90 3f 3d f8 16 15 bd 2a 7c 17 be c1 30 27 3d
       0.046768248 -0.036398858 -0.14793459 0.04081798
0000c0 1b 41 eb 3b e9 04 8b 3b c1 e7 06 bd 77 ea c9 3c
       0.007179392 0.0042425287 -0.03293586 0.024647934
0000d0 6a a2 56 bd aa 0e 88 3d e9 6c 71 bd 4c b9 f6 3d
       -0.052400984 0.06643422 -0.058941755 0.12047061
0000e0 a0 4c f4 3d 92 1c 97 3d e8 c2 02 3e 5c c5 21 3e
       0.119286776 0.07378496 0.12769663 0.15797943
0000f0 16 7a 03 be 29 90 92 bd 35 f2 dc bb 70 1c bd 3d
       -0.12839541 -0.071564026 -0.0067427405 0.0923394
000100 48 bc 0f be ec 78 b8 3d c9 1e 50 bd be 43 ba 3c
       -0.14036667 0.09007439 -0.05081061 0.02273738
000110 06 33 ff bd 0d 77 cf bd 02 9a da 3d 4b e7 17 3e
       -0.12460904 -0.10130129 0.10673906 0.14834325
000120 df f8 89 bc cc 20 0a be 80 c3 91 3c 98 b8 b9 bd
       -0.016842304 -0.13489074 0.017793417 -0.090684116
000130 c0 f4 d8 3d 08 36 89 bc 51 d0 21 bd 1a e2 02 3e
       0.10593557 -0.016749397 -0.039505307 0.12781563
000140 bf af d7 3d 85 c3 2f 3d 94 25 0d be 66 e5 89 3c
       0.10531568 0.04291107 -0.13783866 0.016833019
000150 cd 92 25 ba e9 11 17 bd d6 0a 0a be 55 4e 53 bd
       -0.00063161255 -0.036882315 -0.13480696 -0.051588375
000160 ce d7 0c 3e 71 d7 fd bc 97 11 dc 3c 70 4c 83 bd
       0.13754198 -0.03098652 0.026863856 -0.06411064
000170 7c a4 80 3d ac 81 a1 bc e4 7a cf 3d 80 35 a1 3d
       0.06281373 -0.019715153 0.101308614 0.078715324
000180 c1 1e 03 3e 16 5f d5 bc b1 8b 08 3e 69 c5 8d 3d
       0.128047 -0.026046317 0.13334538 0.069224186
000190 12 e2 10 be cc 35 98 3d a7 8f e4 3d a1 36 02 bd
       -0.14148739 0.07432136 0.11160212 -0.03179038
0001a0 c3 ec d8 bd 5f 33 07 3d f7 23 b1 bc ec 98 8a 3c
       -0.10592034 0.033007976 -0.021623595 0.016918622
0001b0 22 75 a7 bd d5 55 8f 3c b9 05 97 3d ca 1b d0 bd
       -0.08176638 0.017496983 0.073741384 -0.1016155
0001c0 bf f9 d1 bd e0 8d 16 bc dc df a1 bd 4b a1 1a 3e
       -0.102527134 -0.009189099 -0.07904026 0.15100591
0001d0 96 e1 07 bd e2 87 b3 3b 33 1b 1a 3e 73 75 09 3e
       -0.03317412 0.005478845 0.15049438 0.1342371
0001e0 cd 1e e0 3b ec 1a e9 3d 74 e7 a1 3b 82 39 81 3c
       0.0068396092 0.11382088 0.0049409214 0.015774492
0001f0 73 de f1 3d 17 6b 1f be 3a 1e aa 3d 77 be 16 bd
       0.11810007 -0.15568195 0.083065465 -0.036802735
000200 f1 67 05 be fc 63 9e 3d 26 07 a6 3d a1 01 a6 bd
       -0.13027932 0.07733914 0.08106832 -0.081057794
000210 76 62 ac 3c 3b bc 1c 3e 21 92 85 3d 86 82 a6 bd
       0.021043044 0.15306179 0.065220125 -0.08130364
000220 0d 0d d7 bd 5d 8c 33 bb d4 6e 9c 3d ed e6 1d 3e
       -0.10500536 -0.0027396895 0.07638326 0.15420122
000230 ae 45 41 3d 28 a3 0a 3c d5 73 4a 3d 9c ed fa bd
       0.047185592 0.008461751 0.049426872 -0.12252352
000240 77 9f 0f bd 28 c1 fd bd a8 2d 85 bc e7 3d c7 3b
       -0.035064187 -0.12390357 -0.016257122 0.0060803774
000250 c2 d4 7e bd 0c ca aa 3d 15 2e 2f be 4e aa 42 3d
       -0.06221462 0.08339319 -0.17107423 0.047525696
000260 48 f6 a2 bd f0 f5 d2 bc ef ce dd 3d 4d 24 0b be
       -0.07957131 -0.025752038 0.10830485 -0.13588066
000270 33 83 b9 bd 9a d3 f8 bd 36 ce 07 3e 6d d5 e9 3d
       -0.090582274 -0.12149735 0.13262257 0.11417661
000280 c8 b9 a8 bd 87 7c 1c 3e f7 62 a9 bc b4 14 db 3d
       -0.0823856 0.15281878 -0.020677073 0.10697308
000290 33 39 46 3d c4 8f bb 3c 44 fc a5 bd ca 61 27 3e
       0.048394393 0.022895701 -0.081047565 0.16345897
0002a0 01 d4 23 be 01 0d 7c 3b 23 17 19 be f8 db 03 3e
       -0.15998842 0.00384599 -0.14950232 0.1287688
0002b0 cc ed 64 bc f3 78 2a 3e 58 04 00 be 48 7d 81 3d
       -0.013972711 0.16647701 -0.12501657 0.063227236
0002c0 da 24 f8 bd 3d 62 39 bd e6 5c 47 bc 48 19 af 3d
       -0.12116404 -0.045259703 -0.012168145 0.08549744
0002d0 18 f2 c4 bd 18 fd 08 be 15 bc 22 bd 4d ba 29 be
       -0.09616488 -0.13377798 -0.03973015 -0.16574974
0002e0 9f 7a 15 3d cb c1 40 bd bb cf e4 bd 0a 87 ef bd
       0.036493894 -0.047059815 -0.11172434 -0.116956785
0002f0 60 5d 68 3c 3c 40 9d bd dd 42 d9 3d 3e c4 bc bd
       0.014182419 -0.07678267 0.10608456 -0.09217118
000300 d0 61 b0 3c 57 50 1a bc 8d 20 43 bc 04 4d f5 ba
       0.021531016 -0.009418569 -0.011909616 -0.0018714969
000310 91 ba 20 be 35 b1 98 bb 12 6b 23 3e 63 b8 83 3d
       -0.1569617 -0.0046597966 0.15958813 0.06431653
000320 a3 75 c7 3d b1 46 cd ba 66 43 7c 3d 27 75 7c bc
       0.09739234 -0.0015661326 0.061587714 -0.015408791
000330 37 f5 08 be 87 38 c5 3b 97 7c 19 3e 3b ab 89 3d
       -0.13374792 0.0060187015 0.14988934 0.06722113
000340 ae 0e 60 bd 34 6f 11 be f5 31 10 3e 76 19 fd 3d
       -0.0547015 -0.14202577 0.14081557 0.12358372
000350 a9 56 f0 bd c7 15 1f 3d 41 bd a4 bd d2 da cd 3b
       -0.11735279 0.038839128 -0.0804391 0.006282189
000360 1a 72 10 3e 93 4e a7 bc 05 1d d6 bd 85 6c 1a be
       0.14106026 -0.02042321 -0.10454754 -0.1508046
000370 00 fd d0 3d 7c a2 d0 3d 0b 93 8e 3c 4d 9d 2a 3c
       0.10204506 0.101872414 0.0174041 0.01041348
000380 43 fb 2e 3d a2 c3 fe 3d 69 a3 0d be 3c 20 f4 bd
       0.04272009 0.12439658 -0.13831867 -0.11920211
000390 af b5 f1 bc a4 15 51 3d eb 0f 30 be e2 53 70 3d
       -0.029505579 0.05104603 -0.17193572 0.058673747
0003a0 c8 bd 3a bd e9 cc 20 be 19 d4 96 bd 42 1c 7d bd
       -0.045591146 -0.15703167 -0.07364673 -0.061794527
0003b0 ec ec ba bc 11 4a df bd 92 91 57 3d 74 6c f3 bc
       -0.022818051 -0.10902799 0.05262906 -0.0297148
0003c0 a9 61 69 bd 22 b9 93 3d 2d 23 39 3c 43 cb 32 bc
       -0.0569779 0.07213046 0.0112998905 -0.010912719
0003d0 cf 5a d6 3d 22 dd 05 be 62 3e 03 3e 69 25 1d be
       0.10466539 -0.13072637 0.12816766 -0.15346302
0003e0 3b e8 c8 bd 2f 2d 2d 3e 85 70 8c 3d 67 a0 14 3e
       -0.098099194 0.16911767 0.06857399 0.14514314
0003f0 c5 1e 97 3d 90 62 0f be 5f 83 69 3d 78 9e 55 bd
       0.07378916 -0.14002442 0.05701005 -0.05215308

batchnorm2.weight f4 [69]
000000 00 00 80 3f 00 00 80 3f 00 00 80 3f 00 00 80 3f
       1.0 1.0 1.0 1.0
000010 00 00 80 3f 00 00 80 3f 00 00 80 3f 00 00 80 3f
       1.0 1.0 1.0 1.0
000020 00 00 80 3f 00 00 80 3f 00 00 80 3f 00 00 80 3f
       1.0 1.0 1.0 1.0
000030 00 00 80 3f 00 00 80 3f 00 00 80 3f 00 00 80 3f
       1.0 1.0 1.0 1.0
000040 00 00 80 3f 00 00 80 3f 00 00 80 3f 00 00 80 3f
       1.0 1.0 1.0 1.0
000050 00 00 80 3f 00 00 80 3f 00 00 80 3f 00 00 80 3f
       1.0 1.0 1.0 1.0
000060 00 00 80 3f 00 00 80 3f 00 00 80 3f 00 00 80 3f
       1.0 1.0 1.0 1.0
000070 00 00 80 3f 00 00 80 3f 00 00 80 3f 00 00 80 3f
       1.0 1.0 1.0 1.0
000080 00 00 80 3f 00 00 80 3f 00 00 80 3f 00 00 80 3f
       1.0 1.0 1.0 1.0
000090 00 00 80 3f 00 00 80 3f 00 00 80 3f 00 00 80 3f
       1.0 1.0 1.0 1.0
0000a0 00 00 80 3f 00 00 80 3f 00 00 80 3f 00 00 80 3f
       1.0 1.0 1.0 1.0
0000b0 00 00 80 3f 00 00 80 3f 00 00 80 3f 00 00 80 3f
       1.0 1.0 1.0 1.0
0000c0 00 00 80 3f 00 00 80 3f 00 00 80 3f 00 00 80 3f
       1.0 1.0 1.0 1.0
0000d0 00 00 80 3f 00 00 80 3f 00 00 80 3f 00 00 80 3f
       1.0 1.0 1.0 1.0
0000e0 00 00 80 3f 00 00 80 3f 00 00 80 3f 00 00 80 3f
       1.0 1.0 1.0 1.0
0000f0 00 00 80 3f 00 00 80 3f 00 00 80 3f 00 00 80 3f
       1.0 1.0 1.0 1.0
000100 00 00 80 3f 00 00 80 3f 00 00 80 3f 00 00 80 3f
       1.0 1.0 1.0 1.0
000110 00 00 80 3f
       1.0

batchnorm2.bias f4 [69]
000000 00 00 00 00 00 00 00 00 00 00 00 00 00 00 00 00
       0.0 0.0 0.0 0.0
000010 00 00 00 00 00 00 00 00 00 00 00 00 00 00 00 00
       0.0 0.0 0.0 0.0
000020 00 00 00 00 00 00 00 00 00 00 00 00 00 00 00 00
       0.0 0.0 0.0 0.0
000030 00 00 00 00 00 00 00 00 00 00 00 00 00 00 00 00
       0.0 0.0 0.0 0.0
000040 00 00 00 00 00 00 00 00 00 00 00 00 00 00 00 00
       0.0 0.0 0.0 0.0
000050 00 00 00 00 00 00 00 00 00 00 00 00 00 00 00 00
       0.0 0.0 0.0 0.0
000060 00 00 00 00 00 00 00 00 00 00 00 00 00 00 00 00
       0.0 0.0 0.0 0.0
000070 00 00 00 00 00 00 00 00 00 00 00 00 00 00 00 00
       0.0 0.0 0.0 0.0
000080 00 00 00 00 00 00 00 00 00 00 00 00 00 00 00 00
       0.0 0.0 0.0 0.0
000090 00 00 00 00 00 00 00 00 00 00 00 00 00 00 00 00
       0.0 0.0 0.0 0.0
0000a0 00 00 00 00 00 00 00 00 00 00 00 00 00 00 00 00
       0.0 0.0 0.0 0.0
0000b0 00 00 00 00 00 00 00 00 00 00 00 00 00 00 00 00
       0.0 0.0 0.0 0.0
0000c0 00 00 00 00 00 00 00 00 00 00 00 00 00 00 00 00
       0.0 0.0 0.0 0.0
0000d0 00 00 00 00 00 00 00 00 00 00 00 00 00 00 00 00
       0.0 0.0 0.0 0.0
0000e0 00 00 00 00 00 00 00 00 00 00 00 00 00 00 00 00
       0.0 0.0 0.0 0.0
0000f0 00 00 00 00 00 00 00 00 00 00 00 00 00 00 00 00
       0.0 0.0 0.0 0.0
000100 00 00 00 00 00 00 00 00 00 00 00 00 00 00 00 00
       0.0 0.0 0.0 0.0
000110 00 00 00 00
       0.0

batchnorm2.running_mean f4 [69]
000000 45 e4 d0 bf 44 21 6e 40 a1 4b 74 40 da b5 7b 40
       -1.6319662 3.7207804 3.817116 3.9329743
000010 05 7c d0 bf ee be 7d 40 05 51 c8 bf 1e 44 7a 40
       -1.6287848 3.9647784 -1.5649725 3.9104075
000020 1a e7 7e 40 e4 ed 85 40 1c 7d 71 40 02 12 6f 40
       3.9828553 4.1852894 3.773261 3.735474
000030 e4 29 c8 bf ab 0f 71 40 3c 91 cb bf 62 2f cd bf
       -1.5637784 3.7665813 -1.5903697 -1.6030085
000040 97 11 cb bf 9a 31 ca bf 77 ae ce bf 9a a2 c9 bf
       -1.5864743 -1.5796387 -1.6146992 -1.5752747
000050 ff 3e cc bf 49 50 73 40 af de c9 bf 74 4b 7a 40
       -1.5956725 3.8017752 -1.5771083 3.9108553
000060 81 8b c9 bf 9c 27 cb bf b9 47 c9 bf f0 6d 57 40
       -1.5745698 -1.5871463 -1.5725013 3.366085
000070 18 d7 7e 40 43 79 65 40 43 fb ce bf 8c 59 cb bf
       3.9818783 3.5855262 -1.6170429 -1.5886703
000080 14 32 cd bf 88 48 cb bf 88 b1 cd bf fa 10 7a 40
       -1.6030908 -1.588151 -1.6069803 3.9072862
000090 10 5c c9 bf 90 8f 7f 40 12 52 7c 40 00 a9 5f 40
       -1.573122 3.9931374 3.9425092 3.49469
0000a0 47 35 cd bf d4 99 cb bf 88 fd ce bf fd a5 ce bf
       -1.6031884 -1.590632 -1.6171122 -1.6144406
0000b0 da 3f c9 bf 12 75 cb bf 5e 59 6c 40 78 bb 76 40
       -1.5722611 -1.5895102 3.6929545 3.8551922
0000c0 15 15 6b 40 90 b3 c8 bf 45 41 87 40 e9 b7 6f 40
       3.6731617 -1.5679798 4.2267175 3.7456
0000d0 cf 58 cb bf 9b 98 67 40 90 4f 72 40 f4 2e cd bf
       -1.5886477 3.6186893 3.786106 -1.6029954
0000e0 1b bf 6d 40 1d c4 cc bf 04 3e cd bf a3 79 70 40
       3.7147892 -1.5997349 -1.6034551 3.757424
0000f0 a7 f2 cb bf 64 b6 ca bf a1 57 cc bf e9 fd 7a 40
       -1.5933427 -1.5836911 -1.5964242 3.9217474
000100 7e 20 cc bf e9 4f ca bf 68 eb cc bf 9f be 63 40
       -1.5947416 -1.5805637 -1.600934 3.5585096
000110 85 c1 cd bf
       -1.6074682

batchnorm2.running_var f4 [69]
000000 54 77 79 3c 06 66 67 40 2c c9 84 40 67 a2 99 40
       0.015226204 3.615602 4.149557 4.8010745
000010 8e 2e 81 3c e8 88 9d 40 f1 89 0d 3d ff a0 96 40
       0.01576927 4.922962 0.03455538 4.707153
000020 09 5d a2 40 82 02 78 40 2c 18 94 40 fe bb 9c 40
       5.073857 3.875153 4.6279507 4.8979483
000030 b0 eb 0d 3d 2a a0 71 40 3d 19 bc 3c 1a 67 da 3c
       0.034648597 3.7754006 0.022961253 0.02666049
000040 4d e0 24 3d b8 cb c1 3c 1b c3 a0 3c 95 80 fa 3c
       0.040252972 0.023656711 0.019624284 0.03057889
000050 8c 87 fd 3c 4e 88 83 40 13 4e d0 3c 91 a4 90 40
       0.030948423 4.1103888 0.025427854 4.5200887
000060 96 33 f9 3c eb 67 c2 3c ce 78 ee 3c 96 a3 44 40
       0.030420106 0.023731193 0.029110339 3.0724845
000070 6b 34 97 40 ff 52 56 40 ef 13 70 3c 49 95 db 3c
       4.7251487 3.3488157 0.01465319 0.026804583
000080 04 2d 6f 3c 12 fa b4 3c 2d 80 8c 3c b9 42 a7 40
       0.014598135 0.022091899 0.017150963 5.226895
000090 34 30 00 3d 4d e9 a2 40 e6 fe b4 40 c2 79 6f 40
       0.03129597 5.090979 5.6561155 3.7418065
0000a0 d7 a8 86 3c 28 07 c9 3c 82 69 c1 3c bd ad 67 3c
       0.016437931 0.024539545 0.02360988 0.0141405435
0000b0 6d 7f 1f 3d 30 8c ba 3c f2 bf 5c 40 14 6f 8b 40
       0.038939882 0.022771925 3.4492154 4.3573093
0000c0 81 6b 7b 40 ef 06 25 3d a2 ec b5 40 5f ee 7e 40
       3.9284365 0.040289816 5.685136 3.983299
0000d0 7a fb c7 3c a7 2b 96 40 ca 0a 65 40 ab d9 b2 3c
       0.024411906 4.6928287 3.5787835 0.021832308
0000e0 dc d9 7b 40 bb cd a1 3c d5 69 03 3d 2f 47 b8 40
       3.935172 0.01975142 0.03208335 5.7586894
0000f0 ce 8b aa 3c 19 74 a4 3c c9 d7 ad 3c d5 27 76 40
       0.020818617 0.02007489 0.021221058 3.8461812
000100 33 13 bb 3c 7f 10 c0 3c 48 bf c5 3c 71 1f 79 40
       0.022836303 0.023445366 0.024139062 3.892544
000110 d0 36 9a 3c
       0.018824965

fc3.weight f4 [46, 69]
000000 cd 73 f2 bd a7 80 12 3e 80 8a 0c 3d 76 20 53 3e
       -0.118384935 0.1430689 0.03431177 0.20617852
000010 7d 40 28 be e1 7f 63 3e 97 b5 56 bd 84 96 4d 3e
       -0.1643085 0.2221675 -0.05241927 0.20076948
000020 d3 1f 50 3d d7 6b 56 3e 4d 56 38 3e ea 09 52 3e
       0.0508116 0.20939575 0.18001671 0.20511594
000030 55 87 19 be e9 78 6e 3d 05 d3 36 be e2 25 5d be
       -0.14993031 0.058220778 -0.17853935 -0.21596482
000040 e2 a1 33 be 3e 87 84 bd 7e 8a 67 bd bf d7 51 bc
       -0.17542222 -0.06471108 -0.05652856 -0.0128077855
000050 0e 88 27 be 52 bb 3f bc b1 34 f7 bd 75 1e 53 3e
       -0.16360494 -0.0117023755 -0.12070597 0.20617087
000060 db 35 cb bc 8a b3 94 bd 0a 6d 90 bd cc ee 3c 3e
       -0.024805954 -0.07260807 -0.070520476 0.18450469
000070 fd aa 4f 3e ef 40 4a 3e c3 ab 3d be 8b 43 d9 bd
       0.2028007 0.19751333 -0.18522553 -0.10608586
000080 c3 3e 01 bd cc 5d 6f bd 95 49 fd bb b5 3f b0 3d
       -0.031553995 -0.05843906 -0.007729719 0.08605901
000090 25 17 97 bb e5 49 40 3e 70 85 83 3d 54 2a 25 bc
       -0.0046109133 0.18778189 0.064219356 -0.010080893
0000a0 66 c3 01 be 13 62 bb bd 79 fe 28 be 3d 87 23 be
       -0.12672195 -0.091495655 -0.16503324 -0.15969558
0000b0 9e 3e 17 3b 62 3b 46 bc 81 37 13 3e 61 bc 07 3e
       0.0023078094 -0.012099119 0.14376642 0.13255455
0000c0 64 95 ad 3b 1e 65 2d be 7a b5 f0 3d 72 1d 23 3e
       0.0052973498 -0.16933104 0.11753364 0.15929201
0000d0 05 12 3c be ff cf 31 3d c7 d5 01 3e 37 66 ab bc
       -0.18366249 0.04341125 0.12679206 -0.020922763
0000e0 ef 74 51 3d 2a 85 5d be 15 9e ca bb ab 52 09 3d
       0.051136907 -0.2163283 -0.0061833956 0.033526104
0000f0 40 19 ae bd 96 83 8f bb 3d 98 7d bc 05 ef d1 3c
       -0.0850091 -0.0043797 -0.015478191 0.025626669
000100 98 ca 27 bd 18 25 80 bd 9f 1c f1 bd 72 77 24 3e
       -0.040964693 -0.06257075 -0.11773037 0.1606119
000110 77 d9 45 be e5 83 7a bd 26 42 ff bc 19 c5 a7 bd
       -0.19321238 -0.06116094 -0.031159472 -0.0819189
000120 fc fe 1b 3b 61 e1 af 3d 32 c2 dd 3c 4a 1f 98 3c
       0.0023803106 0.085879095 0.027070139 0.018569607
000130 39 c1 91 3d 46 4a 58 3d b7 e3 3c 3b 54 60 9c bd
       0.071169324 0.052805208 0.0028822252 -0.07635561
000140 4c cb 8e bd a1 1a b3 3d aa fa fe bd 88 71 16 3e
       -0.069723696 0.087453134 -0.12450154 0.14691746
000150 7f 23 1f 3e 1d f0 90 3d 1f f2 a8 3d 10 ab 79 bd
       0.15540884 0.07077048 0.08249306 -0.060954154
000160 10 c4 5a 3d ac d2 17 3e 24 b5 23 be 48 8a b6 3d
       0.053409636 0.14826459 -0.15987068 0.08913094
000170 0b 7f f5 bd 50 a6 41 3d 58 eb 15 3e e6 1e 1c 3e
       -0.11987122 0.04727775 0.14640558 0.15246162
000180 6b 78 c8 bd dd d3 1d 3d 19 67 1c 3c e5 20 47 3c
       -0.09788593 0.038532127 0.009546065 0.012153839
000190 a3 b4 9f 3b 56 aa 02 3e 90 f6 0f 3e ce 01 81 3d
       0.0048738285 0.1276029 0.140589 0.06299172
0001a0 44 a2 10 be 99 eb 3e bc 41 5c 3e 3d da 73 34 3d
       -0.141244 -0.011652851 0.0464747 0.044055797
0001b0 7f 7e dd bd d2 94 a1 3d a6 ec 71 3d d3 7d 6a 3d
       -0.10815143 0.07889713 0.059063576 0.0572489
0001c0 12 39 98 3d 76 85 64 bd 69 ff 48 3c fc e1 86 bd
       0.0743276 -0.05579134 0.012267926 -0.06586072
0001d0 01 af 13 3d f1 d0 0a be be bc 20 3e 69 e0 28 3d
       0.03605557 -0.13556267 0.15697 0.04122964
0001e0 36 99 a8 bd ae 2e 12 bd d8 49 c4 bd 3f ce ff 3c
       -0.08232348 -0.03568905 -0.09584397 0.031226275
0001f0 71 70 87 3d 43 70 12 be 0c ca be 3b 8a 2b d3 3d
       0.06613243 -0.14300637 0.0058224257 0.10311039
000200 35 c8 20 bb 51 44 f5 3d c2 e0 30 3d dc e5 fd 3d
       -0.0024533395 0.11975921 0.043183096 0.12397358
000210 24 e9 14 be 5f 76 4c 3d ca 2e 49 3c 03 df 5f 3d
       -0.14542061 0.049917575 0.012279222 0.05465604
000220 e9 f7 e8 bd 5f c9 9d bd 1f a7 db 3d 6e 19 8e bd
       -0.1137541 -0.07704424 0.10725235 -0.06938444
000230 35 3d 3e bd df ed 66 3d 59 13 c1 3c 3b d0 b0 3c
       -0.04644509 0.056379195 0.023568796 0.021583667
000240 13 0b ed 3d 84 b4 6c bd 9e 1f 8f bd 54 a7 ec bd
       0.11574378 -0.05778934 -0.069884524 -0.11555353
000250 4e 38 fc bd 61 a6 fc bb 6c dd 36 bb 73 d4 de 3c
       -0.12315427 -0.0077102636 -0.0027902974 0.027200913
000260 f5 c3 c7 3d 6f e3 b3 3c db f1 b6 3b 0a 23 01 3d
       0.09754173 0.021959035 0.0055830306 0.031527556
000270 c2 80 0b bd 29 15 7b 3d 52 00 28 3e 9e 96 23 be
       -0.03405834 0.061299477 0.16406372 -0.15975425
000280 8d 2a 09 3e 9d 8f f5 bd 20 e7 0a 3e 73 4a eb 3d
       0.13395138 -0.11990283 0.1356473 0.114888094
000290 33 b4 3c 3d cf ff 26 b8 16 a4 30 bc 7d 55 d5 bd
       0.04607029 -3.9815724e-05 -0.010781309 -0.10416696
0002a0 aa c5 00 3c 1d d2 1b bc 6c 85 ac 3d 24 76 05 3e
       0.007859627 -0.009510544 0.08423886 0.13033348
0002b0 7a 7b f7 3d be 42 2e bd 7a fb ac 3c cc ef 0d be
       0.12084098 -0.04254412 0.021116007 -0.13861006
0002c0 1a dd 80 3d 2c be 03 be a3 22 d4 bc 9b 64 5b bd
       0.06292172 -0.12865514 -0.025895422 -0.05356274
0002d0 7f 01 64 bd 01 78 aa 3d 10 d0 91 3d 4b b2 97 3d
       -0.05566549 0.0832367 0.07119763 0.074070536
0002e0 05 2c 66 bd e3 cf 0b 3d 92 88 68 bd 41 00 09 3e
       -0.056194324 0.034133803 -0.05677087 0.13379003
0002f0 13 3b e8 bd 79 15 9a bc b4 c6 f1 3d fb a8 e0 bd
       -0.113393925 -0.018809067 0.11805478 -0.109697305
000300 32 25 19 be 0f 34 43 3c 4f f9 a6 bc 3d 39 1e 3e
       -0.14955595 0.011914267 -0.020382551 0.15451522
000310 fc ab 5e 3d 4b f6 d6 bd 55 aa 08 3e c2 fe 97 3d
       0.054363236 -0.104961954 0.13346227 0.07421638
000320 6e e1 16 3c 77 52 f8 bd 17 d6 74 bd 6d 05 64 3d
       0.00920902 -0.12125104 -0.059774484 0.055669237
000330 37 47 07 3d 21 84 3b 3b e0 59 a3 3c 91 86 2d be
       0.0330269 0.002861269 0.019940317 -0.16945864
000340 db 1b 93 3d 0e fc 88 bc 6b 40 21 bc 0b 6f 19 be
       0.071830474 -0.016721752 -0.009842019 -0.14983766
000350 2d 98 17 3e ca 89 9f bd b2 1e 9d 3d c4 36 0c 3e
       0.14804144 -0.07789953 0.0767187 0.13692766
000360 ea c9 a7 bb be 0f 54 bc 76 47 04 3e 1d 5d c1 3c
       -0.0051205056 -0.012943206 0.12917885 0.02360397
000370 e8 0a 0e 3e ea c9 d9 bd e0 e4 18 be 16 8e 23 be
       0.13871348 -0.10634215 -0.14931059 -0.1597217
000380 91 fd 4f be fc c0 4e be 89 93 81 bd c1 8f 9e bc
       -0.20311572 -0.20190805 -0.06326968 -0.019355657
000390 ae 14 44 3e f0 a5 63 bd 6d f2 58 3e cb 1c c0 bd
       0.19148514 -0.055578172 0.21186228 -0.09380492
0003a0 66 35 d5 3b 15 74 19 bd 3a 64 48 3e b8 24 84 3d
       0.0065066097 -0.03746422 0.19569483 0.06452316
0003b0 dc fb 3b 3d 06 5d 4a be af ab d1 bd c3 d0 17 be
       0.04589449 -0.19762048 -0.10237824 -0.1482573
0003c0 88 a6 34 be fa 63 36 be 8f 59 00 3e 7b 37 37 be
       -0.17641652 -0.17811576 0.12534164 -0.17892258
0003d0 c6 ef 37 3d cd a5 76 bc 8e f5 3f 3e 76 a0 c3 bd
       0.0449064 -0.015054178 0.18746015 -0.0955209
0003e0 24 ad b2 bc 01 c7 22 be 82 61 1d 3c bf 5c 17 be
       -0.021811076 -0.15896226 0.009605767 -0.14781474
0003f0 20 b3 a3 bd 7e ed 39 3e 95 6e ba 3d fa 9c 0c 3e
       -0.0799315 0.18157002 0.09103123 0.13731757

batchnorm3.weight f4 [69]
000000 00 00 80 3f 00 00 80 3f 00 00 80 3f 00 00 80 3f
       1.0 1.0 1.0 1.0
000010 00 00 80 3f 00 00 80 3f 00 00 80 3f 00 00 80 3f
       1.0 1.0 1.0 1.0
000020 00 00 80 3f 00 00 80 3f 00 00 80 3f 00 00 80 3f
       1.0 1.0 1.0 1.0
000030 00 00 80 3f 00 00 80 3f 00 00 80 3f 00 00 80 3f
       1.0 1.0 1.0 1.0
000040 00 00 80 3f 00 00 80 3f 00 00 80 3f 00 00 80 3f
       1.0 1.0 1.0 1.0
000050 00 00 80 3f 00 00 80 3f 00 00 80 3f 00 00 80 3f
       1.0 1.0 1.0 1.0
000060 00 00 80 3f 00 00 80 3f 00 00 80 3f 00 00 80 3f
       1.0 1.0 1.0 1.0
000070 00 00 80 3f 00 00 80 3f 00 00 80 3f 00 00 80 3f
       1.0 1.0 1.0 1.0
000080 00 00 80 3f 00 00 80 3f 00 00 80 3f 00 00 80 3f
       1.0 1.0 1.0 1.0
000090 00 00 80 3f 00 00 80 3f 00 00 80 3f 00 00 80 3f
       1.0 1.0 1.0 1.0
0000a0 00 00 80 3f 00 00 80 3f 00 00 80 3f 00 00 80 3f
       1.0 1.0 1.0 1.0
0000b0 00 00 80 3f 00 00 80 3f 00 00 80 3f 00 00 80 3f
       1.0 1.0 1.0 1.0
0000c0 00 00 80 3f 00 00 80 3f 00 00 80 3f 00 00 80 3f
       1.0 1.0 1.0 1.0
0000d0 00 00 80 3f 00 00 80 3f 00 00 80 3f 00 00 80 3f
       1.0 1.0 1.0 1.0
0000e0 00 00 80 3f 00 00 80 3f 00 00 80 3f 00 00 80 3f
       1.0 1.0 1.0 1.0
0000f0 00 00 80 3f 00 00 80 3f 00 00 80 3f 00 00 80 3f
       1.0 1.0 1.0 1.0
000100 00 00 80 3f 00 00 80 3f 00 00 80 3f 00 00 80 3f
       1.0 1.0 1.0 1.0
000110 00 00 80 3f
       1.0

batchnorm3.bias f4 [69]
000000 00 00 00 00 00 00 00 00 00 00 00 00 00 00 00 00
       0.0 0.0 0.0 0.0
000010 00 00 00 00 00 00 00 00 00 00 00 00 00 00 00 00
       0.0 0.0 0.0 0.0
000020 00 00 00 00 00 00 00 00 00 00 00 00 00 00 00 00
       0.0 0.0 0.0 0.0
000030 00 00 00 00 00 00 00 00 00 00 00 00 00 00 00 00
       0.0 0.0 0.0 0.0
000040 00 00 00 00 00 00 00 00 00 00 00 00 00 00 00 00
       0.0 0.0 0.0 0.0
000050 00 00 00 00 00 00 00 00 00 00 00 00 00 00 00 00
       0.0 0.0 0.0 0.0
000060 00 00 00 00 00 00 00 00 00 00 00 00 00 00 00 00
       0.0 0.0 0.0 0.0
000070 00 00 00 00 00 00 00 00 00 00 00 00 00 00 00 00
       0.0 0.0 0.0 0.0
000080 00 00 00 00 00 00 00 00 00 00 00 00 00 00 00 00
       0.0 0.0 0.0 0.0
000090 00 00 00 00 00 00 00 00 00 00 00 00 00 00 00 00
       0.0 0.0 0.0 0.0
0000a0 00 00 00 00 00 00 00 00 00 00 00 00 00 00 00 00
       0.0 0.0 0.0 0.0
0000b0 00 00 00 00 00 00 00 00 00 00 00 00 00 00 00 00
       0.0 0.0 0.0 0.0
0000c0 00 00 00 00 00 00 00 00 00 00 00 00 00 00 00 00
       0.0 0.0 0.0 0.0
0000d0 00 00 00 00 00 00 00 00 00 00 00 00 00 00 00 00
       0.0 0.0 0.0 0.0
0000e0 00 00 00 00 00 00 00 00 00 00 00 00 00 00 00 00
       0.0 0.0 0.0 0.0
0000f0 00 00 00 00 00 00 00 00 00 00 00 00 00 00 00 00
       0.0 0.0 0.0 0.0
000100 00 00 00 00 00 00 00 00 00 00 00 00 00 00 00 00
       0.0 0.0 0.0 0.0
000110 00 00 00 00
       0.0

batchnorm3.running_mean f4 [69]
000000 2f 1e a6 41 d4 7a df bf 28 4b df bf 1c fa 96 41
       20.764738 -1.7459359 -1.7444811 18.872124
000010 3e 7c df bf e9 30 94 41 26 85 df bf c1 cd de bf
       -1.7459791 18.523882 -1.7462509 -1.7406541
000020 b9 5e de bf 18 1d a1 41 b5 af df bf 18 04 df bf
       -1.7372657 20.139206 -1.7475497 -1.7423124
000030 7e 29 a4 41 4f fd ac 41 85 b0 de bf 52 b7 a0 41
       20.52026 21.623686 -1.739762 20.089512
000040 42 9b df bf f9 60 9c 41 0e a3 df bf 3a 4c df bf
       -1.7469256 19.54735 -1.7471635 -1.7445138
000050 7a 16 ab 41 e6 4d df bf 4a 92 df bf 0e 29 df bf
       21.385975 -1.7445648 -1.7466519 -1.7434404
000060 4b d0 92 41 61 6c df bf 02 7d b1 41 62 78 df bf
       18.351706 -1.745495 22.186039 -1.7458613
000070 4f 86 94 41 85 18 93 41 d5 2c df bf ce b4 a7 41
       18.56558 18.386972 -1.7435557 20.963284
000080 0e 07 df bf 6a 6f 91 41 f2 ba de bf 9d ff 9e 41
       -1.7424028 18.179401 -1.7400801 19.874811
000090 c4 fb de bf 1c 3c df bf d1 ca 9d 41 47 47 a3 41
       -1.7420583 -1.7440219 19.724031 20.409803
0000a0 af ca 9a 41 96 f2 de bf d7 2a df bf 0c 0e a2 41
       19.348967 -1.7417781 -1.7434949 20.256859
0000b0 d4 41 df bf f4 c2 95 41 0b 44 68 3c 33 c4 95 bc
       -1.7441964 18.720192 0.014176379 -0.018282032
0000c0 95 45 ca bd 85 4d b8 bd f4 5b b9 bc 13 d9 ca 3b
       -0.09876553 -0.08999161 -0.022626854 0.006190428
0000d0 fa fe 94 bd ac dd b8 3b 55 ae 9e 3b e5 21 d9 bd
       -0.072751954 0.0056416597 0.0048425593 -0.10602168
0000e0 ac 74 5f bd ae 7f 8b 3e ef 25 e9 3e 30 07 2b be
       -0.054554626 0.2724585 0.45536754 -0.1670196
0000f0 09 48 8c 3d e1 4b 84 3d f7 2f 20 bd a1 e2 81 3d
       0.06849677 0.06459785 -0.039108243 0.06342054
000100 63 b0 77 3d 89 d3 65 bd 3e 3f 18 be 17 1c 5d 3d
       0.06047095 -0.05610994 -0.14867875 0.053981867
000110 a9 72 86 3d
       0.065648384
