output/weights15.pt (torch, 82708 bytes, 22 tensors)

fc1.weight f4 [138, 23]
000000 13 b7 56 3d 58 28 53 39 46 48 96 3d fb ff be bd
       0.052420687 0.00020137557 0.07338004 -0.09326168
000010 d9 45 3c 3e a0 a5 e0 3c 79 62 5b bd 26 a5 f1 bd
       0.1838602 0.027422726 -0.053560708 -0.11799078
000020 0e 35 03 3c 3b 88 22 3d 3f 99 26 be 4c ed be bd
       0.008008255 0.0396807 -0.16269396 -0.093226045
000030 9c 52 2d be 85 cf f3 3d da 95 b5 3d 1d 76 17 be
       -0.16926044 0.119048156 0.088664725 -0.1479115
000040 7b e7 13 3e f5 f1 90 bd 94 33 b7 3a 37 bf ef bc
       0.14443772 -0.070774 0.0013977163 -0.029265983
000050 6c d4 7a bd d9 7d ae 3d d4 f9 f0 3d ff 9d 0b 3d
       -0.061237738 0.08520097 0.11766401 0.034086224
000060 c1 b2 2c bc cd be 11 3e ae 74 28 3e 91 aa 40 3e
       -0.010540665 0.14232941 0.1645076 0.18815066
000070 a3 05 af bc 66 5e 83 bc 96 86 14 3e 18 95 1d be
       -0.021364992 -0.016036224 0.14504465 -0.15388906
000080 5d 83 5c 3e c4 a5 e0 3d 49 4d e1 3b 62 d4 4e 3d
       0.21534486 0.10969117 0.006875668 0.050495513
000090 9a 42 0c 3e f3 f9 14 3e 77 8a ae 3b 93 ad 3c be
       0.13697281 0.14548473 0.005326565 -0.18425588
0000a0 bd 22 08 be 73 95 18 3c 7c 34 3b be 84 a5 0e be
       -0.13294502 0.009312975 -0.1828174 -0.13930327
0000b0 c3 3f 3c bb 43 6b d9 3c 28 78 32 bd 8b 40 f7 3d
       -0.0028724528 0.026540404 -0.04357162 0.120728575
0000c0 39 2c 52 3e 8e ce 6f 3d 21 1a e7 bd 97 2d 75 be
       0.20524682 0.058546595 -0.112842806 -0.23943172
0000d0 db 4c a1 3d 65 ed 33 be 18 f0 96 bd e3 f7 ec bd
       0.07875987 -0.17571028 -0.07370013 -0.11570718
0000e0 30 f6 6b 3e aa 53 7d be 4e 23 7b be 20 8c 0e 3e
       0.23043132 -0.24738947 -0.24525186 0.13920641
0000f0 65 5f 2c 3e f1 4d 2a 3e 97 1b 09 3e 3b ac 70 3d
       0.16833265 0.16631295 0.13389431 0.058758
000100 65 91 aa 3d 33 fe 5a be 69 33 60 be 1f 07 0d bd
       0.08328513 -0.21386032 -0.21894611 -0.03443062
000110 8f db 04 3e aa e3 f9 3d fe 94 5a 3b 5a df 03 3e
       0.1297438 0.122016266 0.0033352966 0.1287817
000120 59 ae 39 bd c9 cd f2 3d e5 a3 a0 bc ad 16 c6 bd
       -0.045332287 0.11855657 -0.019609401 -0.09672294
000130 3c 3c 32 3b 58 ce d2 3d 2a 55 e2 3d bd 24 a0 3d
       0.0027196547 0.10293263 0.110514 0.07819507
000140 bf 34 62 3e 45 71 93 3d dc 19 16 be 5d f6 02 3e
       0.22090434 0.07199339 -0.14658302 0.12789293
000150 b9 52 87 3d bf ac 82 3b d0 bd 73 be 76 63 39 bc
       0.06607575 0.003987878 -0.23802876 -0.011315217
000160 df 4a ca 3d d4 8a 10 3e d6 25 e2 3d d5 bb 64 3d
       0.09877562 0.14115459 0.11042373 0.055843193
000170 78 0a 6a 3d df 8d 10 3e 50 e7 28 bd ba fe 54 bd
       0.05713889 0.1411662 -0.04123622 -0.05200074
000180 87 66 9d 3d 6c a9 60 be 31 7d 89 bd 62 94 aa bd
       0.07685571 -0.2193963 -0.067133315 -0.08329083
000190 60 f5 1b be ae ce 81 bd 33 3f 77 3e d7 b3 b2 3c
       -0.15230322 -0.06338249 0.24145202 0.02181427
0001a0 13 25 c7 3d b1 b0 a4 bb b2 d7 59 3e 9b 52 11 be
       0.09723868 -0.005025946 0.21273687 -0.14191668
0001b0 f2 46 79 bd 8a 13 85 3d 87 7b 06 3e 5a f1 df 3d
       -0.060858674 0.064978674 0.1313306 0.10934706
0001c0 1f c1 41 3e 9a d2 41 3d cf e3 00 bd dd 71 76 bd
       0.18921326 0.047319986 -0.031467255 -0.060167182
0001d0 f6 9b 47 bd df 9b 2f be 6a 9e fe bd eb aa 53 be
       -0.04873272 -0.17149304 -0.12432559 -0.20670669
0001e0 72 58 07 bd 5c f5 07 3d be fd 42 3e d9 8d 82 3d
       -0.033043332 0.033192977 0.19042107 0.063747115
0001f0 1e e0 1a be 04 bd 9e bb bc 57 7c 3d 82 4b 4c 3d
       -0.15124556 -0.0048443098 0.061607108 0.049876697
000200 2e 55 4e 3e 73 34 76 3c 1a da 03 be 50 6b 60 3e
       0.20149681 0.015027153 -0.12876168 0.21915936
000210 68 1f 27 3b 2c dd 94 bd 7d e2 43 3d 2d f2 18 3d
       0.0025500897 -0.07268748 0.047823418 0.03734033
000220 f7 48 3d be ab ae 96 3d 7f 87 1d 3e ae 81 02 3e
       -0.18484865 0.07357534 0.15383719 0.12744781
000230 5b 67 00 be 39 9f 05 be 22 41 2b 3d 1e 51 08 3e
       -0.12539427 -0.1304902 0.041810162 0.13312194
000240 b2 23 0c 3d ff 91 0b be 2a ef 82 3c 54 e0 26 3e
       0.03421373 -0.13629912 0.015983183 0.16296512
000250 85 e1 c6 bd c5 2e f4 bd 9f 05 fe bb 1f e5 10 3e
       -0.09710983 -0.11922983 -0.007752135 0.14149903
000260 a9 64 14 3e e7 1d 42 bc 04 44 54 3d 7e 22 01 3d
       0.14491524 -0.01184795 0.051822677 0.031527035
000270 9b d9 0b bc 8b 30 73 3d 12 cd 2f be 02 4e c0 bd
       -0.008535768 0.059372466 -0.17168072 -0.09389879
000280 93 d8 1b 3d 37 32 a1 bc 56 ea bc bd a3 d2 e0 bd
       0.03804834 -0.019677265 -0.092243835 -0.10977676
000290 7f 20 42 bd a7 bb d9 bb 2d 52 31 3e 1c f8 a7 bd
       -0.047394272 -0.0066446844 0.17316504 -0.0820162
0002a0 0c bf 1b 3e b6 df 07 bd 00 79 7d bc b9 43 ba bd
       0.15209597 -0.03317233 -0.015470743 -0.09094948
0002b0 6d 89 35 3d 51 dd 3e 3e 4f 54 11 3e f3 ab 21 3e
       0.044320513 0.18639113 0.14192317 0.1578825
0002c0 ea 60 d4 bb 17 1e e9 3c c2 1f 6e be 2b 29 ad 3d
       -0.0064812796 0.02845673 -0.23254302 0.08455118
0002d0 d6 93 40 3d 21 42 18 3e cc 8a 1e be 18 7a 6a bd
       0.047015987 0.14868976 -0.15482634 -0.057245344
0002e0 b3 71 0d be 01 b2 80 bd 59 27 9b 3d 16 ce 18 be
       -0.13812904 -0.062839516 0.07575864 -0.14922366
0002f0 fe 51 32 bd 6c f3 34 3e 49 3c 2a be 05 0f 28 bd
       -0.043535225 0.17670983 -0.1662456 -0.04102995
000300 49 f7 54 3d 6c 25 a7 3d 35 48 4a be 21 c5 94 bb
       0.051993642 0.081614345 -0.19754107 -0.004540101
000310 fa 17 e0 3d 32 32 3d 3e c4 53 2a 3c 84 70 a2 3d
       0.10942073 0.18476179 0.010395948 0.07931617
000320 ff 92 ce 3d 95 d8 b2 bd 68 21 d1 bd 25 92 c5 bc
       0.10086631 -0.08732716 -0.1021145 -0.024117539
000330 19 94 69 3d a6 ac 37 3c d6 86 f0 3d 31 95 ad bd
       0.057026003 0.011210596 0.11744468 -0.08475722
000340 2d 24 97 bb f9 6a c7 3d f8 9d 46 be 86 9a 84 3d
       -0.004612467 0.097372 -0.19396198 0.064747855
000350 1f da 37 3e 57 e0 62 3d ed dd 53 bc 2f c1 40 bd
       0.179543 0.05538973 -0.012931329 -0.047059234
000360 45 81 a5 bd 04 e4 11 bb 25 f9 b1 bc 76 57 3d 3e
       -0.08081297 -0.0022261152 -0.021725247 0.18490395
000370 bf df 41 3d 20 7a dc 3d 5a f6 8d bc 28 7e 5f 3d
       0.04733252 0.10765481 -0.017329384 0.05456367
000380 6a 93 ef bd 1a 54 93 bc 3b 8f 1c be eb 6b 4f 3e
       -0.11698039 -0.017984439 -0.15289013 0.20256011
000390 e5 82 dd bd 5b 35 28 bd 44 0c d2 3a 35 d3 f0 3d
       -0.10815982 -0.04106651 0.0016025384 0.117590345
0003a0 0f 0b c9 bd 92 7a 15 3e 15 66 45 3e d7 60 29 3e
       -0.098165624 0.14597538 0.19277222 0.16540848
0003b0 77 01 91 bd 63 4e e5 3d 7d 15 ba bc 4f 47 d3 bc
       -0.070803575 0.11196592 -0.022715325 -0.025790839
0003c0 11 2f cc bd 73 e2 05 3e c4 16 ba bd 9c 6f ed bd
       -0.09969915 0.13074665 -0.090863734 -0.115935534
0003d0 e5 59 ca 3d bb 4b cf 3d 28 48 81 bd 45 f4 21 be
       0.09880427 0.10121866 -0.06312591 -0.15815838
0003e0 e3 16 50 be 4f 8d 0b 3e df 38 18 be 11 31 ac ba
       -0.2032123 0.13628124 -0.14865445 -0.0013137182
0003f0 c4 ea 60 bb 3a dd 5c bc 22 2d 2d 3e 10 db 64 bd
       -0.0034319619 -0.013480479 0.16911748 -0.055872977

fc1.bias f4 [138]
000000 de 8d 8f 3e eb 04 7b 3e 14 a7 c9 3d 12 de e3 bd
       0.28037924 0.24513595 0.09846321 -0.11126341
000010 d4 47 98 3e 1f f6 a5 be 7e 20 27 be b8 b5 26 be
       0.297423 -0.32414338 -0.16320989 -0.16280258
000020 4c bf d4 bd 4a fd ab bd f1 a9 1d be f8 47 83 3e
       -0.103880495 -0.083979204 -0.15396859 0.25640845
000030 6c 8e ea bd 84 37 a1 3e a2 d5 8c be 58 a7 36 be
       -0.11452946 0.31487668 -0.2750674 -0.17837274
000040 5d 34 26 3e e8 8a ee bd 78 cc f7 bd 43 f0 26 be
       0.16230913 -0.11647588 -0.12099546 -0.1630259
000050 94 0c 9f 3e 0c 54 91 3e cd 4f 9e be bd 2b f0 3d
       0.31064284 0.28384435 -0.30920258 0.117270924
000060 88 d8 50 be 79 ec 0e 3e ae f2 87 3e 19 0f 84 3e
       -0.203951 0.13957395 0.26552337 0.2579277
000070 5f e1 cf bd a2 20 90 3e 2d 4a af be 30 ff 74 3e
       -0.10150408 0.28149897 -0.3423628 0.23925471
000080 11 06 df bd 21 d5 8c 3e 2a 45 78 bd b4 b0 95 3e
       -0.10889829 0.27506354 -0.060612835 0.29236376
000090 a2 f3 40 be e3 14 3d 3e bd df 2b be 4d ed c6 bd
       -0.18842939 0.18464999 -0.16784568 -0.0971323
0000a0 18 89 39 be 56 3f a4 3e 94 55 95 be a6 4c e6 bd
       -0.18118703 0.3207957 -0.29166853 -0.11245088
0000b0 d8 ce 5d bd 39 80 e4 bd 05 4e 5e 3e 4f 79 6f be
       -0.05415234 -0.11157269 0.2170945 -0.2338612
0000c0 26 07 2d be 3e 90 68 be 0a f5 48 3e 54 d4 87 be
       -0.16897258 -0.22711274 0.19624725 -0.2652918
0000d0 8e 77 31 3e 54 d8 ea bd 14 f5 ba 3d 81 4a 2b be
       0.17330763 -0.114670426 0.09128776 -0.1672764
0000e0 72 fe a6 be 89 f9 87 be ea 88 9d be d4 61 53 be
       -0.32616 -0.26557568 -0.3076852 -0.20642787
0000f0 90 84 a8 3e d7 fe 7e 3e e8 09 6e 3e cb f7 a4 bd
       0.32913637 0.24901901 0.23245966 -0.08055075
000100 5b 98 93 3e e2 59 b6 bd f3 5a d3 bd a2 df 0d be
       0.28827175 -0.089038625 -0.103200816 -0.1385484
000110 98 63 a1 3e 41 57 a1 3e 14 ae ed bd 7c 4e 8e be
       0.31521297 0.31511882 -0.116054684 -0.27794254
000120 06 d0 78 3e 1e a4 98 3e d9 f6 ab be b0 c4 84 3e
       0.24298105 0.2981271 -0.33586767 0.2593131
000130 7f ea 8c be 06 bc 2c bd f4 96 6b 3e 5b b7 85 be
       -0.27522656 -0.0421715 0.23006803 -0.26116452
000140 dd 17 a0 be f5 9c ab be a3 cb 62 3e 1c ef 83 3e
       -0.31268206 -0.33518186 0.22147994 0.25768363
000150 2d 3f 0e be 2a 61 6d 3e 6f 4e 7f 3e 61 9e a4 3e
       -0.13891287 0.23181596 0.24932264 0.32152084
000160 bb ab 89 be ba 25 9f bd 54 86 3f be 04 bc 14 3e
       -0.26888832 -0.07770868 -0.18703586 0.14524847
000170 60 1e 4e be 48 50 4b 3e 0c 7a 8d be 99 31 89 be
       -0.20128775 0.19854844 -0.27632177 -0.26795653
000180 1d 5c ac be 98 7e a1 bd 55 54 f2 bd 12 c5 6a be
       -0.33664027 -0.07885474 -0.11832491 -0.22926739
000190 e0 8a a3 3e 2d 7a a0 bc 5c ca ed bd 58 24 a4 3e
       0.3194189 -0.019589508 -0.116108626 0.32058978
0001a0 75 c2 90 3e 2d 42 80 be 21 a5 a0 3e 83 a8 0f be
       0.2827336 -0.25050488 0.31375983 -0.14029126
0001b0 3a 28 07 3e 8f 3e 22 be 9d ad 7f be ca 9a a7 3e
       0.13198939 -0.15844177 -0.24968572 0.32735282
0001c0 24 2b 40 3e 1f b4 6e 3e 1c 1f 17 3e 13 dc af be
       0.18766457 0.23310898 0.14757961 -0.3434759
0001d0 80 a0 87 3e e2 5e 67 be 07 d9 a2 be f3 a9 71 be
       0.2648964 -0.22594789 -0.31806204 -0.23599987
0001e0 d2 81 5e be 49 8d 7f be e1 c3 0d be 98 31 2b be
       -0.2172921 -0.2495624 -0.13844253 -0.16718137
0001f0 14 80 93 be 33 ee 3e 3e a0 39 d6 bd c1 9a 6b 3e
       -0.28808653 0.18645553 -0.1046021 0.23008253
000200 ff fc aa 3e 3d b6 37 be f9 ad 88 be 1a 07 56 3e
       0.33396146 -0.17940612 -0.2669523 0.20901147
000210 26 06 9e be f5 13 8f be 43 70 a8 be 19 04 26 3e
       -0.30864066 -0.27944914 -0.3289815 0.162125
000220 85 e5 3d 3e be ee 7a be
       0.18544586 -0.24505135

batchnorm1.weight f4 [138]
000000 00 00 80 3f 00 00 80 3f 00 00 80 3f 00 00 80 3f
       1.0 1.0 1.0 1.0
000010 00 00 80 3f 00 00 80 3f 00 00 80 3f 00 00 80 3f
       1.0 1.0 1.0 1.0
000020 00 00 80 3f 00 00 80 3f 00 00 80 3f 00 00 80 3f
       1.0 1.0 1.0 1.0
000030 00 00 80 3f 00 00 80 3f 00 00 80 3f 00 00 80 3f
       1.0 1.0 1.0 1.0
000040 00 00 80 3f 00 00 80 3f 00 00 80 3f 00 00 80 3f
       1.0 1.0 1.0 1.0
000050 00 00 80 3f 00 00 80 3f 00 00 80 3f 00 00 80 3f
       1.0 1.0 1.0 1.0
000060 00 00 80 3f 00 00 80 3f 00 00 80 3f 00 00 80 3f
       1.0 1.0 1.0 1.0
000070 00 00 80 3f 00 00 80 3f 00 00 80 3f 00 00 80 3f
       1.0 1.0 1.0 1.0
000080 00 00 80 3f 00 00 80 3f 00 00 80 3f 00 00 80 3f
       1.0 1.0 1.0 1.0
000090 00 00 80 3f 00 00 80 3f 00 00 80 3f 00 00 80 3f
       1.0 1.0 1.0 1.0
0000a0 00 00 80 3f 00 00 80 3f 00 00 80 3f 00 00 80 3f
       1.0 1.0 1.0 1.0
0000b0 00 00 80 3f 00 00 80 3f 00 00 80 3f 00 00 80 3f
       1.0 1.0 1.0 1.0
0000c0 00 00 80 3f 00 00 80 3f 00 00 80 3f 00 00 80 3f
       1.0 1.0 1.0 1.0
0000d0 00 00 80 3f 00 00 80 3f 00 00 80 3f 00 00 80 3f
       1.0 1.0 1.0 1.0
0000e0 00 00 80 3f 00 00 80 3f 00 00 80 3f 00 00 80 3f
       1.0 1.0 1.0 1.0
0000f0 00 00 80 3f 00 00 80 3f 00 00 80 3f 00 00 80 3f
       1.0 1.0 1.0 1.0
000100 00 00 80 3f 00 00 80 3f 00 00 80 3f 00 00 80 3f
       1.0 1.0 1.0 1.0
000110 00 00 80 3f 00 00 80 3f 00 00 80 3f 00 00 80 3f
       1.0 1.0 1.0 1.0
000120 00 00 80 3f 00 00 80 3f 00 00 80 3f 00 00 80 3f
       1.0 1.0 1.0 1.0
000130 00 00 80 3f 00 00 80 3f 00 00 80 3f 00 00 80 3f
       1.0 1.0 1.0 1.0
000140 00 00 80 3f 00 00 80 3f 00 00 80 3f 00 00 80 3f
       1.0 1.0 1.0 1.0
000150 00 00 80 3f 00 00 80 3f 00 00 80 3f 00 00 80 3f
       1.0 1.0 1.0 1.0
000160 00 00 80 3f 00 00 80 3f 00 00 80 3f 00 00 80 3f
       1.0 1.0 1.0 1.0
000170 00 00 80 3f 00 00 80 3f 00 00 80 3f 00 00 80 3f
       1.0 1.0 1.0 1.0
000180 00 00 80 3f 00 00 80 3f 00 00 80 3f 00 00 80 3f
       1.0 1.0 1.0 1.0
000190 00 00 80 3f 00 00 80 3f 00 00 80 3f 00 00 80 3f
       1.0 1.0 1.0 1.0
0001a0 00 00 80 3f 00 00 80 3f 00 00 80 3f 00 00 80 3f
       1.0 1.0 1.0 1.0
0001b0 00 00 80 3f 00 00 80 3f 00 00 80 3f 00 00 80 3f
       1.0 1.0 1.0 1.0
0001c0 00 00 80 3f 00 00 80 3f 00 00 80 3f 00 00 80 3f
       1.0 1.0 1.0 1.0
0001d0 00 00 80 3f 00 00 80 3f 00 00 80 3f 00 00 80 3f
       1.0 1.0 1.0 1.0
0001e0 00 00 80 3f 00 00 80 3f 00 00 80 3f 00 00 80 3f
       1.0 1.0 1.0 1.0
0001f0 00 00 80 3f 00 00 80 3f 00 00 80 3f 00 00 80 3f
       1.0 1.0 1.0 1.0
000200 00 00 80 3f 00 00 80 3f 00 00 80 3f 00 00 80 3f
       1.0 1.0 1.0 1.0
000210 00 00 80 3f 00 00 80 3f 00 00 80 3f 00 00 80 3f
       1.0 1.0 1.0 1.0
000220 00 00 80 3f 00 00 80 3f
       1.0 1.0

batchnorm1.bias f4 [138]
000000 00 00 00 00 00 00 00 00 00 00 00 00 00 00 00 00
       0.0 0.0 0.0 0.0
000010 00 00 00 00 00 00 00 00 00 00 00 00 00 00 00 00
       0.0 0.0 0.0 0.0
000020 00 00 00 00 00 00 00 00 00 00 00 00 00 00 00 00
       0.0 0.0 0.0 0.0
000030 00 00 00 00 00 00 00 00 00 00 00 00 00 00 00 00
       0.0 0.0 0.0 0.0
000040 00 00 00 00 00 00 00 00 00 00 00 00 00 00 00 00
       0.0 0.0 0.0 0.0
000050 00 00 00 00 00 00 00 00 00 00 00 00 00 00 00 00
       0.0 0.0 0.0 0.0
000060 00 00 00 00 00 00 00 00 00 00 00 00 00 00 00 00
       0.0 0.0 0.0 0.0
000070 00 00 00 00 00 00 00 00 00 00 00 00 00 00 00 00
       0.0 0.0 0.0 0.0
000080 00 00 00 00 00 00 00 00 00 00 00 00 00 00 00 00
       0.0 0.0 0.0 0.0
000090 00 00 00 00 00 00 00 00 00 00 00 00 00 00 00 00
       0.0 0.0 0.0 0.0
0000a0 00 00 00 00 00 00 00 00 00 00 00 00 00 00 00 00
       0.0 0.0 0.0 0.0
0000b0 00 00 00 00 00 00 00 00 00 00 00 00 00 00 00 00
       0.0 0.0 0.0 0.0
0000c0 00 00 00 00 00 00 00 00 00 00 00 00 00 00 00 00
       0.0 0.0 0.0 0.0
0000d0 00 00 00 00 00 00 00 00 00 00 00 00 00 00 00 00
       0.0 0.0 0.0 0.0
0000e0 00 00 00 00 00 00 00 00 00 00 00 00 00 00 00 00
       0.0 0.0 0.0 0.0
0000f0 00 00 00 00 00 00 00 00 00 00 00 00 00 00 00 00
       0.0 0.0 0.0 0.0
000100 00 00 00 00 00 00 00 00 00 00 00 00 00 00 00 00
       0.0 0.0 0.0 0.0
000110 00 00 00 00 00 00 00 00 00 00 00 00 00 00 00 00
       0.0 0.0 0.0 0.0
000120 00 00 00 00 00 00 00 00 00 00 00 00 00 00 00 00
       0.0 0.0 0.0 0.0
000130 00 00 00 00 00 00 00 00 00 00 00 00 00 00 00 00
       0.0 0.0 0.0 0.0
000140 00 00 00 00 00 00 00 00 00 00 00 00 00 00 00 00
       0.0 0.0 0.0 0.0
000150 00 00 00 00 00 00 00 00 00 00 00 00 00 00 00 00
       0.0 0.0 0.0 0.0
000160 00 00 00 00 00 00 00 00 00 00 00 00 00 00 00 00
       0.0 0.0 0.0 0.0
000170 00 00 00 00 00 00 00 00 00 00 00 00 00 00 00 00
       0.0 0.0 0.0 0.0
000180 00 00 00 00 00 00 00 00 00 00 00 00 00 00 00 00
       0.0 0.0 0.0 0.0
000190 00 00 00 00 00 00 00 00 00 00 00 00 00 00 00 00
       0.0 0.0 0.0 0.0
0001a0 00 00 00 00 00 00 00 00 00 00 00 00 00 00 00 00
       0.0 0.0 0.0 0.0
0001b0 00 00 00 00 00 00 00 00 00 00 00 00 00 00 00 00
       0.0 0.0 0.0 0.0
0001c0 00 00 00 00 00 00 00 00 00 00 00 00 00 00 00 00
       0.0 0.0 0.0 0.0
0001d0 00 00 00 00 00 00 00 00 00 00 00 00 00 00 00 00
       0.0 0.0 0.0 0.0
0001e0 00 00 00 00 00 00 00 00 00 00 00 00 00 00 00 00
       0.0 0.0 0.0 0.0
0001f0 00 00 00 00 00 00 00 00 00 00 00 00 00 00 00 00
       0.0 0.0 0.0 0.0
000200 00 00 00 00 00 00 00 00 00 00 00 00 00 00 00 00
       0.0 0.0 0.0 0.0
000210 00 00 00 00 00 00 00 00 00 00 00 00 00 00 00 00
       0.0 0.0 0.0 0.0
000220 00 00 00 00 00 00 00 00
       0.0 0.0

batchnorm1.running_mean f4 [138]
000000 80 a4 b7 3e 9a f6 5e 3e 6f 0b 91 3e 07 66 9a be
       0.3586769 0.21773759 0.28329036 -0.30155966
000010 a0 f1 8a 3e e8 fb 06 bf 4d 21 2c be 44 68 a5 be
       0.2713747 -0.5272813 -0.16809578 -0.3230611
000020 0e 72 5e be 30 da 51 be 56 2a 82 be a2 91 a5 3e
       -0.21723196 -0.20493388 -0.25422925 0.32337672
000030 b3 d0 bb be 4d 3f c8 3e a4 dd f6 be 5b 2d 81 be
       -0.36682662 0.39110795 -0.48215973 -0.25229916
000040 ad ea a3 3e db 8e 93 be 86 ad 20 be 3b e0 af be
       0.3201498 -0.28819928 -0.15691194 -0.34350762
000050 4a 64 a5 3e ee e7 bc 3e 8d d8 d1 be 8b 46 58 3e
       0.32303077 0.36895698 -0.40985528 0.2112066
000060 fa 0f a5 be 9d 1e cd 3e 87 36 98 3e 19 74 84 3e
       -0.32238752 0.4006242 0.297291 0.25869825
000070 f7 8d a5 be db f4 bc 3e 21 b1 04 bf ff 36 b4 3e
       -0.32334873 0.3690556 -0.5183278 0.3519821
000080 35 cf 83 be 1a 59 8b 3e a8 b6 8b be a7 e9 98 3e
       -0.25744024 0.27216417 -0.27287793 0.29865763
000090 82 07 cf be f2 08 86 3e a6 ce 71 be db a6 8c be
       -0.40435416 0.261787 -0.23613986 -0.2747105
0000a0 63 8c 45 be 7b ae be 3e 52 20 0c bf 12 2f 63 be
       -0.19291835 0.37242493 -0.54736817 -0.22185925
0000b0 70 c8 61 be d5 c0 82 be 4b 4e 4b 3f 1a 6e dd be
       -0.22049117 -0.25537744 0.7941634 -0.43248063
0000c0 80 d1 ac be 34 09 a7 be 34 41 7c 3e 34 fe f1 be
       -0.33753586 -0.3262421 0.24634248 -0.47264254
0000d0 1c b9 a8 3e 87 1c a5 be 22 de 1c 3e 14 37 54 be
       0.32953727 -0.32248327 0.15319112 -0.20724136
0000e0 68 14 01 bf bc e2 dc be d4 4e d8 be 87 8a ce be
       -0.5042176 -0.43141735 -0.4224764 -0.40340063
0000f0 b8 cd f3 3e 96 97 d3 3e de 73 b5 3e 61 40 3f be
       0.47617888 0.41326588 0.35439962 -0.18676902
000100 58 da 34 3f b2 25 4e be 01 e5 65 be c2 0d 99 be
       0.70645666 -0.20131567 -0.2245064 -0.2989331
000110 df 69 bd 3e 9f 57 bc 3e 41 64 89 be cc 29 c8 be
       0.36994836 0.367856 -0.268343 -0.39094388
000120 dc 8c 9a 3e b5 44 cd 3e 68 c5 05 bf b9 40 c4 3e
       0.30185592 0.40091482 -0.52254343 0.3833063
000130 f0 f4 c5 be 28 a5 43 be 94 39 92 3e df c6 ce be
       -0.38663435 -0.19105971 0.28559554 -0.40386102
000140 18 89 11 bf f4 0b 14 bf 2a 0d 69 3e 17 ad 47 3e
       -0.56849813 -0.5783074 0.22758928 0.19499622
000150 29 ff 17 be 68 66 b0 3e b3 83 90 3e 78 56 b7 3e
       -0.1484343 0.3445313 0.2822548 0.35808158
000160 95 f6 ee be d2 02 8a be 8e be af be 7f 97 ca 3e
       -0.46672502 -0.26955277 -0.3432507 0.39568707
000170 5c 34 d4 be 94 9f 98 3e 56 ae ec be 2d b3 ec be
       -0.41446197 0.29809248 -0.46226758 -0.4623045
000180 7c 01 f5 be a4 74 72 be 65 79 ae be 5b 99 d7 be
       -0.47852695 -0.23677307 -0.34076992 -0.42109188
000190 58 9e e2 3e bb 0b 57 be a5 4b bb be a9 74 db 3e
       0.44261432 -0.21000569 -0.3658115 0.42862442
0001a0 c7 e4 c2 3e 4c 15 e0 be 93 8e 0d 3f 0a 24 8c be
       0.38065168 -0.43766248 0.55295676 -0.27371246
0001b0 db 18 82 3e 06 cb 8b be 8b 87 db be 7a c6 d3 3e
       0.25409588 -0.27303332 -0.4287685 0.41362363
0001c0 9d 47 f6 3e 6c 84 a3 3e 2c e3 6d 3e d3 eb 00 bf
       0.48101512 0.31936967 0.2323119 -0.5035984
0001d0 2a 49 af 3e 7d b2 c3 be 29 f1 0b bf c5 fe 98 be
       0.34235507 -0.38222113 -0.54664856 -0.29881874
0001e0 fe 95 9c be 68 c4 e6 be b0 5d 63 be 26 ce 98 be
       -0.30583185 -0.4507172 -0.22203708 -0.2984478
0001f0 48 da a4 be 21 6b 93 3e 67 2b 99 be b0 69 8e 3e
       -0.32197785 0.2879267 -0.29915926 0.27815008
000200 31 35 ac 3e be a4 cd be 58 46 d6 be e0 eb 86 3e
       0.33634332 -0.4016475 -0.41850543 0.26351833
000210 fd 1c 06 bf 71 85 c3 be 24 66 e0 be cf c6 8f 3e
       -0.5238798 -0.38187745 -0.43827927 0.28081366
000220 bb 20 83 3e d0 2d fa be
       0.2561091 -0.48863077

batchnorm1.running_var f4 [138]
000000 11 f4 1b 3e e0 2d 97 3e 6c 28 87 3e 03 71 b9 3e
       0.15229823 0.29527187 0.26398027 0.36219034
000010 56 74 e7 3d 44 e8 04 3e bd 56 8a 3e 8b d5 ae 3e
       0.11301486 0.12979227 0.270193 0.34147295
000020 7c 7b ad 3e d2 a7 f4 3e d4 55 c8 3e a6 6f 96 3d
       0.33883274 0.47784287 0.39127982 0.07345514
000030 49 f2 89 3e b6 91 02 3e 37 04 06 3e f3 f7 ae 3e
       0.2694266 0.12750897 0.13087545 0.34173545
000040 cb 53 40 3e 5e e9 bc 3e 4b 59 85 3e 15 21 8d 3e
       0.18781964 0.36896795 0.26044688 0.27564302
000050 68 30 8f 3f 00 18 c8 3d 32 b1 c4 3d cd 59 8a 3f
       1.1186647 0.09770203 0.0960411 1.0808655
000060 0c 5f 76 3e 38 db af 3f af 4b 47 3f 4b ab 53 3f
       0.24059695 1.3738775 0.7784986 0.8268325
000070 6f e2 a6 3e 34 94 67 3e 3e 0c 40 3d aa 59 0b 3e
       0.3259463 0.22615129 0.046886675 0.13608423
000080 1e 70 cb 3e 32 8f 24 3f 40 72 ba 3e f9 48 4f 3d
       0.39733976 0.64281 0.3641529 0.0506067
000090 d8 53 68 3e 8f 5d 8f 3f 57 18 4f 3e 14 0a 7c 3e
       0.22688234 1.1200427 0.20224129 0.2461322
0000a0 6b d6 64 3e 00 e8 82 3d e0 43 fa 3d 58 91 cf 3e
       0.22347419 0.06391907 0.122199774 0.40540576
0000b0 12 ed e0 3e 22 03 dd 3e 99 de 93 40 1d f3 5b 3e
       0.4393087 0.43166453 4.6209226 0.21479459
0000c0 70 23 6d 3e e8 e8 5b 3e b7 a2 95 3f 1b 1d bd 3d
       0.2315805 0.21475565 1.1690282 0.09234067
0000d0 0f fe 05 40 17 e2 88 3e b5 14 06 3f c8 f9 48 3e
       2.0936315 0.26734993 0.52375346 0.19626534
0000e0 cc 28 1f 3d 09 d6 56 3e 19 6c 84 3d 2a 68 8e 3e
       0.038857266 0.20980085 0.064659305 0.27813846
0000f0 b1 64 4b 3e cc d9 31 3e bb 1d 45 3e dd 5c 94 3e
       0.1986263 0.17368239 0.19249623 0.289771
000100 f9 dd 59 40 25 87 e8 3e a8 da 02 3f 66 17 89 3e
       3.4041731 0.45415607 0.5111489 0.26775664
000110 52 a9 e9 3d d3 ca 0b 3e 69 03 a1 3e 54 77 3b 3e
       0.114092484 0.1365159 0.31447914 0.18307239
000120 ab 80 84 3e 14 34 3f 40 5a 25 8e 3d 56 c4 46 3f
       0.25879416 2.9875536 0.06940718 0.77643335
000130 4a 72 89 3e 46 e6 23 3f 0b 4b 41 3d 2f f6 d2 3d
       0.26845008 0.64023244 0.047190707 0.10300862
000140 f1 f9 92 3d c4 af cf 3d 04 86 c0 3d 33 08 92 3f
       0.07176579 0.101409465 0.094005615 1.1408752
000150 3a 5e 99 3e f5 9a 15 3e 40 b5 6c 3d 1e 57 ef 3f
       0.29954702 0.14609893 0.05779004 1.8698461
000160 e8 46 08 3e 02 40 9c 3e 5a c8 49 3e 08 37 7f 40
       0.13308299 0.30517584 0.19705334 3.9877338
000170 ef 8c 52 3e 91 4c 85 3e 0b de 1f 3e 27 bf 36 3e
       0.20561574 0.26034978 0.15612046 0.17846356
000180 1a d2 51 3e 53 8d b6 3e 4a eb 80 3e 1b 48 47 3e
       0.20490304 0.35654697 0.2517951 0.194611
000190 d3 a3 34 3e 6a 9e d1 3e 00 d7 8e 3e dd 3d c4 3d
       0.17640619 0.40941173 0.27898407 0.09582112
0001a0 63 7e c2 3d e1 12 9a 3d 54 5c ff 3f cb 52 9c 3e
       0.094967626 0.07523132 1.9950051 0.30531916
0001b0 e9 d4 0f 3e f4 14 35 3e 8b cd 34 3e 2e e1 a9 3d
       0.14046063 0.17683774 0.17656533 0.08294903
0001c0 d2 64 7f 40 d8 cb f1 3d 0a a0 24 3e ea 95 3b 3e
       3.9905286 0.11806458 0.16076675 0.18318906
0001d0 08 e2 42 3e fb ff 47 3e 4d 75 12 3e ad 5c 05 3e
       0.19031537 0.19531243 0.14302559 0.13023634
0001e0 30 13 96 3e 28 e1 36 3e 02 d2 a5 3e ca 00 d1 3e
       0.29311514 0.17859328 0.32386786 0.40820915
0001f0 21 4d 2c 3e 5c d6 ca 3d ef 04 9c 3e ff e1 4a 3e
       0.16826297 0.09904167 0.30472514 0.19812773
000200 0c 25 33 3d 79 27 7d 3e 2d bf d0 3d 21 a8 14 3e
       0.043736503 0.24722089 0.10192714 0.14517261
000210 2f b7 84 3d 62 62 85 3d 1b 4b 2f 3e 22 90 23 3e
       0.06480252 0.06512906 0.17118494 0.15972951
000220 45 dc ad 3e 25 3b 02 3e
       0.33957115 0.12717874

fc2.weight f4 [69, 138]
000000 e7 ee 17 be 75 31 0a be 2e 94 ac bd a2 d4 27 3e
       -0.14837228 -0.13495429 -0.084267005 0.16389707
000010 87 34 e5 bd 5d b3 84 3d b7 76 f5 3d cc 1d a9 3b
       -0.111916594 0.06479523 0.11985534 0.005161023
000020 48 d5 f8 3d 6b e3 36 3d 43 c4 b7 3d a4 5f 0d be
       0.12150055 0.044650476 0.08972981 -0.13806015
000030 52 06 72 3d 5c dd 0e be aa a0 f2 3d 82 f8 03 3e
       0.05908806 -0.1395163 0.118470505 0.12887767
000040 b5 eb 7f bd 06 70 1d 3e c6 8b 95 3d 63 19 38 3d
       -0.062480647 0.15374765 0.0730205 0.044946086
000050 ae a5 0b be 75 65 92 bd 19 5e aa 3d 01 69 8a bd
       -0.1363742 -0.07148258 0.08318729 -0.06758309
000060 a0 23 09 3e 55 11 04 be 86 3e 90 bd a2 0e 53 bd
       0.13392496 -0.12897237 -0.070431754 -0.051527627
000070 1d 8f 91 3d 9a 75 fa bd 29 b6 3a 3e 50 b4 20 bd
       0.07107375 -0.12229462 0.18233551 -0.03923446
000080 34 d6 0d 3d a0 2c 8a bc 17 d0 56 3d d2 bc 01 be
       0.03462811 -0.016866982 0.052444544 -0.12669685
000090 f3 57 36 3e 59 d2 18 bd cd 71 c6 3c a0 eb 16 3e
       0.17806987 -0.03730998 0.024224186 0.14738321
0000a0 c0 81 d7 3c a8 0e f5 bd dd 13 97 3d db e9 c6 bc
       0.026306987 -0.11965686 0.073768355 -0.024281433
0000b0 88 3b 88 3d 24 b3 52 bd 54 f8 2e be 59 56 68 3d
       0.0665198 -0.051440373 -0.17086917 0.056722973
0000c0 a7 9f e8 3c 8e f8 cb 3c 04 e7 2a bd 36 0f 39 3d
       0.02839644 0.024898794 -0.04172422 0.045180522
0000d0 58 f8 8f bd 13 7e b3 3d a9 61 3d bd 26 09 12 3e
       -0.0702979 0.08764281 -0.046235714 0.14261302
0000e0 af 4a 0f 3e 7e dd b8 3d 9f 04 18 3e 05 c2 2b 3e
       0.13993333 0.09026621 0.14845513 0.16773231
0000f0 dc 3f 18 be 52 a9 b6 bd d6 35 df bc ee 12 b7 3d
       -0.1486811 -0.08919014 -0.02724735 0.089391574
000100 be 62 27 be dd eb c5 3d 6a 23 83 bd 5d d8 33 3d
       -0.16346261 0.09664128 -0.06403239 0.043907512
000110 76 5d 13 be 1e 75 fa bd d3 42 f3 3d 70 e1 2c 3e
       -0.14391121 -0.122293696 0.1187798 0.16882873
000120 3b 94 19 bd 15 f8 0f be 8a 0d 1b 3d b0 ed e7 bd
       -0.03749488 -0.1405948 0.03785471 -0.11324632
000130 06 67 02 3e 76 17 19 bd 54 2a 73 bd 37 08 15 3e
       0.12734613 -0.03737589 -0.05936654 0.14553915
000140 fb 8b 00 3e 77 41 81 3d af 46 21 be b5 0d af 3c
       0.12553398 0.063113146 -0.1574962 0.02136884
000150 b0 1e 9a 3b 03 70 6d bd 97 c2 1e be 21 31 48 bd
       0.0047033653 -0.05796815 -0.15503918 -0.048874978
000160 95 de 1e 3e 64 b2 1c bc de 7b 2f 3d c9 48 87 bd
       0.15514596 -0.009564016 0.04284274 -0.066056795
000170 c4 fb a9 3d cd 40 cf bc de d0 f8 3d 37 96 cd 3d
       0.082999736 -0.025299454 0.12149213 0.10038417
000180 8c 78 19 3e 38 7c bb bb bb ff 1e 3e 5b ca b9 3d
       0.14987391 -0.005721595 0.15527241 0.09071799
000190 26 3c 23 be 59 1d 86 3d 71 88 08 3e dd 97 52 bd
       -0.15940914 0.06548566 0.13333298 -0.05141436
0001a0 2b f3 fe bd d9 09 5c 3d 94 2d 37 bd 6a ce 9c 3c
       -0.12448724 0.05372033 -0.0447212 0.019141395
0001b0 09 92 b7 bd c8 49 1d 3d ae e7 bb 3d 12 6d f8 bd
       -0.08963401 0.03840044 0.09175049 -0.121301785
0001c0 6c 1e e5 bd 1b 9d e4 bc c5 07 a2 bd f5 8e 31 3e
       -0.11187443 -0.027906945 -0.07911638 0.1733969
0001d0 23 8d 51 bd e6 44 d0 3c c2 76 2f 3e 3f 3e 1d 3e
       -0.05115999 0.025423478 0.17135146 0.15355776
0001e0 db ed c0 3c 5e 58 08 3e fe 4a 3a 3c 15 b0 4d 3c
       0.023550918 0.1331496 0.011370419 0.012554188
0001f0 b4 8c 0d 3e 33 c5 33 be 06 32 d2 3d a1 a7 64 bd
       0.13823205 -0.17555694 0.102634475 -0.055823926
000200 10 e9 19 be 7e 64 c8 3d 80 ec ce 3d fa f1 c6 bd
       -0.15030313 0.09784792 0.101037025 -0.09714122
000210 f3 3f 27 3d 39 5f 32 3e b1 79 ae 3d cf cc b4 bd
       0.04083247 0.17419137 0.085193045 -0.08828127
000220 24 d0 00 be 78 92 8e 3c f3 9c d8 3d 10 46 3d 3e
       -0.125794 0.017403826 0.10576811 0.18483758
000230 ab 54 98 3d 66 54 a7 bc 49 01 a6 3d 30 d8 1b be
       0.07438024 -0.020425986 0.08105714 -0.15219188
000240 92 28 87 bd 73 f7 1b be 20 25 38 bd 01 09 ab bc
       -0.06599535 -0.15231113 -0.04495728 -0.020878317
000250 fb 7b bd bd 5d fa e8 3d fd 29 4c be ef 81 9e 3d
       -0.09252163 0.11375878 -0.19937892 0.077396266
000260 1c d6 df bd 16 0d 6b bd 54 a3 0b 3e f8 33 29 be
       -0.1092951 -0.057385527 0.13636523 -0.16523731
000270 6f 97 f8 bd 3a 1e 1b be cd 84 25 3e ea 20 13 3e
       -0.12138259 -0.1514825 0.1616394 0.14368024
000280 0a b8 e8 bd 80 e6 38 3e cc f9 4e bd 8a 93 08 3e
       -0.11363228 0.18056679 -0.050531194 0.13337532
000290 2b fb 9b 3d 77 9d 53 3d 69 e5 e1 bd a6 7a 45 3e
       0.07616266 0.051663842 -0.11030085 0.19285068
0002a0 17 19 43 be 15 39 09 3d e3 98 35 be 70 27 22 3e
       -0.1905254 0.033501703 -0.17734103 0.15835357
0002b0 02 0f 28 bd 21 e8 49 3e 1d 23 1e be e1 81 bb 3d
       -0.041029938 0.19717456 -0.15443082 0.09155632
0002c0 ef 87 1d be c8 08 98 bd 45 3d 35 bd f4 a7 ec 3d
       -0.15383886 -0.0742355 -0.044247884 0.11555472
0002d0 fb b4 00 be 58 c1 25 be 95 7a 8a bd 59 4e 46 be
       -0.12569039 -0.16187036 -0.06761662 -0.19365825
0002e0 50 a7 87 3d 5f f0 9b bd f5 b2 10 be 49 ab 17 be
       0.06623709 -0.076142065 -0.14130767 -0.14811434
0002f0 8b 12 2b 3d 9d 16 da bd 00 33 08 3e 24 b9 f8 bd
       0.04176573 -0.106488444 0.13300705 -0.12144688
000300 75 f1 3f 3d 31 3e 2e bd d4 93 2e bd 87 70 00 bd
       0.04686113 -0.04253978 -0.04262145 -0.031357314
000310 e0 5b 40 be ae e2 09 bd 9f f4 40 3e f1 86 be 3d
       -0.18785048 -0.033663444 0.18843316 0.09303082
000320 e6 a1 01 3e 53 36 fd bc ab fd b9 3d 07 8e 2f bd
       0.12659416 -0.030909693 0.090815865 -0.042860057
000330 79 17 25 be ee fb c2 bc a4 93 38 3e 0f 78 c6 3d
       -0.16122235 -0.02380177 0.1802507 0.09690868
000340 e4 ca aa bd f4 3e 31 be 0b 5b 2e 3e c1 fd 1c 3e
       -0.083394796 -0.17309171 0.17026918 0.15331174
000350 e4 e4 16 be 59 ff 88 3d 84 99 e1 bd 51 3c a4 bc
       -0.14735752 0.06689329 -0.11015609 -0.020048292
000360 64 97 2f 3e 5a f0 4f bd 6b 65 09 be 32 d6 38 be
       0.17147595 -0.050766326 -0.13417594 -0.18050459
000370 c6 55 09 3e bd ed 06 3e fa 5d 6e bc 1d 02 21 3d
       0.13411626 0.13176627 -0.014548773 0.039308656
000380 ef 07 96 3d 2c 2c 1d 3e 2a fe 2b be 69 87 17 be
       0.07325732 0.15348881 -0.16796175 -0.14797749
000390 ea 85 72 bd 10 bd a4 3d 50 70 4e be a8 36 b2 3d
       -0.05920974 0.08043873 -0.20160031 0.08701831
0003a0 a1 fd 9a bd 24 94 3e be 02 c3 d3 bd ef 8d bb bd
       -0.07567907 -0.18611199 -0.10339929 -0.09157931
0003b0 23 50 52 bd 78 89 0d be 07 f4 a7 3d 1a aa 66 bd
       -0.051345956 -0.13821971 0.082008414 -0.056314565
0003c0 70 6d ae bd 09 e1 cf 3d 4d 5f 28 3d 72 f1 28 bd
       -0.08516967 0.10150344 0.04110651 -0.041245885
0003d0 82 0b 09 3e e0 88 23 be 41 61 20 3e 4b aa 3d be
       0.13383296 -0.15970182 0.156621 -0.18521993
0003e0 44 94 02 be 4a a2 4b 3e be f0 c8 3d be 16 33 3e
       -0.12751871 0.19886127 0.09811543 0.17489144
0003f0 83 41 d3 3d d6 c2 2d be 39 38 b0 3d 7e 37 a9 bd
       0.1031523 -0.16968855 0.086044736 -0.082625374

batchnorm2.weight f4 [69]
000000 00 00 80 3f 00 00 80 3f 00 00 80 3f 00 00 80 3f
       1.0 1.0 1.0 1.0
000010 00 00 80 3f 00 00 80 3f 00 00 80 3f 00 00 80 3f
       1.0 1.0 1.0 1.0
000020 00 00 80 3f 00 00 80 3f 00 00 80 3f 00 00 80 3f
       1.0 1.0 1.0 1.0
000030 00 00 80 3f 00 00 80 3f 00 00 80 3f 00 00 80 3f
       1.0 1.0 1.0 1.0
000040 00 00 80 3f 00 00 80 3f 00 00 80 3f 00 00 80 3f
       1.0 1.0 1.0 1.0
000050 00 00 80 3f 00 00 80 3f 00 00 80 3f 00 00 80 3f
       1.0 1.0 1.0 1.0
000060 00 00 80 3f 00 00 80 3f 00 00 80 3f 00 00 80 3f
       1.0 1.0 1.0 1.0
000070 00 00 80 3f 00 00 80 3f 00 00 80 3f 00 00 80 3f
       1.0 1.0 1.0 1.0
000080 00 00 80 3f 00 00 80 3f 00 00 80 3f 00 00 80 3f
       1.0 1.0 1.0 1.0
000090 00 00 80 3f 00 00 80 3f 00 00 80 3f 00 00 80 3f
       1.0 1.0 1.0 1.0
0000a0 00 00 80 3f 00 00 80 3f 00 00 80 3f 00 00 80 3f
       1.0 1.0 1.0 1.0
0000b0 00 00 80 3f 00 00 80 3f 00 00 80 3f 00 00 80 3f
       1.0 1.0 1.0 1.0
0000c0 00 00 80 3f 00 00 80 3f 00 00 80 3f 00 00 80 3f
       1.0 1.0 1.0 1.0
0000d0 00 00 80 3f 00 00 80 3f 00 00 80 3f 00 00 80 3f
       1.0 1.0 1.0 1.0
0000e0 00 00 80 3f 00 00 80 3f 00 00 80 3f 00 00 80 3f
       1.0 1.0 1.0 1.0
0000f0 00 00 80 3f 00 00 80 3f 00 00 80 3f 00 00 80 3f
       1.0 1.0 1.0 1.0
000100 00 00 80 3f 00 00 80 3f 00 00 80 3f 00 00 80 3f
       1.0 1.0 1.0 1.0
000110 00 00 80 3f
       1.0

batchnorm2.bias f4 [69]
000000 00 00 00 00 00 00 00 00 00 00 00 00 00 00 00 00
       0.0 0.0 0.0 0.0
000010 00 00 00 00 00 00 00 00 00 00 00 00 00 00 00 00
       0.0 0.0 0.0 0.0
000020 00 00 00 00 00 00 00 00 00 00 00 00 00 00 00 00
       0.0 0.0 0.0 0.0
000030 00 00 00 00 00 00 00 00 00 00 00 00 00 00 00 00
       0.0 0.0 0.0 0.0
000040 00 00 00 00 00 00 00 00 00 00 00 00 00 00 00 00
       0.0 0.0 0.0 0.0
000050 00 00 00 00 00 00 00 00 00 00 00 00 00 00 00 00
       0.0 0.0 0.0 0.0
000060 00 00 00 00 00 00 00 00 00 00 00 00 00 00 00 00
       0.0 0.0 0.0 0.0
000070 00 00 00 00 00 00 00 00 00 00 00 00 00 00 00 00
       0.0 0.0 0.0 0.0
000080 00 00 00 00 00 00 00 00 00 00 00 00 00 00 00 00
       0.0 0.0 0.0 0.0
000090 00 00 00 00 00 00 00 00 00 00 00 00 00 00 00 00
       0.0 0.0 0.0 0.0
0000a0 00 00 00 00 00 00 00 00 00 00 00 00 00 00 00 00
       0.0 0.0 0.0 0.0
0000b0 00 00 00 00 00 00 00 00 00 00 00 00 00 00 00 00
       0.0 0.0 0.0 0.0
0000c0 00 00 00 00 00 00 00 00 00 00 00 00 00 00 00 00
       0.0 0.0 0.0 0.0
0000d0 00 00 00 00 00 00 00 00 00 00 00 00 00 00 00 00
       0.0 0.0 0.0 0.0
0000e0 00 00 00 00 00 00 00 00 00 00 00 00 00 00 00 00
       0.0 0.0 0.0 0.0
0000f0 00 00 00 00 00 00 00 00 00 00 00 00 00 00 00 00
       0.0 0.0 0.0 0.0
000100 00 00 00 00 00 00 00 00 00 00 00 00 00 00 00 00
       0.0 0.0 0.0 0.0
000110 00 00 00 00
       0.0

batchnorm2.running_mean f4 [69]
000000 84 aa db bf 6f eb b9 40 40 dc bd 40 92 c8 c0 40
       -1.7161412 5.8099895 5.933136 6.0244837
000010 d5 75 db bf 18 fb c1 40 27 34 d8 bf 6f b9 c0 40
       -1.7145334 6.061901 -1.6890916 6.022636
000020 12 71 c4 40 6b 2d cb 40 3a 81 bc 40 c7 9e b9 40
       6.1388025 6.349294 5.8907747 5.800632
000030 20 e8 d7 bf 96 f5 bb 40 68 91 d9 bf b5 02 da bf
       -1.6867714 5.8737288 -1.69975 -1.7032076
000040 27 60 d9 bf 06 07 d9 bf 0e bf da bf 83 a8 d8 bf
       -1.6982468 -1.6955268 -1.7089555 -1.6926426
000050 cf 91 d9 bf 77 46 bd 40 b4 be d8 bf fa 26 c0 40
       -1.6997622 5.9148517 -1.6933198 6.004758
000060 97 95 d8 bf ea 82 d9 bf 5e a8 d8 bf db 7d ae 40
       -1.6920651 -1.6993077 -1.6926382 5.452863
000070 4d 30 c4 40 e6 77 b5 40 19 f9 da bf a5 8f d9 bf
       6.130896 5.670886 -1.7107269 -1.6996962
000080 42 2e da bf a2 cc d9 bf 8c 52 da bf 48 20 c1 40
       -1.7045367 -1.7015574 -1.7056441 6.0351906
000090 1f bd d8 bf 0c 9d c3 40 04 00 c2 40 17 78 b1 40
       -1.6932715 6.1129208 6.062502 5.5459094
0000a0 aa 7b da bf 93 66 d9 bf 90 c6 da bf 55 e4 da bf
       -1.7068989 -1.6984428 -1.7091846 -1.7100931
0000b0 ef 91 d8 bf 7f 61 d9 bf 2a a5 b8 40 2e 36 bf 40
       -1.6919535 -1.6982878 5.7701616 5.9753637
0000c0 1b 51 b7 40 29 4b d8 bf 7d a6 cc 40 89 a2 ba 40
       5.7286506 -1.6897937 6.3953233 5.8323407
0000d0 b4 93 d9 bf d6 78 b6 40 fb a3 bb 40 f4 21 da bf
       -1.69982 5.7022505 5.863767 -1.7041612
0000e0 84 8a b9 40 46 1c da bf 8a cb d9 bf b2 23 bb 40
       5.7981586 -1.7039878 -1.701524 5.8481073
0000f0 7f a4 d9 bf 29 7e d9 bf bd e2 d9 bf a8 94 c0 40
       -1.7003325 -1.6991626 -1.702232 6.0181465
000100 80 a9 d9 bf 82 0a d9 bf 87 20 da bf 4c 13 b4 40
       -1.7004852 -1.6956332 -1.7041177 5.6273556
000110 7e 7d da bf
       -1.7069547

batchnorm2.running_var f4 [69]
000000 6c 53 3c 3b c5 68 00 41 8b 49 10 41 c0 8e 1b 41
       0.0028736247 8.0255785 9.017955 9.722351
000010 11 48 48 3b 2d e0 18 41 47 3c 04 3c 59 23 19 41
       0.0030560533 9.55473 0.008071012 9.57113
000020 60 7a 24 41 24 75 07 41 df e3 19 41 09 b1 1a 41
       10.279877 8.466099 9.618133 9.668221
000030 90 13 0d 3c d4 46 01 41 41 2d a3 3b 14 08 b5 3b
       0.008610621 8.079792 0.00497976 0.0055246446
000040 d2 cc fb 3b 94 2d b3 3b 28 f8 85 3b 8c 55 de 3b
       0.0076843286 0.00546808 0.0040884204 0.0067851003
000050 8e 52 da 3b 6b 5f 0e 41 ef db b4 3b a4 3d 12 41
       0.0066626733 8.898295 0.005519382 9.140049
000060 bc 4c 00 3c 3e 9a a0 3b 0f b8 c8 3b 54 d4 df 40
       0.007830795 0.0049011996 0.006125457 6.994669
000070 00 48 1c 41 b3 48 ef 40 8e 15 53 3b 7a 5f b5 3b
       9.767578 7.4776244 0.0032208893 0.0055350633
000080 0a 8f 51 3b 3f ec 95 3b 54 78 82 3b 17 6e 20 41
       0.0031976127 0.004575282 0.0039816294 10.026877
000090 56 05 d1 3b 9e 1f 27 41 33 d7 35 41 14 03 00 41
       0.00637881 10.445219 11.365039 8.0007515
0000a0 d4 cc 60 3b 04 67 ba 3b 99 b3 ac 3b 6a d6 47 3b
       0.0034301775 0.00568855 0.005270433 0.003049279
0000b0 8a 41 06 3c 73 a6 a3 3b 02 14 f0 40 8c f8 13 41
       0.008194337 0.0049942075 7.5024424 9.24818
0000c0 e8 c3 05 41 73 45 1a 3c 2d ae 30 41 83 80 07 41
       8.360329 0.009415972 11.042523 8.468875
0000d0 50 16 99 3b be c8 16 41 3c bc ff 40 45 e9 a7 3b
       0.0046718493 9.424009 7.991728 0.0051242434
0000e0 ac 0f 08 41 1a 40 82 3b 4b d3 ec 3b 9b c7 2e 41
       8.503826 0.0039749267 0.0072273365 10.923732
0000f0 45 3a 9c 3b be e3 85 3b 6f 4f 95 3b 7a 4b 01 41
       0.0047676885 0.004085987 0.0045565884 8.080927
000100 2b c7 ac 3b 63 7c a5 3b 85 c3 96 3b fa ac 02 41
       0.005272766 0.0050502284 0.0046009445 8.167231
000110 2a 32 81 3b
       0.0039427476

fc3.weight f4 [46, 69]
000000 c1 c1 15 be 21 04 32 3e 7e 1a 85 3d 4b 63 72 3e
       -0.14624692 0.17384388 0.064991936 0.2367069
000010 03 cc 44 be 44 5a 81 3e 01 ec a4 bd 71 e4 6c 3e
       -0.1921845 0.2526418 -0.08052827 0.23134018
000020 45 ad a6 3d 4d af 75 3e 04 c5 57 3e cc 63 71 3e
       0.08138517 0.23992653 0.21071249 0.23573226
000030 73 4b 36 be d1 28 b6 3d f8 88 53 be 00 c3 79 be
       -0.17802219 0.08894504 -0.20657718 -0.24390793
000040 e3 49 50 be 13 0c be bd c4 f4 ac bd c0 74 27 bd
       -0.20340686 -0.09279647 -0.08445123 -0.040882826
000050 61 26 44 be ba 8e 9b 3c d5 57 18 be 41 68 72 3e
       -0.19155265 0.018988956 -0.14877255 0.23672582
000060 ac 8e 58 bd 92 29 ce bd e6 f6 c9 bd f6 c3 5c 3e
       -0.052870438 -0.10066523 -0.09861545 0.21559128
000070 60 fe 6e 3e b2 e6 69 3e 39 4e 5a be 7e 58 09 be
       0.23339224 0.2284191 -0.21318902 -0.13412663
000080 58 f6 73 bd 4f 35 b1 bd 91 44 12 bd 23 d8 ee 3d
       -0.059561104 -0.08652746 -0.03570992 0.116623186
000090 1e f3 05 bd 14 89 5f 3e 7b 0b c2 3d 10 75 aa 3c
       -0.032702558 0.21829635 0.09474846 0.020807773
0000a0 fa 77 1e be 48 c3 f4 bd 00 92 45 be 2f 2c 40 be
       -0.15475455 -0.119513094 -0.19293976 -0.18766855
0000b0 32 f9 d2 bc e0 52 24 bd ff ba 32 3e 16 1e 27 3e
       -0.025753591 -0.0401181 0.17454146 0.1632007
0000c0 7c 7a 13 3d b6 24 4a be b9 79 17 3e 6a 8f 42 3e
       0.036005482 -0.19740567 0.14792527 0.1900002
0000d0 57 ca 58 be ae e2 97 3d 44 3e 21 3e 5f 46 48 bd
       -0.21170937 0.074162826 0.15746409 -0.048895236
0000e0 de ae a7 3d f4 32 7a be 72 8f 0b bd 95 5b 83 3d
       0.0818765 -0.244335 -0.034072347 0.06413952
0000f0 c4 77 e7 bd 5c 0e 05 bd 55 1f 32 bd 7f 4b 66 3d
       -0.1130214 -0.032484397 -0.04348691 0.056224342
000100 ec 46 8d bd 5e a2 b9 bd 3d 36 15 be 71 05 44 3e
       -0.06898293 -0.09064172 -0.14571472 0.191427
000110 c4 7f 62 be 11 df 51 bd 0d 20 06 bd e7 e4 a2 bd
       -0.22119051 -0.051238123 -0.03274541 -0.07953816
000120 eb 70 ce 3b ec 18 c4 3d 08 8e e7 3c b6 be ed 3c
       0.006300082 0.09575066 0.028265968 0.029021602
000130 60 93 96 3d b1 59 68 3d 03 f0 b6 ba 08 a5 8f bd
       0.07352328 0.05672616 -0.0013957027 -0.07013899
000140 43 03 86 bd fa ce c7 3d 42 17 02 be 08 8e 21 3e
       -0.06543591 0.097562745 -0.12704185 0.15776837
000150 2a 07 29 3e 13 62 a4 3d 48 cd be 3d 8b e6 50 bd
       0.16506639 0.08026519 0.09316498 -0.051001113
000160 eb c9 82 3d 9b 10 21 3e c9 7b 22 be fd 05 cc 3d
       0.06386169 0.1572899 -0.15867533 0.0996208
000170 eb 6b ef bd 36 57 6a 3d 7e 53 20 3e a3 19 27 3e
       -0.116905056 0.057212077 0.1565685 0.16318373
000180 2c 91 cb bd cf ed 24 3d d2 13 80 3b 86 4b b9 3c
       -0.09939799 0.040265854 0.0039086128 0.02261902
000190 d0 dc 75 3c 24 c2 0d 3e a1 8e 1b 3e 92 9d 95 3d
       0.015006259 0.1384359 0.15191127 0.07305445
0001a0 e7 53 0a be ef f7 6f ba 7e 22 4e 3d d8 7f 51 3d
       -0.13508569 -0.00091540714 0.050325863 0.051147312
0001b0 e0 de e0 bd 02 5d b8 3d b8 51 8d 3d 1a 21 88 3d
       -0.1098001 0.09002115 0.06900352 0.066469386
0001c0 ba 66 ad 3d 85 9b 3c bd a3 96 b7 3c 09 1e 8d bd
       0.08466859 -0.046046752 0.022410696 -0.068904944
0001d0 7b 16 20 3d a0 0a 09 be 30 ac 2a 3e 2e 3f 39 3d
       0.03908394 -0.1338296 0.16667247 0.04522627
0001e0 4e 3e a0 bd 6a ea cd bc 38 91 b6 bd c5 89 fe 3c
       -0.07824384 -0.025136191 -0.08914417 0.031071553
0001f0 8d 64 9b 3d fe 6f 10 be 5d a3 84 3c ec d0 e4 3d
       0.07587538 -0.14105222 0.016191179 0.11172661
000200 69 06 cf 3b 88 d7 04 3e c0 ef 60 3d 96 38 09 3e
       0.006317903 0.12972844 0.054916143 0.13400492
000210 c8 6d 19 be 55 77 78 3d 95 9d bf 3c b4 49 85 3d
       -0.14983284 0.06066068 0.02339057 0.065081984
000220 28 de e5 bd 1d 67 88 bd d8 66 f7 3d 4f a0 89 bd
       -0.112240136 -0.06660292 0.12080163 -0.067200296
000230 25 35 1c bd c9 9a 87 3d 5d c7 17 3d d8 88 e6 3c
       -0.03813662 0.0662132 0.037055362 0.028141424
000240 75 1e 05 3e 74 71 4a bd 65 f4 73 bd 91 7b f3 bd
       0.129999 -0.049424604 -0.059559245 -0.11888803
000250 58 fe e1 bd 49 ed 56 3b b0 ea 3a 3c 7a e5 e5 3c
       -0.1103484 0.0032795242 0.011408493 0.028063525
000260 2a c9 e5 3d be 49 12 3d b7 7f 9e 3c a9 4f 3c 3d
       0.112200096 0.035714857 0.019348009 0.045974407
000270 28 bb a6 bc b2 1d 9b 3d 8d ec 34 3e 47 ab 1c be
       -0.020352915 0.07574023 0.17668362 -0.15299712
000280 d5 ff 17 3e 39 06 e3 bd db 12 19 3e f1 eb 03 3e
       0.14843686 -0.11085171 0.14948599 0.12882973
000290 75 e5 78 3d c2 fd 96 3b 33 a8 4f bb 75 8a de bd
       0.060765702 0.004607887 -0.0031685948 -0.10866252
0002a0 28 aa b3 3c 8a 33 92 3b f9 2b ca 3d 99 0e 15 3e
       0.021931723 0.0044617103 0.09871668 0.1455635
0002b0 3b a0 09 3e 09 da f4 bc 8d 35 14 3d 50 c3 03 be
       0.1344003 -0.029889124 0.036183883 -0.12867475
0002c0 6d e5 9b 3d ad 00 01 be e9 2b 38 bc 73 2b 24 bd
       0.07612119 -0.12597914 -0.011240938 -0.0400805
0002d0 59 ee 2f bd b3 bb c6 3d 47 5f ae 3d 37 51 b4 3d
       -0.042951915 0.097037695 0.085142665 0.08804553
0002e0 c2 f4 67 bd 4c 0e 31 3d b3 85 49 bd 49 4d 17 3e
       -0.056629904 0.043226525 -0.04919977 0.14775576
0002f0 68 3e d3 bd 8e 19 0d bc f0 a8 07 3e ed 2c c5 bd
       -0.103146374 -0.00861205 0.13248038 -0.096277095
000300 79 80 14 be 61 fe cc 3c f9 e7 4c bc 66 ce 2c 3e
       -0.14502133 0.025023641 -0.0125064785 0.1687561
000310 44 cf 87 3d b7 83 b8 bd d9 6f 16 3e df ae b7 3d
       0.0663133 -0.090094976 0.14691104 0.08968901
000320 ba 39 ba 3c 5b 75 ff bd c3 b0 3a bd 77 29 91 3d
       0.022732604 -0.12473556 -0.04557873 0.07087987
000330 0b fb 42 3d a0 fe 34 3c 9e 6d 0b 3d d6 cc 49 be
       0.047602694 0.011047035 0.034040086 -0.19707045
000340 22 b2 d1 3d 80 26 61 3c f1 ac a7 3c e0 b8 35 be
       0.10239054 0.013742089 0.020468207 -0.17746305
000350 b0 93 36 3e 00 9a d8 bd 82 48 db 3d 69 4c 2b 3e
       0.17829776 -0.10576248 0.10707189 0.16728367
000360 3e 5f ce 3c c8 a8 8f 3c 89 68 23 3e ba f9 8a bb
       0.0251919 0.017536536 0.15957846 -0.0042411955
000370 88 48 2d 3e 1b 5a 09 be 72 40 35 be ab f4 3f be
       0.169222 -0.13413279 -0.17700365 -0.18745677
000380 6e 7f 6c be 32 17 6b be 9b 91 ba bd 5f bb 40 bd
       -0.23095486 -0.22958067 -0.09109803 -0.04705369
000390 a6 49 63 3e 5b cc aa bd 1a 03 78 3e 05 15 f9 bd
       0.22196063 -0.08339759 0.24219933 -0.12162212
0003a0 6e 84 ae bc ca c2 85 bd 0a 02 68 3e d6 59 c2 3d
       -0.021303382 -0.06531294 0.22657028 0.09489791
0003b0 a2 d9 9c 3d 69 be 66 be a4 4b 05 be af 3d 34 be
       0.07658698 -0.22533573 -0.13017136 -0.17601655
0003c0 69 29 51 be 9f c9 52 be ca 6c 1f 3e fa ba 53 be
       -0.20425953 -0.20584725 0.15568843 -0.20676795
0003d0 38 04 9a 3d 4d f9 79 3c e3 5e 5f 3e 31 88 fc bd
       0.07520336 0.015257192 0.2181354 -0.12330664
0003e0 e2 14 4b bd 03 19 3f be 79 6d 94 bc fc d7 33 be
       -0.049580462 -0.18661885 -0.018118607 -0.1756286
0003f0 2f 93 dc bd 7e 38 59 3e 55 c0 f8 3d 48 d6 2b 3e
       -0.107702605 0.21212956 0.121460594 0.1678096

batchnorm3.weight f4 [69]
000000 00 00 80 3f 00 00 80 3f 00 00 80 3f 00 00 80 3f
       1.0 1.0 1.0 1.0
000010 00 00 80 3f 00 00 80 3f 00 00 80 3f 00 00 80 3f
       1.0 1.0 1.0 1.0
000020 00 00 80 3f 00 00 80 3f 00 00 80 3f 00 00 80 3f
       1.0 1.0 1.0 1.0
000030 00 00 80 3f 00 00 80 3f 00 00 80 3f 00 00 80 3f
       1.0 1.0 1.0 1.0
000040 00 00 80 3f 00 00 80 3f 00 00 80 3f 00 00 80 3f
       1.0 1.0 1.0 1.0
000050 00 00 80 3f 00 00 80 3f 00 00 80 3f 00 00 80 3f
       1.0 1.0 1.0 1.0
000060 00 00 80 3f 00 00 80 3f 00 00 80 3f 00 00 80 3f
       1.0 1.0 1.0 1.0
000070 00 00 80 3f 00 00 80 3f 00 00 80 3f 00 00 80 3f
       1.0 1.0 1.0 1.0
000080 00 00 80 3f 00 00 80 3f 00 00 80 3f 00 00 80 3f
       1.0 1.0 1.0 1.0
000090 00 00 80 3f 00 00 80 3f 00 00 80 3f 00 00 80 3f
       1.0 1.0 1.0 1.0
0000a0 00 00 80 3f 00 00 80 3f 00 00 80 3f 00 00 80 3f
       1.0 1.0 1.0 1.0
0000b0 00 00 80 3f 00 00 80 3f 00 00 80 3f 00 00 80 3f
       1.0 1.0 1.0 1.0
0000c0 00 00 80 3f 00 00 80 3f 00 00 80 3f 00 00 80 3f
       1.0 1.0 1.0 1.0
0000d0 00 00 80 3f 00 00 80 3f 00 00 80 3f 00 00 80 3f
       1.0 1.0 1.0 1.0
0000e0 00 00 80 3f 00 00 80 3f 00 00 80 3f 00 00 80 3f
       1.0 1.0 1.0 1.0
0000f0 00 00 80 3f 00 00 80 3f 00 00 80 3f 00 00 80 3f
       1.0 1.0 1.0 1.0
000100 00 00 80 3f 00 00 80 3f 00 00 80 3f 00 00 80 3f
       1.0 1.0 1.0 1.0
000110 00 00 80 3f
       1.0

batchnorm3.bias f4 [69]
000000 00 00 00 00 00 00 00 00 00 00 00 00 00 00 00 00
       0.0 0.0 0.0 0.0
000010 00 00 00 00 00 00 00 00 00 00 00 00 00 00 00 00
       0.0 0.0 0.0 0.0
000020 00 00 00 00 00 00 00 00 00 00 00 00 00 00 00 00
       0.0 0.0 0.0 0.0
000030 00 00 00 00 00 00 00 00 00 00 00 00 00 00 00 00
       0.0 0.0 0.0 0.0
000040 00 00 00 00 00 00 00 00 00 00 00 00 00 00 00 00
       0.0 0.0 0.0 0.0
000050 00 00 00 00 00 00 00 00 00 00 00 00 00 00 00 00
       0.0 0.0 0.0 0.0
000060 00 00 00 00 00 00 00 00 00 00 00 00 00 00 00 00
       0.0 0.0 0.0 0.0
000070 00 00 00 00 00 00 00 00 00 00 00 00 00 00 00 00
       0.0 0.0 0.0 0.0
000080 00 00 00 00 00 00 00 00 00 00 00 00 00 00 00 00
       0.0 0.0 0.0 0.0
000090 00 00 00 00 00 00 00 00 00 00 00 00 00 00 00 00
       0.0 0.0 0.0 0.0
0000a0 00 00 00 00 00 00 00 00 00 00 00 00 00 00 00 00
       0.0 0.0 0.0 0.0
0000b0 00 00 00 00 00 00 00 00 00 00 00 00 00 00 00 00
       0.0 0.0 0.0 0.0
0000c0 00 00 00 00 00 00 00 00 00 00 00 00 00 00 00 00
       0.0 0.0 0.0 0.0
0000d0 00 00 00 00 00 00 00 00 00 00 00 00 00 00 00 00
       0.0 0.0 0.0 0.0
0000e0 00 00 00 00 00 00 00 00 00 00 00 00 00 00 00 00
       0.0 0.0 0.0 0.0
0000f0 00 00 00 00 00 00 00 00 00 00 00 00 00 00 00 00
       0.0 0.0 0.0 0.0
000100 00 00 00 00 00 00 00 00 00 00 00 00 00 00 00 00
       0.0 0.0 0.0 0.0
000110 00 00 00 00
       0.0

batchnorm3.running_mean f4 [69]
000000 b7 5b 13 42 8d aa e0 bf b9 9e e0 bf 01 92 07 42
       36.839565 -1.7552048 -1.7548438 33.892582
000010 3c b6 e0 bf c9 a2 05 42 92 b3 e0 bf 0e 73 e0 bf
       -1.7555614 33.40897 -1.75548 -1.7535112
000020 28 60 e0 bf ac 5e 0c 42 09 bc e0 bf e0 81 e0 bf
       -1.7529345 35.092453 -1.7557384 -1.7539635
000030 11 51 10 42 52 aa 18 42 13 60 e0 bf f4 5f 0f 42
       36.079166 38.16633 -1.752932 35.843704
000040 d0 ae e0 bf c9 72 0a 42 d6 ad e0 bf b9 a0 e0 bf
       -1.7553349 34.612095 -1.755305 -1.7549049
000050 20 1a 15 42 36 ae e0 bf 4b a5 e0 bf 62 8f e0 bf
       37.275513 -1.7553165 -1.7550443 -1.7543757
000060 3e 4d 02 42 62 ac e0 bf 9d fb 19 42 83 a4 e0 bf
       32.57543 -1.7552607 38.495716 -1.7550205
000070 95 eb 05 42 eb e6 02 42 0f 8e e0 bf 32 d0 12 42
       33.48006 32.725506 -1.7543353 36.703316
000080 84 7e e0 bf e7 2e 01 42 86 66 e0 bf d9 7e 0c 42
       -1.753861 32.295803 -1.7531288 35.123875
000090 f7 79 e0 bf 2f 9c e0 bf b2 7e 0b 42 48 c7 0e 42
       -1.7537221 -1.7547663 34.873726 35.69461
0000a0 03 1b 0b 42 57 7e e0 bf 05 97 e0 bf a7 63 10 42
       34.77638 -1.7538556 -1.7546088 36.097317
0000b0 6d a9 e0 bf d0 a1 05 42 f4 ab 8d 3c 15 72 d6 bc
       -1.7551705 33.40802 0.017293908 -0.026177445
0000c0 8e ea d0 bd 5d d0 cb bd 16 e9 13 bc 30 ad de 3a
       -0.10200988 -0.099518515 -0.00902774 0.001698887
0000d0 95 41 5f bd 44 8e 80 3c 21 01 0a 3c bb a0 f1 bd
       -0.054505903 0.015692838 0.008423121 -0.11798235
0000e0 6d 09 5e bd 29 4a 83 3e 06 ef ff 3e a4 28 26 be
       -0.054208208 0.25642517 0.49987048 -0.1622644
0000f0 f2 4e 7e 3d 8b 66 96 3d 70 d3 24 bd 37 34 56 3d
       0.062087007 0.07343777 -0.040240705 0.05229589
000100 85 48 84 3d 3b b5 97 bd a8 fa 29 be b5 b4 89 3d
       0.064591445 -0.07407614 -0.16599524 0.0672392
000110 6a c0 91 3d
       0.07116778
