output/weights25.pt (torch, 82708 bytes, 22 tensors)

fc1.weight f4 [138, 23]
000000 2c 7f 35 3d 54 78 b6 3b 62 fd 81 3d bd c9 b2 bd
       0.044310734 0.0055685434 0.06347157 -0.08729885
000010 2e c3 25 3e a2 30 70 3c 28 d1 61 bd 1d c8 0c be
       0.16187736 0.0146600325 -0.055131108 -0.13748212
000020 d1 ea bf 3c 16 d7 0e 3d 5f ae 2b be 1b b2 84 bd
       0.023427399 0.03487309 -0.16765736 -0.064792834
000030 c4 99 fd bd 3d 06 fe 3d 29 5d ac 3d c1 68 22 be
       -0.12382844 0.124035336 0.084162064 -0.15860273
000040 14 1e 1a 3e 38 2c 81 bd 3e ae 5d 3a b8 c6 8e bc
       0.15050536 -0.06307262 0.0008456445 -0.01742874
000050 bb d2 70 bd f1 81 ab 3d be 1a d8 3d f1 1c 23 3d
       -0.05879472 0.08374394 0.10551976 0.039822523
000060 99 c9 a8 bb 71 c4 07 3e cc a8 2c 3e 69 13 2e 3e
       -0.0051509854 0.1325853 0.16861266 0.16999592
000070 1f 43 02 bd fd a6 a7 bc 95 7b 02 3e 53 27 0d be
       -0.031802293 -0.020465368 0.12742455 -0.13784532
000080 03 1a 57 3e 5a b7 b9 3d 7c db 4a 3d ba 20 b6 3d
       0.21006016 0.09068175 0.049525723 0.08892961
000090 8e 4e 0d 3e c8 80 14 3e 36 cc 02 bb c5 02 28 be
       0.13799497 0.14502251 -0.0019958145 -0.16407306
0000a0 5b b1 fa bd c4 81 31 3c a0 47 32 be 44 ec 0d be
       -0.12240859 0.010834161 -0.17410135 -0.1385966
0000b0 9e 06 26 bb d5 98 70 3c 92 49 09 bd 2a 30 e0 3d
       -0.0025333534 0.0146848755 -0.033517428 0.109466866
0000c0 94 93 3f 3e 65 98 80 3d 40 93 04 be fa 61 80 be
       0.1870864 0.06279067 -0.12946796 -0.2507475
0000d0 43 a1 95 3d bc 7d 46 be 71 8c 69 bd 42 6a f8 bd
       0.07306149 -0.19383901 -0.0570187 -0.12129642
0000e0 3c 6c 57 3e d9 a7 5c be 1b ae 53 be e7 c2 13 3e
       0.21037382 -0.21548404 -0.20671885 0.14429818
0000f0 4c a0 27 3e 35 af 1e 3e 4e 74 1e 3e ae c5 85 3d
       0.16369742 0.15496524 0.15474054 0.06531845
000100 4c 44 a7 3d 71 c8 4c be 9d dd 5e be b1 b2 0e bd
       0.081673235 -0.19998337 -0.21764226 -0.034838382
000110 7d 54 f1 3d f9 3f e1 3d 9e 0b 04 bb 94 c0 0c 3e
       0.11783693 0.1099853 -0.0020148526 0.13745338
000120 12 1d 53 bd 52 dd 0b 3e f9 3c af bb b4 15 bb bd
       -0.051541395 0.13658646 -0.0053478447 -0.09134999
000130 9a 9c be 3c 8f 22 b3 3d c6 32 eb 3d 0e 30 ba 3d
       0.023268033 0.08746826 0.11484294 0.09091197
000140 32 6a 3b 3e 3f 3b 29 3d a1 7e 1a be 8e d4 06 3e
       0.18302229 0.041316267 -0.15087368 0.1316702
000150 a2 08 9b 3d 38 9f 22 bc f8 7e 7a be 91 bb 22 bc
       0.07570006 -0.009925656 -0.24462497 -0.009932415
000160 f0 bc b0 3d 56 bd 0e 3e da aa e3 3d 6b c9 8b 3d
       0.08629787 0.13939413 0.11116572 0.06825527
000170 1a 7c 87 3d c2 34 09 3e 57 e3 5b bd 57 81 51 bd
       0.06615467 0.13399032 -0.053683605 -0.05114874
000180 03 16 5e 3d 1a 57 6a be 75 66 8d bd ee ec cc bd
       0.05422021 -0.22884789 -0.06904308 -0.10006128
000190 ab 5b 07 be 07 99 92 bd b3 d8 5f 3e b0 20 87 3d
       -0.13218562 -0.07158094 0.21860008 0.065980315
0001a0 05 46 0d 3e c3 9a 41 bb e0 2d 58 3e 56 8f 18 be
       0.13796242 -0.0029541708 0.2111125 -0.14898428
0001b0 70 f6 17 bd 73 ad 97 3d 35 81 07 3e 90 e6 fa 3d
       -0.037100255 0.0740613 0.13232882 0.122510076
0001c0 6d 37 40 3e 84 7d 4b 3d fa d6 2c bd fa 19 6a bd
       0.18771143 0.049680248 -0.042197205 -0.05715368
0001d0 48 5b 39 bd 0b 1a 28 be c2 49 0b be fe 66 3b be
       -0.04525307 -0.16416185 -0.13602355 -0.18301007
0001e0 92 92 7d bc 53 50 eb 3c e3 46 5a 3e 3a a4 51 3d
       -0.01547684 0.028724825 0.21316104 0.05118201
0001f0 be 16 19 be 1c 0f 41 3c 29 91 e8 3c 4d 5c 2b 3c
       -0.14950082 0.0117833875 0.02838953 0.010459018
000200 e9 5a 45 3e ba 8f be 3c f7 b5 ec bd 0a 48 4e 3e
       0.1927296 0.023261894 -0.115581445 0.20144668
000210 40 5f 31 ba da 05 8d bd 0b 9e 23 3d 4e c1 02 3d
       -0.00067662075 -0.06885882 0.039945643 0.03192263
000220 60 d2 38 be 2e 7a b0 3d 96 d4 1c 3e c8 dd ed 3d
       -0.18049002 0.08617054 0.1531547 0.11614567
000230 c3 ca e5 bd f1 0a 0a be a2 ae 4c 3d b4 35 17 3e
       -0.11220314 -0.13480736 0.04997123 0.1476658
000240 ec 4d fc 3c ec ff ea bd 38 9e 8e 39 ce fd 28 3e
       0.030798875 -0.114745945 0.00027202233 0.16503069
000250 d4 ea a8 bd bd 39 18 be d1 9c 60 bd 3d 3f 0d 3e
       -0.08247915 -0.14865775 -0.05483705 0.13793655
000260 15 7c 17 3e 04 55 fc ba ba 70 13 3d 59 70 bd 3c
       0.14793427 -0.0019251411 0.035996176 0.02312486
000270 0e 5d 01 bc 3c b0 7c 3d cc af 2f be 54 c0 c2 bd
       -0.007895721 0.061691508 -0.17156905 -0.0950934
000280 c6 9f 58 3d 2a 1e fd bb 82 6c c4 bd 90 e0 d9 bd
       0.052886747 -0.007724543 -0.09591009 -0.10638535
000290 6e 2a 78 bd 6c 1c dd 3b ec c9 46 3e b5 06 ad bd
       -0.06058734 0.006747773 0.19412965 -0.08448545
0002a0 44 88 36 3e 75 ad 25 bd 5c d0 97 bc 8e 4a a5 bd
       0.17825419 -0.040448625 -0.01853197 -0.08070861
0002b0 65 20 b9 3c 71 d7 10 3e 97 c2 05 3e 81 b2 2c 3e
       0.022598455 0.14144684 0.13062511 0.16864969
0002c0 41 f5 1a 3c b8 3f 8b 3c e0 1a 6f be 5c ff ba 3d
       0.009457887 0.016998157 -0.23350096 0.09130737
0002d0 3b a1 2c 3d 1c be 10 3e 9c 21 18 be 33 36 1f bd
       0.04214595 0.14135021 -0.14856571 -0.038870048
0002e0 c7 3e 04 be 0e cc 82 bd 39 44 a1 3d e8 3a 24 be
       -0.12914573 -0.063865766 0.078743406 -0.16038096
0002f0 ed a0 ed bc 41 7f 48 3e a9 c3 29 be 4c 61 83 bc
       -0.0290074 0.19579794 -0.16578545 -0.016037606
000300 b4 41 2f 3d b3 e4 a1 3d fa 1f 3b be 8c d3 20 bd
       0.04278727 0.07904949 -0.18273917 -0.039264247
000310 36 19 7f 3d 07 24 31 3e 39 bc b1 3c 59 5e c4 3d
       0.062279902 0.172989 0.021696197 0.09588308
000320 23 f9 ad 3d a0 8c b2 bd 82 e0 bf bd 72 4d ff bc
       0.08494785 -0.08718228 -0.09368993 -0.031164858
000330 ff fa 46 3d 61 41 99 3c ea ec 0c 3e a7 f8 a1 bd
       0.048579212 0.018707933 0.1376225 -0.07908755
000340 7b 3d 08 bc cf cf ec 3d 4f 71 43 be 01 08 b6 3d
       -0.008315439 0.11563074 -0.19086193 0.088882454
000350 dd e0 3d 3e d3 5e 89 3d b8 f5 5c bb 0f 12 8c bd
       0.1854281 0.067075394 -0.0033715796 -0.06839382
000360 5b d1 86 bd bd 9f dc 3c fe e4 45 bd 14 9a 0a 3e
       -0.065829 0.026931638 -0.048314087 0.13535339
000370 87 f7 3d 3d f9 7f dd 3d e4 24 58 bc d1 6c cb 3c
       0.04637864 0.108154245 -0.013192389 0.024832161
000380 5e d8 02 be 32 0d c2 bc 80 6d 2e be 98 30 56 3e
       -0.1277785 -0.023687933 -0.17033958 0.20916975
000390 38 be ec bd 27 87 0a bd 7e a3 b0 bc 81 0b d4 3d
       -0.11559719 -0.033820298 -0.021562334 0.10353757
0003a0 86 48 ae bd 45 05 13 3e 3c cb 5c 3e fc ac 35 3e
       -0.085099265 0.14357479 0.21561903 0.1774177
0003b0 9a c7 80 bd fa 15 06 3e 82 ea 25 bd 72 e7 9e bc
       -0.06288071 0.13094321 -0.040506847 -0.019397471
0003c0 9d 2f a4 bd c3 27 a1 3d 89 b5 fe bd cb 04 f6 bd
       -0.08016894 0.07868912 -0.12436969 -0.12012633
0003d0 25 21 d2 3d 23 20 e3 3d b0 17 ab bd db 59 27 be
       0.10260228 0.11090114 -0.083541274 -0.16342871
0003e0 be 6b 4d be 17 3f ee 3d 31 e9 19 be f0 00 e0 b9
       -0.20060632 0.11633127 -0.15030362 -0.00042725308
0003f0 82 92 22 3c 38 49 f6 bb 3c 66 26 3e be 23 88 bd
       0.0099226255 -0.0075160526 0.16249937 -0.06647442

fc1.bias f4 [138]
000000 fc a5 a0 3e 7a fe 8e 3e 14 51 04 3e 0e e7 14 be
       0.31376636 0.27928525 0.12921554 -0.14541265
000010 99 14 a9 3e cd 46 b8 be 71 04 4d be 8c d2 4a be
       0.33023527 -0.35991517 -0.20021226 -0.1980688
000020 aa 0c 0d be 4a 39 ee bd 3b 0f 3e be 79 6a 94 3e
       -0.13774362 -0.11632021 -0.18560497 0.28987482
000030 f9 75 19 be fb 60 b2 3e fc 06 a0 be d9 dd 5a be
       -0.14986409 0.34839615 -0.3125533 -0.2137369
000040 f1 0e 46 3e c3 87 18 be 14 ae 20 be 14 e9 49 be
       0.19341637 -0.14895539 -0.15691406 -0.19717818
000050 8d db ae 3e a1 3a a2 3e 2c 88 b0 be 2e b4 19 3e
       0.3415188 0.31685355 -0.3447889 0.1501014
000060 66 74 75 be 2f 0d 31 3e b9 ec 98 3e 78 6c 94 3e
       -0.23970184 0.17290185 0.29868105 0.28989005
000070 f2 35 0a be cd 03 a1 3e c2 dd c0 be 65 59 8b 3e
       -0.13497141 0.31448212 -0.37669188 0.2721664
000080 80 3c 13 be ec 2a 9e 3e b9 b8 c1 bd 05 55 a6 3e
       -0.14378548 0.30892122 -0.09459061 0.3248674
000090 52 e9 65 be 8f 14 5f 3e 04 ea 52 be da 35 08 be
       -0.22452286 0.21785186 -0.20597082 -0.13301793
0000a0 7d 7e 5e be 8c 6a b5 3e e0 94 a8 be ac 94 14 be
       -0.21727939 0.3543285 -0.32926083 -0.14509839
0000b0 e9 7e ae bd d7 c3 17 be 66 9b 80 3e cb e2 8a be
       -0.085203 -0.148208 0.2511856 -0.27126154
0000c0 34 2d 51 be 8a eb 84 be a9 fd 67 3e c6 b1 9a be
       -0.204274 -0.25960952 0.22655357 -0.30213755
0000d0 77 8a 50 3e 69 2a 18 be 6a 68 f9 3d d9 40 52 be
       0.2036532 -0.14859928 0.121781185 -0.2053255
0000e0 ad 97 b7 be 17 8f 9a be cb 2f af be 08 5a 79 be
       -0.35857907 -0.30187294 -0.3421615 -0.2435075
0000f0 59 06 b9 3e a0 0e 90 3e 45 bc 87 3e 5c 2c ed bd
       0.36137655 0.28136158 0.26510826 -0.115807265
000100 2b 24 a5 3e b4 6b f8 bd 40 20 0b be 49 bf 2f be
       0.32254156 -0.12129918 -0.13586521 -0.17162813
000110 06 59 b2 3e e3 40 b2 3e ed 13 1b be 87 d9 9f be
       0.34833544 0.3481513 -0.1514432 -0.31220648
000120 ed 88 8d 3e 77 f2 a9 3e 51 8a bd be b2 df 95 3e
       0.2764353 0.33192798 -0.3701959 0.29272228
000130 8e 43 9e be e1 aa 9e bd 0c 29 87 3e 2e 8d 97 be
       -0.30910915 -0.07747436 0.26398504 -0.295999
000140 3c 06 b3 be 83 2f be be 62 3a 82 3e 0e 97 95 3e
       -0.34965694 -0.37145624 0.25435168 0.29216808
000150 7f 70 35 be 29 37 87 3e c4 d1 90 3e a3 c9 b5 3e
       -0.17718695 0.2640927 0.28285038 0.355054
000160 ab 64 9c be 1c 35 e8 bd 55 8c 63 be 5e 57 35 3e
       -0.30545554 -0.11338255 -0.22221501 0.17709109
000170 54 27 73 be 5b 71 6c 3e 97 4e 9f be 1d a1 9c be
       -0.23745471 0.23090117 -0.31114647 -0.3059167
000180 25 2d be be 60 85 e1 bd e5 6c 1d be de d4 87 be
       -0.37143818 -0.110117674 -0.15373571 -0.26529592
000190 ca a0 b4 3e 19 46 56 bd 17 b6 1b be 95 04 b5 3e
       0.35278922 -0.052312944 -0.1520618 0.35355058
0001a0 2b bf a1 3e d8 28 92 be 83 7f b2 3e 13 67 34 be
       0.31591162 -0.28546786 0.3486291 -0.17617445
0001b0 66 9d 27 3e b7 03 45 be f2 6d 92 be 4c 7c b8 3e
       0.16368636 -0.19239698 -0.28599507 0.3603233
0001c0 d7 b1 61 3e 8b 4f 88 3e 3a 0e 3a 3e cf 06 c2 be
       0.22040497 0.26623186 0.1816949 -0.3789582
0001d0 06 80 98 3e 87 da 84 be 40 3a b6 be 38 bb 8b be
       0.29785174 -0.25947973 -0.35591316 -0.27291274
0001e0 21 81 80 be 95 07 93 be 82 7d 30 be d1 64 4f be
       -0.25098518 -0.28716722 -0.17235377 -0.20253302
0001f0 3e 16 a6 be 14 23 60 3e b5 78 0d be b4 48 87 3e
       -0.32438844 0.21888381 -0.13815577 0.26422656
000200 f8 7c bb 3e ab 39 5d be de ee 99 be 59 5d 78 3e
       0.3661878 -0.2160403 -0.30065054 0.2425436
000210 cb 20 b0 be cd 8f a0 be 99 b1 b9 be 5e 6b 47 3e
       -0.3440002 -0.3135971 -0.3626831 0.19474551
000220 70 90 60 3e 39 ba 90 be
       0.21930099 -0.28267077

batchnorm1.weight f4 [138]
000000 00 00 80 3f 00 00 80 3f 00 00 80 3f 00 00 80 3f
       1.0 1.0 1.0 1.0
000010 00 00 80 3f 00 00 80 3f 00 00 80 3f 00 00 80 3f
       1.0 1.0 1.0 1.0
000020 00 00 80 3f 00 00 80 3f 00 00 80 3f 00 00 80 3f
       1.0 1.0 1.0 1.0
000030 00 00 80 3f 00 00 80 3f 00 00 80 3f 00 00 80 3f
       1.0 1.0 1.0 1.0
000040 00 00 80 3f 00 00 80 3f 00 00 80 3f 00 00 80 3f
       1.0 1.0 1.0 1.0
000050 00 00 80 3f 00 00 80 3f 00 00 80 3f 00 00 80 3f
       1.0 1.0 1.0 1.0
000060 00 00 80 3f 00 00 80 3f 00 00 80 3f 00 00 80 3f
       1.0 1.0 1.0 1.0
000070 00 00 80 3f 00 00 80 3f 00 00 80 3f 00 00 80 3f
       1.0 1.0 1.0 1.0
000080 00 00 80 3f 00 00 80 3f 00 00 80 3f 00 00 80 3f
       1.0 1.0 1.0 1.0
000090 00 00 80 3f 00 00 80 3f 00 00 80 3f 00 00 80 3f
       1.0 1.0 1.0 1.0
0000a0 00 00 80 3f 00 00 80 3f 00 00 80 3f 00 00 80 3f
       1.0 1.0 1.0 1.0
0000b0 00 00 80 3f 00 00 80 3f 00 00 80 3f 00 00 80 3f
       1.0 1.0 1.0 1.0
0000c0 00 00 80 3f 00 00 80 3f 00 00 80 3f 00 00 80 3f
       1.0 1.0 1.0 1.0
0000d0 00 00 80 3f 00 00 80 3f 00 00 80 3f 00 00 80 3f
       1.0 1.0 1.0 1.0
0000e0 00 00 80 3f 00 00 80 3f 00 00 80 3f 00 00 80 3f
       1.0 1.0 1.0 1.0
0000f0 00 00 80 3f 00 00 80 3f 00 00 80 3f 00 00 80 3f
       1.0 1.0 1.0 1.0
000100 00 00 80 3f 00 00 80 3f 00 00 80 3f 00 00 80 3f
       1.0 1.0 1.0 1.0
000110 00 00 80 3f 00 00 80 3f 00 00 80 3f 00 00 80 3f
       1.0 1.0 1.0 1.0
000120 00 00 80 3f 00 00 80 3f 00 00 80 3f 00 00 80 3f
       1.0 1.0 1.0 1.0
000130 00 00 80 3f 00 00 80 3f 00 00 80 3f 00 00 80 3f
       1.0 1.0 1.0 1.0
000140 00 00 80 3f 00 00 80 3f 00 00 80 3f 00 00 80 3f
       1.0 1.0 1.0 1.0
000150 00 00 80 3f 00 00 80 3f 00 00 80 3f 00 00 80 3f
       1.0 1.0 1.0 1.0
000160 00 00 80 3f 00 00 80 3f 00 00 80 3f 00 00 80 3f
       1.0 1.0 1.0 1.0
000170 00 00 80 3f 00 00 80 3f 00 00 80 3f 00 00 80 3f
       1.0 1.0 1.0 1.0
000180 00 00 80 3f 00 00 80 3f 00 00 80 3f 00 00 80 3f
       1.0 1.0 1.0 1.0
000190 00 00 80 3f 00 00 80 3f 00 00 80 3f 00 00 80 3f
       1.0 1.0 1.0 1.0
0001a0 00 00 80 3f 00 00 80 3f 00 00 80 3f 00 00 80 3f
       1.0 1.0 1.0 1.0
0001b0 00 00 80 3f 00 00 80 3f 00 00 80 3f 00 00 80 3f
       1.0 1.0 1.0 1.0
0001c0 00 00 80 3f 00 00 80 3f 00 00 80 3f 00 00 80 3f
       1.0 1.0 1.0 1.0
0001d0 00 00 80 3f 00 00 80 3f 00 00 80 3f 00 00 80 3f
       1.0 1.0 1.0 1.0
0001e0 00 00 80 3f 00 00 80 3f 00 00 80 3f 00 00 80 3f
       1.0 1.0 1.0 1.0
0001f0 00 00 80 3f 00 00 80 3f 00 00 80 3f 00 00 80 3f
       1.0 1.0 1.0 1.0
000200 00 00 80 3f 00 00 80 3f 00 00 80 3f 00 00 80 3f
       1.0 1.0 1.0 1.0
000210 00 00 80 3f 00 00 80 3f 00 00 80 3f 00 00 80 3f
       1.0 1.0 1.0 1.0
000220 00 00 80 3f 00 00 80 3f
       1.0 1.0

batchnorm1.bias f4 [138]
000000 00 00 00 00 00 00 00 00 00 00 00 00 00 00 00 00
       0.0 0.0 0.0 0.0
000010 00 00 00 00 00 00 00 00 00 00 00 00 00 00 00 00
       0.0 0.0 0.0 0.0
000020 00 00 00 00 00 00 00 00 00 00 00 00 00 00 00 00
       0.0 0.0 0.0 0.0
000030 00 00 00 00 00 00 00 00 00 00 00 00 00 00 00 00
       0.0 0.0 0.0 0.0
000040 00 00 00 00 00 00 00 00 00 00 00 00 00 00 00 00
       0.0 0.0 0.0 0.0
000050 00 00 00 00 00 00 00 00 00 00 00 00 00 00 00 00
       0.0 0.0 0.0 0.0
000060 00 00 00 00 00 00 00 00 00 00 00 00 00 00 00 00
       0.0 0.0 0.0 0.0
000070 00 00 00 00 00 00 00 00 00 00 00 00 00 00 00 00
       0.0 0.0 0.0 0.0
000080 00 00 00 00 00 00 00 00 00 00 00 00 00 00 00 00
       0.0 0.0 0.0 0.0
000090 00 00 00 00 00 00 00 00 00 00 00 00 00 00 00 00
       0.0 0.0 0.0 0.0
0000a0 00 00 00 00 00 00 00 00 00 00 00 00 00 00 00 00
       0.0 0.0 0.0 0.0
0000b0 00 00 00 00 00 00 00 00 00 00 00 00 00 00 00 00
       0.0 0.0 0.0 0.0
0000c0 00 00 00 00 00 00 00 00 00 00 00 00 00 00 00 00
       0.0 0.0 0.0 0.0
0000d0 00 00 00 00 00 00 00 00 00 00 00 00 00 00 00 00
       0.0 0.0 0.0 0.0
0000e0 00 00 00 00 00 00 00 00 00 00 00 00 00 00 00 00
       0.0 0.0 0.0 0.0
0000f0 00 00 00 00 00 00 00 00 00 00 00 00 00 00 00 00
       0.0 0.0 0.0 0.0
000100 00 00 00 00 00 00 00 00 00 00 00 00 00 00 00 00
       0.0 0.0 0.0 0.0
000110 00 00 00 00 00 00 00 00 00 00 00 00 00 00 00 00
       0.0 0.0 0.0 0.0
000120 00 00 00 00 00 00 00 00 00 00 00 00 00 00 00 00
       0.0 0.0 0.0 0.0
000130 00 00 00 00 00 00 00 00 00 00 00 00 00 00 00 00
       0.0 0.0 0.0 0.0
000140 00 00 00 00 00 00 00 00 00 00 00 00 00 00 00 00
       0.0 0.0 0.0 0.0
000150 00 00 00 00 00 00 00 00 00 00 00 00 00 00 00 00
       0.0 0.0 0.0 0.0
000160 00 00 00 00 00 00 00 00 00 00 00 00 00 00 00 00
       0.0 0.0 0.0 0.0
000170 00 00 00 00 00 00 00 00 00 00 00 00 00 00 00 00
       0.0 0.0 0.0 0.0
000180 00 00 00 00 00 00 00 00 00 00 00 00 00 00 00 00
       0.0 0.0 0.0 0.0
000190 00 00 00 00 00 00 00 00 00 00 00 00 00 00 00 00
       0.0 0.0 0.0 0.0
0001a0 00 00 00 00 00 00 00 00 00 00 00 00 00 00 00 00
       0.0 0.0 0.0 0.0
0001b0 00 00 00 00 00 00 00 00 00 00 00 00 00 00 00 00
       0.0 0.0 0.0 0.0
0001c0 00 00 00 00 00 00 00 00 00 00 00 00 00 00 00 00
       0.0 0.0 0.0 0.0
0001d0 00 00 00 00 00 00 00 00 00 00 00 00 00 00 00 00
       0.0 0.0 0.0 0.0
0001e0 00 00 00 00 00 00 00 00 00 00 00 00 00 00 00 00
       0.0 0.0 0.0 0.0
0001f0 00 00 00 00 00 00 00 00 00 00 00 00 00 00 00 00
       0.0 0.0 0.0 0.0
000200 00 00 00 00 00 00 00 00 00 00 00 00 00 00 00 00
       0.0 0.0 0.0 0.0
000210 00 00 00 00 00 00 00 00 00 00 00 00 00 00 00 00
       0.0 0.0 0.0 0.0
000220 00 00 00 00 00 00 00 00
       0.0 0.0

batchnorm1.running_mean f4 [138]
000000 75 5b c2 3e 84 da 48 3e 32 ca 95 3e bb 7d a6 be
       0.379604 0.19614607 0.29255825 -0.325178
000010 65 da 88 3e 06 74 05 bf 3f 06 38 be b3 4b a8 be
       0.26729122 -0.5213016 -0.17971133 -0.32870254
000020 05 27 48 be b2 20 71 be 38 4c 83 be 4f c0 a4 3e
       -0.19546135 -0.23547629 -0.25644088 0.3217797
000030 f0 2e d2 be 9f 80 c5 3e 03 16 07 bf a5 69 88 be
       -0.41051435 0.38574693 -0.5276796 -0.266431
000040 72 d4 a4 3e 29 5f 93 be d3 e7 1b be e9 1c b3 be
       0.32193333 -0.2878354 -0.15225153 -0.34982994
000050 f0 92 a1 3e 2a 4f c0 3e 40 cd e0 be 39 57 52 3e
       0.31557417 0.37560397 -0.43906593 0.20541085
000060 d0 a4 a2 be 81 5d fe 3e 21 5e 8a 3e 43 68 78 3e
       -0.31766367 0.49680713 0.2702494 0.24258523
000070 f9 75 a9 be 8c 72 c4 3e 4c f9 0c bf c9 5d b5 3e
       -0.33097818 0.38368642 -0.55067897 0.35423115
000080 e2 18 7e be e4 2e 7d 3e 40 21 a0 be a2 79 94 3e
       -0.2481418 0.24724919 -0.31275368 0.28999048
000090 c7 96 dd be f8 9a 7f 3e 54 df 84 be b5 f7 87 be
       -0.43279096 0.2496146 -0.25951636 -0.26556173
0000a0 f1 f8 3e be 39 cb be 3e 70 2a 16 bf 6c f7 64 be
       -0.18649651 0.37264422 -0.58658504 -0.22360009
0000b0 ea a4 58 be 1f 98 75 be 72 56 70 3f a7 54 e6 be
       -0.2115666 -0.23983811 0.93881905 -0.4498646
0000c0 14 f4 be be f3 e9 a8 be 91 02 78 3e 0f 1d 03 bf
       -0.37295592 -0.3299099 0.24219729 -0.51216215
0000d0 aa 0c d3 3e 4f 88 ae be 97 d6 0d 3e 03 85 6e be
       0.412206 -0.3408837 0.13851391 -0.23292927
0000e0 45 9c 01 bf 78 04 d8 be e6 70 df be ba e9 c9 be
       -0.50629073 -0.4219091 -0.43640822 -0.39436132
0000f0 ff 49 f7 3e 68 db d8 3e 9c 27 be 3e 0a 1c 2d be
       0.48298642 0.42354894 0.37139595 -0.16905227
000100 a8 cc 58 3f 7d 0c 50 be 14 73 56 be c6 39 98 be
       0.8468728 -0.20317264 -0.20942336 -0.29731578
000110 76 36 ba 3e af 34 c6 3e 4a cb 86 be 0c 73 d6 be
       0.36369675 0.3871207 -0.26326972 -0.4188465
000120 8f cd a7 3e c9 56 dd 3e 80 c6 06 bf 46 bf dd 3e
       0.32774016 0.43230274 -0.52646637 0.43309993
000130 4c a0 d8 be a9 2f 21 be d0 08 94 3e ee f8 cd be
       -0.42309797 -0.15740837 0.28912973 -0.4022898
000140 4a 40 1d bf ea 88 19 bf 9d e1 69 3e 12 48 50 3e
       -0.6142622 -0.5997454 0.22839971 0.20339993
000150 48 20 23 be 45 b6 b7 3e 0d c3 8e 3e b4 a9 be 3e
       -0.15930283 0.35881248 0.27883187 0.37238848
000160 d5 5e f0 be 12 ca 94 be 8d 35 ad be 0e c1 e6 3e
       -0.4694735 -0.29060417 -0.33829919 0.45069164
000170 f8 8e e3 be 3b 02 9c 3e 91 59 f0 be 41 dc 05 bf
       -0.44445014 0.30470452 -0.46943334 -0.52289206
000180 a3 8d 09 bf 3c 85 69 be 5b 9d ce be dc d4 f0 be
       -0.53731745 -0.22804731 -0.40354428 -0.470374
000190 65 79 de 3e c3 51 5a be 21 4a d8 be e3 be e0 3e
       0.43451992 -0.21320252 -0.42244056 0.43895635
0001a0 8b a1 c1 3e 36 a8 e9 be b7 c3 26 3f 79 21 82 be
       0.3781856 -0.45636147 0.6514239 -0.25416163
0001b0 6a 92 8a 3e f6 a4 8b be d2 0d db be 39 ab d8 3e
       0.2706483 -0.27274293 -0.42783982 0.42318133
0001c0 b4 89 06 3f a3 bf a8 3e d1 fa 7b 3e 93 4f 0f bf
       0.5255387 0.32958707 0.24607398 -0.55980796
0001d0 4b 54 b2 3e 35 b1 c1 be d3 b2 18 bf 00 d8 a3 be
       0.34829935 -0.3783051 -0.59647864 -0.32000732
0001e0 32 10 9a be 56 95 f4 be 2d 03 60 be aa 34 94 be
       -0.3009048 -0.47770184 -0.21876211 -0.2894643
0001f0 0a 0e b6 be 6a 8f 95 3e 06 db 94 be 97 b7 9a 3e
       -0.35557586 0.2921098 -0.29073352 0.30218193
000200 b2 b9 ab 3e d6 bd dd be b4 07 d8 be d8 bc 82 3e
       0.33540112 -0.43308896 -0.42193377 0.255347
000210 da ea 0b bf 74 8b cf be 0c d5 e9 be 67 91 92 3e
       -0.5465523 -0.40536082 -0.45670354 0.28626558
000220 4b fc 8f 3e 4c 83 07 bf
       0.28122172 -0.5293472

batchnorm1.running_var f4 [138]
000000 42 75 d4 3d c3 fd 9c 3e 6f 39 46 3e 62 d7 a5 3e
       0.10373928 0.30662355 0.19357847 0.32390887
000010 74 73 ff 3d 54 fd 06 3e 7b 45 84 3e 64 26 95 3e
       0.12473193 0.13182575 0.2583426 0.29130852
000020 1f a4 a6 3e 41 cb bd 3e 82 08 ae 3e d7 39 80 3d
       0.3254709 0.37069133 0.33990866 0.06261032
000030 da 2a b4 3e 1a d6 be 3d 45 f1 9e 3d 5f e8 97 3e
       0.35188943 0.093181804 0.07760862 0.29669473
000040 20 6e 07 3e 66 df 9a 3e fa 86 83 3e f2 2f 5e 3e
       0.13225603 0.30248564 0.25688916 0.21697977
000050 11 cc a7 3f da d3 6a 3d 9c d6 d7 3d 75 92 a5 3f
       1.3109151 0.057330944 0.1053898 1.293532
000060 2a 11 80 3e 1d f5 ed 3f 84 3b 62 3f 69 30 75 3f
       0.25013095 1.8590428 0.88372064 0.95776993
000070 39 9a 95 3e f7 70 29 3e c0 71 ab 3c 84 a1 c1 3d
       0.29219225 0.16546999 0.020928264 0.09454635
000080 2e 93 c8 3e dc 68 2b 3f 48 28 a9 3e aa c6 6d 3d
       0.3917479 0.6695688 0.33038545 0.05805079
000090 e9 d2 2a 3e 59 41 ae 3f 52 e0 64 3e fb 62 a5 3e
       0.16682018 1.3613693 0.22351196 0.3230208
0000a0 d4 c3 79 3e 41 5a 4a 3d 03 ba d1 3d 85 d5 b4 3e
       0.24391109 0.04940248 0.10240557 0.35319152
0000b0 b7 90 c2 3e 22 90 05 3f 47 2a b3 40 85 8c 4d 3e
       0.38001034 0.52173054 5.598911 0.20073135
0000c0 bc d3 50 3e eb a8 4b 3e 0c 53 af 3f f8 62 97 3d
       0.2039327 0.19888656 1.3697219 0.07391924
0000d0 c0 b1 19 40 53 6d 86 3e 86 34 0d 3f c3 83 63 3e
       2.401474 0.26255283 0.5515827 0.22218232
0000e0 e5 12 46 3d 00 d0 5e 3e 41 b6 98 3d 0a 44 a3 3e
       0.048357863 0.21759033 0.07456637 0.31887847
0000f0 07 29 1c 3e 8c b4 f4 3d 48 6d 0c 3e 6b bb bb 3e
       0.15250026 0.11948499 0.13713562 0.36666426
000100 c3 94 8a 40 72 26 c3 3e 20 9c f7 3e fe 4e 74 3e
       4.3306594 0.3811527 0.483613 0.23858258
000110 3f 2d d7 3d 45 0e c3 3d 4a 29 a8 3e 68 b2 2a 3e
       0.10506677 0.09524206 0.32844 0.16669619
000120 f5 e7 4e 3e f3 e7 5e 40 4a 2d 62 3d 64 83 74 3f
       0.20205672 3.482907 0.055218972 0.95512986
000130 1b 6e 55 3e cc ba 3c 3f 86 6f 0d 3d 0e 1a d9 3d
       0.20842783 0.7372253 0.034530185 0.10600673
000140 fa 9f 60 3d 7e 5e 90 3d cc 09 d9 3d d1 20 ba 3f
       0.054840066 0.07049273 0.10597572 1.4541265
000150 d9 1f 99 3e 5c 3a d4 3d 22 de 82 3d 20 e4 10 40
       0.2990711 0.10362694 0.06390025 2.2639236
000160 db 62 02 3e 66 b4 bb 3e cc be 62 3e fe 3c 92 40
       0.12733023 0.3666107 0.22143096 4.5699453
000170 e1 a0 1c 3e 70 1f 3b 3e 0c 5b f6 3d df b7 00 3e
       0.15295745 0.18273711 0.120290846 0.12570141
000180 be dc 19 3e 5c 9d a9 3e 9d 38 a9 3e b5 2a 2f 3e
       0.15025613 0.33127868 0.33051005 0.17106135
000190 db 03 f8 3d 2f 55 bf 3e 35 3a b3 3e c4 b5 77 3d
       0.1211011 0.37369677 0.35005346 0.06047608
0001a0 a7 40 66 3d c4 30 71 3d 3c 1c 22 40 dc 5d be 3e
       0.056214 0.058884397 2.5329733 0.37180984
0001b0 08 e9 b7 3d 29 6b 41 3e 21 30 30 3e 34 83 80 3d
       0.08979994 0.18888535 0.1720586 0.06275025
0001c0 77 aa 91 40 e3 21 9b 3d e0 38 f2 3d 48 ba 00 3e
       4.5520587 0.07574823 0.11827254 0.1257106
0001d0 a0 e6 08 3e ed 92 17 3e 10 59 06 3e a1 89 eb 3d
       0.13369226 0.14802141 0.13119912 0.1150086
0001e0 29 be 87 3e 66 0d 08 3e b0 7f 93 3e ed 8f ce 3e
       0.26512268 0.13286361 0.28808355 0.40344182
0001f0 eb 34 27 3e c3 6e 77 3d f2 77 89 3e 6f 0e 02 3e
       0.1632878 0.060408365 0.26849324 0.12700818
000200 79 cd 80 3d e5 c9 53 3e b7 0a ae 3d 2d 51 ee 3d
       0.06289191 0.20682485 0.084981374 0.11636577
000210 3b ae 29 3d b6 08 8e 3d 64 4b 0e 3e 85 14 cf 3d
       0.041425925 0.06935255 0.13895947 0.10111336
000220 ad 48 87 3e 9a 75 c2 3d
       0.26422635 0.09495087

fc2.weight f4 [69, 138]
000000 79 4e 31 be f2 af 09 be c8 e5 c8 bd 60 3c 39 3e
       -0.17315091 -0.13446024 -0.09809452 0.18089437
000010 69 d9 08 be f4 75 b3 3d 1f f9 15 3e 4a ba 05 3d
       -0.13364185 0.08762732 0.14645813 0.032648362
000020 97 cc 0e 3e 7d 8c 96 3d a8 e8 d9 3d 79 6c 25 be
       0.13945232 0.07351015 0.10640079 -0.1615466
000030 5f 32 aa 3d bb 00 24 be 4c b1 0e 3e 00 ba 15 3e
       0.08310389 -0.16015904 0.13934821 0.14621735
000040 14 7e ab bd 75 24 2d 3e 9a 4c a1 3d c4 77 80 3d
       -0.08373657 0.16908439 0.07875939 0.062728435
000050 ee ba 16 be ac e9 c4 bd e4 f4 db 3d 05 66 6d bd
       -0.14719746 -0.09614882 0.107400686 -0.05795862
000060 de 57 1b 3e 89 4b 16 be 1c 98 a7 bd 8a 9b 7d bd
       0.15170237 -0.14677252 -0.081833094 -0.06191591
000070 ac 77 ae 3d 3f 68 12 be b7 c7 51 3e 19 64 75 bd
       0.08518919 -0.14297579 0.20486341 -0.059909914
000080 50 84 53 3d 99 9a 14 bc 9f 9e 8f 3d 29 ea 1a be
       0.051639855 -0.009070062 0.070126764 -0.15128388
000090 5b ae 48 3e 0e 1e 01 bd c2 a9 3d 3d 25 2f 21 3e
       0.19597761 -0.031522803 0.04630447 0.1574064
0000a0 68 62 4a 3d 18 21 12 be 5b dc c4 3d f3 9d 58 3b
       0.049410254 -0.14270437 0.09612342 0.003305313
0000b0 ba e9 a0 3d 28 75 63 bd 6e 6f 40 be 09 10 a7 3d
       0.0785708 -0.05553165 -0.18792507 0.08157355
0000c0 e7 59 4d 3d 1f 35 34 3d 57 cd 07 bd c1 6a 8a 3d
       0.050134566 0.043995973 -0.03315481 0.06758643
0000d0 b7 6b cd bd 34 98 da 3d 26 0f 0c bd 92 6f 29 3e
       -0.100303106 0.10673562 -0.034194134 0.16546467
0000e0 38 3e 27 3e 80 39 ea 3d 68 0b 31 3e dc 7a 3d 3e
       0.16332328 0.114367485 0.17289507 0.18503898
0000f0 9c 66 2f be fe cf e0 bd be e7 46 bd d0 4c aa 3d
       -0.17128986 -0.10977171 -0.04856085 0.08315432
000100 b9 a0 39 be 40 27 f6 3d aa 3f 6e bd 12 9e 7b 3d
       -0.18127717 0.12019205 -0.058166184 0.061430044
000110 43 23 2b be 7b 8e 15 be 3f 7f 12 3e cc 02 41 3e
       -0.1671267 -0.14605133 0.14306353 0.18848723
000120 01 c5 68 bd 7e 59 26 be 19 eb 79 3d da 3b 0c be
       -0.056828503 -0.16245076 0.061015222 -0.13694707
000130 2b 38 1c 3e c1 fe 3f bd cf c7 a9 bd f7 ad 2c 3e
       0.15255801 -0.04687381 -0.082900636 0.16863237
000140 8d e3 17 3e 16 1b b1 3d 35 01 36 be 9b ff 1d 3c
       0.14832897 0.08647744 -0.17773898 0.009643461
000150 a1 05 b8 3c 8d 15 a8 bd 2a 14 38 be 7c fa 84 bd
       0.022463622 -0.082072355 -0.17976442 -0.064930886
000160 c4 4c 36 3e 68 e3 65 3c fa dd 88 3d e4 c5 b5 bd
       0.17802721 0.014031269 0.06682964 -0.08875635
000170 65 b5 cf 3d 38 b2 2f bd 17 99 15 3e 0d d2 ff 3d
       0.1014202 -0.042894572 0.1460918 0.12491236
000180 f8 5c 33 3e a3 ac 14 3c d1 10 37 3e f1 8d ed 3d
       0.17515934 0.009074363 0.17877509 0.11599339
000190 11 20 38 be 70 16 93 3d 1c 4f 21 3e b1 af 9a bd
       -0.17980982 0.07182014 0.15752834 -0.07553042
0001a0 7b f4 14 be 73 1b 9b 3d f0 70 83 bd e8 4e 09 3d
       -0.14546387 0.07573595 -0.064180255 0.033522516
0001b0 ae 1f cb bd 84 a1 6c 3d ca 8e ef 3d 9a d3 11 be
       -0.09918152 0.05777122 0.11697157 -0.14240876
0001c0 c6 58 0a be b6 23 50 bd f0 e7 b7 bd 6c 9c 4c 3e
       -0.13510427 -0.050815307 -0.089797854 0.19981545
0001d0 eb b9 98 bd 81 e5 31 3d f1 b7 46 3e 82 60 39 3e
       -0.07457336 0.043431763 0.19406106 0.18103221
0001e0 6f 7b 4f 3d 65 f8 21 3e fd ef 13 3d 79 42 d4 3c
       0.050654825 0.15817411 0.036117543 0.025910603
0001f0 65 f8 28 3e 6b 3d 4c be 49 1c ee 3d 47 b8 9c bd
       0.16501005 -0.19945304 0.11626489 -0.076523356
000200 08 4f 32 be 20 fd ef 3d 70 0a 00 3e da 15 f3 bd
       -0.1741296 0.11718202 0.12503982 -0.11869402
000210 da 64 7e 3d f8 53 4b 3e 77 44 e4 3d bf 50 ca bd
       0.0621079 0.1985625 0.11145871 -0.09878682
000220 15 c3 1c be 98 ca 25 3d 90 7f e9 3d c0 9a 61 3e
       -0.15308793 0.04047641 0.11401284 0.22031689
000230 43 93 29 3d b5 2d 95 bc 0a 5a fd 3d 7d e1 36 be
       0.041400205 -0.018210271 0.12370689 -0.17859454
000240 fe 01 e1 bd 53 56 21 be f8 a2 84 bd 36 18 f3 bc
       -0.10986708 -0.15755586 -0.06476396 -0.02967463
000250 2a 4a 03 be 26 8e 12 3e b9 bc 44 be 5f 45 c7 3d
       -0.1282126 0.14312038 -0.19212617 0.09730028
000260 5c 7e fc bd a4 b6 cb bd ec 87 e5 3d 24 5b 35 be
       -0.12328789 -0.09946945 0.11207566 -0.17710549
000270 77 70 21 be e1 a9 30 be 6d 2e 42 3e 50 86 1e 3e
       -0.15765558 -0.17252304 0.18963023 0.15480924
000280 82 02 20 be b4 39 25 3e 75 1f a4 bd bf 3e 07 3e
       -0.15625957 0.16135293 -0.080138125 0.1320753
000290 80 f4 9f 3d a8 f7 8e 3d 95 12 e8 bd 49 60 46 3e
       0.078103065 0.069808304 -0.11331669 0.19372667
0002a0 a1 66 62 be d1 22 11 3d 67 2e 2f be ad e8 30 3e
       -0.22109462 0.035433594 -0.17107545 0.17276259
0002b0 a9 e0 b3 bc 04 f1 70 3e e0 4e 23 be f9 dc a5 3d
       -0.021957712 0.2352944 -0.15948057 0.08098788
0002c0 6d 38 4e be cc ff 88 bd 2c 3e b8 bd df 1a 10 3e
       -0.20138712 -0.066894144 -0.08996233 0.1407275
0002d0 4d ce 0c be ca 39 30 be df 6e b0 bd 43 12 3b be
       -0.13750573 -0.17209545 -0.08614897 -0.18268685
0002e0 93 b5 bd 3d fe 0c b3 bd c8 82 18 be 56 6f 3e be
       0.09263148 -0.087427124 -0.14893639 -0.18597159
0002f0 f5 54 3b 3d 45 28 f9 bd a4 28 26 3e cb 0d fc bd
       0.04573532 -0.12165884 0.1622644 -0.12307318
000300 f5 75 78 3c 8c 33 ba bd 08 fe a3 bd 49 46 57 bd
       0.015164842 -0.09091863 -0.08007437 -0.052557264
000310 83 c0 69 be 37 4d 2d bd 57 71 3c 3e 6f 49 ab 3d
       -0.22827344 -0.042309966 0.1840261 0.08363616
000320 70 34 fd 3d 97 19 0f bd 29 cc e3 3d 68 b3 40 bd
       0.12363517 -0.034936514 0.11122925 -0.047046095
000330 b5 a2 25 be 01 a3 17 bd ac 94 5a 3e 65 6a f2 3d
       -0.16175349 -0.037020687 0.21345776 0.118366994
000340 f5 a0 b1 bd c3 8f 57 be f8 6f 2f 3e 76 6f 39 3e
       -0.08673278 -0.21050934 0.17132556 0.18108925
000350 a3 51 36 be 00 68 ab 3d 5d d5 13 be 2d e0 ca ba
       -0.1780458 0.08369446 -0.1443686 -0.0015478187
000360 3b 7e 4a 3e e2 3d a8 bd ec bc 1a be 3b 30 52 be
       0.19774716 -0.08214928 -0.1511113 -0.20526211
000370 1d 85 33 3e 0d 95 25 3e 5e bf 77 bd a9 cf f2 3c
       0.17531247 0.1617014 -0.060485236 0.029640036
000380 ea e6 df 3d bf 01 2c 3e 60 2a 40 be 5a ac 2f be
       0.10932715 0.16797541 -0.18766165 -0.1715559
000390 98 ad a4 bd 62 72 e0 3d 05 d2 5a be 18 fc 92 3d
       -0.08040923 0.10959317 -0.21369179 0.07176989
0003a0 9a ed dd bd f9 cf 46 be d7 85 0a be 49 c7 fa bd
       -0.108363345 -0.19415273 -0.13527618 -0.12245042
0003b0 eb 73 35 bd 80 8d 1a be b5 38 bc 3d fd 94 09 bd
       -0.0443 -0.1509304 0.091905035 -0.033589352
0003c0 8f 4f 97 bd d0 4f e7 3d bb 5f 5a 3d b8 37 8b bd
       -0.073882215 0.1129452 0.053313952 -0.06797737
0003d0 e2 6c 20 3e d0 6a 30 be 1c b5 09 3e af fb 67 be
       0.15666535 -0.17228246 0.13447994 -0.22654603
0003e0 d5 a7 15 be 7b fd 5c 3e 59 27 fd 3d 3e fd 3b 3e
       -0.14614804 0.2158107 0.123610206 0.18358323
0003f0 b0 7a f2 3d db 59 4b be 5f 95 b5 3d ce f9 e5 bd
       0.11839807 -0.19858496 0.08866381 -0.11229287

batchnorm2.weight f4 [69]
000000 00 00 80 3f 00 00 80 3f 00 00 80 3f 00 00 80 3f
       1.0 1.0 1.0 1.0
000010 00 00 80 3f 00 00 80 3f 00 00 80 3f 00 00 80 3f
       1.0 1.0 1.0 1.0
000020 00 00 80 3f 00 00 80 3f 00 00 80 3f 00 00 80 3f
       1.0 1.0 1.0 1.0
000030 00 00 80 3f 00 00 80 3f 00 00 80 3f 00 00 80 3f
       1.0 1.0 1.0 1.0
000040 00 00 80 3f 00 00 80 3f 00 00 80 3f 00 00 80 3f
       1.0 1.0 1.0 1.0
000050 00 00 80 3f 00 00 80 3f 00 00 80 3f 00 00 80 3f
       1.0 1.0 1.0 1.0
000060 00 00 80 3f 00 00 80 3f 00 00 80 3f 00 00 80 3f
       1.0 1.0 1.0 1.0
000070 00 00 80 3f 00 00 80 3f 00 00 80 3f 00 00 80 3f
       1.0 1.0 1.0 1.0
000080 00 00 80 3f 00 00 80 3f 00 00 80 3f 00 00 80 3f
       1.0 1.0 1.0 1.0
000090 00 00 80 3f 00 00 80 3f 00 00 80 3f 00 00 80 3f
       1.0 1.0 1.0 1.0
0000a0 00 00 80 3f 00 00 80 3f 00 00 80 3f 00 00 80 3f
       1.0 1.0 1.0 1.0
0000b0 00 00 80 3f 00 00 80 3f 00 00 80 3f 00 00 80 3f
       1.0 1.0 1.0 1.0
0000c0 00 00 80 3f 00 00 80 3f 00 00 80 3f 00 00 80 3f
       1.0 1.0 1.0 1.0
0000d0 00 00 80 3f 00 00 80 3f 00 00 80 3f 00 00 80 3f
       1.0 1.0 1.0 1.0
0000e0 00 00 80 3f 00 00 80 3f 00 00 80 3f 00 00 80 3f
       1.0 1.0 1.0 1.0
0000f0 00 00 80 3f 00 00 80 3f 00 00 80 3f 00 00 80 3f
       1.0 1.0 1.0 1.0
000100 00 00 80 3f 00 00 80 3f 00 00 80 3f 00 00 80 3f
       1.0 1.0 1.0 1.0
000110 00 00 80 3f
       1.0

batchnorm2.bias f4 [69]
000000 00 00 00 00 00 00 00 00 00 00 00 00 00 00 00 00
       0.0 0.0 0.0 0.0
000010 00 00 00 00 00 00 00 00 00 00 00 00 00 00 00 00
       0.0 0.0 0.0 0.0
000020 00 00 00 00 00 00 00 00 00 00 00 00 00 00 00 00
       0.0 0.0 0.0 0.0
000030 00 00 00 00 00 00 00 00 00 00 00 00 00 00 00 00
       0.0 0.0 0.0 0.0
000040 00 00 00 00 00 00 00 00 00 00 00 00 00 00 00 00
       0.0 0.0 0.0 0.0
000050 00 00 00 00 00 00 00 00 00 00 00 00 00 00 00 00
       0.0 0.0 0.0 0.0
000060 00 00 00 00 00 00 00 00 00 00 00 00 00 00 00 00
       0.0 0.0 0.0 0.0
000070 00 00 00 00 00 00 00 00 00 00 00 00 00 00 00 00
       0.0 0.0 0.0 0.0
000080 00 00 00 00 00 00 00 00 00 00 00 00 00 00 00 00
       0.0 0.0 0.0 0.0
000090 00 00 00 00 00 00 00 00 00 00 00 00 00 00 00 00
       0.0 0.0 0.0 0.0
0000a0 00 00 00 00 00 00 00 00 00 00 00 00 00 00 00 00
       0.0 0.0 0.0 0.0
0000b0 00 00 00 00 00 00 00 00 00 00 00 00 00 00 00 00
       0.0 0.0 0.0 0.0
0000c0 00 00 00 00 00 00 00 00 00 00 00 00 00 00 00 00
       0.0 0.0 0.0 0.0
0000d0 00 00 00 00 00 00 00 00 00 00 00 00 00 00 00 00
       0.0 0.0 0.0 0.0
0000e0 00 00 00 00 00 00 00 00 00 00 00 00 00 00 00 00
       0.0 0.0 0.0 0.0
0000f0 00 00 00 00 00 00 00 00 00 00 00 00 00 00 00 00
       0.0 0.0 0.0 0.0
000100 00 00 00 00 00 00 00 00 00 00 00 00 00 00 00 00
       0.0 0.0 0.0 0.0
000110 00 00 00 00
       0.0

batchnorm2.running_mean f4 [69]
000000 10 f9 df bf 60 36 de 40 2f 68 e1 40 76 2d e4 40
       -1.7497883 6.9441376 7.0439677 7.1305494
000010 3a e3 df bf 2f cc e5 40 80 28 df bf 86 c2 e4 40
       -1.7491219 7.1811748 -1.7434235 7.1487455
000020 9c 72 e8 40 54 69 f0 40 5a 40 e0 40 8a 7f dd 40
       7.2639904 7.5128574 7.0078554 6.9218187
000030 33 0e df bf 87 86 e0 40 4f 80 df bf 39 9b df bf
       -1.7426208 7.016422 -1.7461032 -1.7469245
000040 d3 70 df bf c9 52 df bf 79 ba df bf 79 48 df bf
       -1.7456306 -1.7447139 -1.7478782 -1.7443992
000050 21 7c df bf 47 ca e0 40 bc 37 df bf 28 02 e3 40
       -1.7459756 7.024692 -1.7438884 7.094013
000060 26 3f df bf 88 7c df bf 52 3b df bf 7c 1d d2 40
       -1.7441146 -1.7459879 -1.7439978 6.566099
000070 62 ec e7 40 a9 16 d9 40 6d cd df bf c8 82 df bf
       7.2476053 6.784016 -1.7484566 -1.7461786
000080 3c 94 df bf 03 98 df bf 88 9b df bf 2c 00 e5 40
       -1.7467113 -1.7468265 -1.7469339 7.156271
000090 76 5a df bf a7 0a e7 40 31 16 e5 40 69 a6 d5 40
       -1.7449481 7.2200503 7.158959 6.6765637
0000a0 75 b5 df bf 85 6c df bf c3 c4 df bf 43 c3 df bf
       -1.7477251 -1.7454993 -1.7481922 -1.7481464
0000b0 ad 31 df bf 1e 61 df bf 95 d7 dc 40 55 94 e2 40
       -1.7437035 -1.7451513 6.901316 7.080607
0000c0 37 b2 da 40 75 34 df bf a8 83 f0 40 d2 04 de 40
       6.8342547 -1.7437884 7.5160713 6.9380884
0000d0 00 85 df bf 39 10 da 40 52 45 de 40 97 97 df bf
       -1.7462463 6.8144803 6.945962 -1.7468137
0000e0 c3 0b dd 40 1d 9c df bf 66 85 df bf 25 eb de 40
       6.9076858 -1.7469517 -1.7462585 6.966204
0000f0 17 73 df bf fc 75 df bf ce 87 df bf 83 f4 e4 40
       -1.7456998 -1.7457881 -1.7463319 7.1548476
000100 5b 7a df bf 71 54 df bf 39 9f df bf 74 8b d7 40
       -1.7459215 -1.7447644 -1.7470466 6.735773
000110 dc b6 df bf
       -1.7477679

batchnorm2.running_var f4 [69]
000000 f0 3a 4a 38 3d b0 77 40 05 e3 a0 40 b6 d8 a5 40
       4.8215443e-05 3.8701317 5.0277123 5.182704
000010 8d bb 6f 38 50 6c 8c 40 cf 7a 2a 39 4c 68 9f 40
       5.715671e-05 4.3882217 0.00016258213 4.9814816
000020 86 aa b8 40 76 fc 61 40 93 3c b3 40 3a 58 95 40
       5.770816 3.531034 5.6011443 4.66702
000030 44 c4 43 39 24 f4 63 40 9b 8f cd 38 e9 97 cd 38
       0.00018669764 3.5617762 9.80191e-05 9.803457e-05
000040 3e ac 13 39 da 1e f3 38 6e 96 b1 38 cb 11 0a 39
       0.00014083178 0.000115928895 8.4680374e-05 0.00013167334
000050 7c 82 ee 38 fb 53 96 40 65 44 07 39 5a 88 9e 40
       0.00011373029 4.6977515 0.00012900082 4.9541445
000060 a8 8d 49 39 79 01 c3 38 3a 06 01 39 cb cb 50 40
       0.00019221625 9.298599e-05 0.00012304718 3.2624385
000070 e5 b0 a0 40 4a 57 57 40 4d 40 89 38 89 28 d4 38
       5.0215936 3.3647027 6.544646e-05 0.00010116498
000080 f7 c4 9e 38 c6 c2 bf 38 09 d0 b8 38 d3 95 b6 40
       7.570715e-05 9.143869e-05 8.812553e-05 5.705789
000090 65 d2 eb 38 c6 00 c4 40 00 5f eb 40 35 b9 7d 40
       0.00011244862 6.1250944 7.3553467 3.9644291
0000a0 b0 5d 90 38 26 c8 00 39 e3 8b af 38 45 e0 84 38
       6.883906e-05 0.00012281592 8.370706e-05 6.336024e-05
0000b0 d9 12 36 39 aa 8b d3 38 f6 f4 73 40 35 a4 ac 40
       0.00017363894 0.000100872785 3.8118262 5.395045
0000c0 a6 06 8d 40 10 c2 4d 39 1b c7 be 40 4c 77 99 40
       4.4070616 0.00019622617 5.961805 4.7958126
0000d0 f8 a2 a9 38 99 d1 a9 40 4b f2 70 40 6f e8 e6 38
       8.088903e-05 5.3068357 3.7647884 0.00011010549
0000e0 02 67 94 40 67 40 ae 38 fe 0c ec 38 a9 cb d9 40
       4.637574 8.3089624e-05 0.00011255777 6.806111
0000f0 99 d3 e4 38 9c de cf 38 07 c3 d4 38 87 fa 56 40
       0.000109113 9.9119934e-05 0.000101452744 3.359041
000100 3f 18 e8 38 bc f3 f5 38 f3 0b b6 38 80 0c 80 40
       0.00011067138 0.000117279094 8.680662e-05 4.001526
000110 01 7e 99 38
       7.3190786e-05

fc3.weight f4 [46, 69]
000000 c0 33 34 be f0 00 4a 3e d1 64 b6 3d d7 41 85 3e
       -0.17597866 0.1972692 0.08905948 0.26026794
000010 5d 3f 63 be f1 ab 8c 3e 34 17 e2 bd 9f 34 82 3e
       -0.2219214 0.2747493 -0.11039582 0.25430772
000020 7d 9b d6 3d 94 d2 86 3e 31 b4 70 3e d4 eb 83 3e
       0.10478876 0.26332533 0.23506238 0.2576586
000030 6b df 54 be c8 02 e5 3d d2 11 72 be 8a 22 8c be
       -0.20788352 0.11182171 -0.2363961 -0.273701
000040 93 d1 6e be b9 28 fb bd 24 ec e9 bd 1d d9 90 bd
       -0.23322134 -0.122636266 -0.114219934 -0.07072661
000050 ef aa 62 be ac aa 2b 3d 06 e7 36 be 4c 23 85 3e
       -0.22135518 0.041910812 -0.17861566 0.26003492
000060 d5 6a a9 bd 77 a0 05 be 01 8d 03 be c0 d6 74 3e
       -0.0827233 -0.13049494 -0.12846757 0.23910046
000070 38 47 83 3e c6 9e 80 3e 8b ca 78 be 38 e2 27 be
       0.25640273 0.25121135 -0.24296014 -0.1639489
000080 e0 ff b6 bd fc 4d ee bd 41 20 86 bd ac 23 0f 3e
       -0.08935523 -0.11635968 -0.06549121 0.13978451
000090 13 1f 80 bd 72 42 77 3e 17 c4 f0 3d c8 6d 33 3d
       -0.06255927 0.2414644 0.11756151 0.043805867
0000a0 cb fb 3c be 88 ea 18 be 3a 0b 64 be e7 a8 5e be
       -0.18455426 -0.14933217 -0.22269908 -0.21744119
0000b0 f7 c0 63 bd c4 38 8f bd ef d6 4a 3e 1d 07 3f 3e
       -0.055603947 -0.06993249 0.19808553 0.18655057
0000c0 48 a1 71 3d 61 b8 68 be 53 e4 2e 3e 31 a5 5b 3e
       0.0589917 -0.22726585 0.17079286 0.21449734
0000d0 86 53 77 be cb 66 c7 3d 13 8f 39 3e be 24 a1 bd
       -0.24152955 0.09736403 0.18120985 -0.07868336
0000e0 03 ab d7 3d 57 5b 8c be 0d c4 82 bd 32 ed b2 3d
       0.10530665 -0.27413437 -0.0638505 0.08736648
0000f0 1c 43 12 be 06 46 7f bd 22 1a 96 bd 9d 42 a2 3d
       -0.14283413 -0.06232264 -0.07329203 0.07922862
000100 6b 55 ca bd 23 bd f6 bd ff b7 33 be 02 43 5b 3e
       -0.098795734 -0.12047794 -0.17550658 0.2141228
000110 5a 80 80 be fe 8d 39 bd 71 89 08 bd 33 73 9f bd
       -0.25097924 -0.04530143 -0.0333342 -0.077856444
000120 91 22 0a 3c 59 30 d0 3d 86 08 ed 3c c6 cf 11 3d
       0.008431093 0.101654716 0.028934728 0.03559854
000130 3a 2e 9a 3d 61 d0 71 3d 81 c5 75 bb 19 52 89 bd
       0.07528348 0.059036616 -0.0037501755 -0.06705112
000140 fb b4 81 bd 48 40 d5 3d 27 78 03 be c8 23 28 3e
       -0.063333474 0.10412651 -0.12838803 0.164199
000150 f0 50 2f 3e 9c 74 b1 3d 2c 1e cc 3d 89 8e 38 bd
       0.17120719 0.086648196 0.09966692 -0.045057807
000160 fd 3c 90 3d 37 1b 27 3e 6b 18 21 be 06 f5 d8 3d
       0.070428826 0.16318975 -0.15731971 0.105936095
000170 50 b6 eb bd 7a 95 81 3d a6 ca 26 3e 07 ec 2d 3e
       -0.11509383 0.063273385 0.16288242 0.16984569
000180 35 fd cc bd 96 68 2b 3d 7c 0e 4e 3a 84 08 eb 3c
       -0.10009233 0.041847788 0.00078604347 0.028690584
000190 9c ef ae 3c fe 19 14 3e 87 38 22 3e f5 f3 a1 3d
       0.021354489 0.1446304 0.15841876 0.07907859
0001a0 9f 7c 07 be c7 89 be 3b 1f ba 57 3d a4 70 60 3d
       -0.13231133 0.005814764 0.052667733 0.054794922
0001b0 ef 4a e2 bd 3d 5e c5 3d a5 c0 99 3d c2 3a 94 3d
       -0.11049449 0.09637115 0.07507447 0.0723777
0001c0 51 e4 b9 3d a7 43 22 bd aa 7b ea 3c d3 e8 90 bd
       0.09076751 -0.0396153 0.02862342 -0.07075658
0001d0 8b 99 27 3d f7 e0 07 be 38 35 31 3e d7 bb 42 3d
       0.040917914 -0.13269411 0.17305458 0.04754242
0001e0 43 a7 9b bd 9d f1 97 bc 76 71 b0 bd 6b bc 01 3d
       -0.07600262 -0.018547827 -0.08615391 0.03167383
0001f0 08 6a a7 3d 32 58 0f be 86 3e b8 3c e3 d6 f0 3d
       0.08174521 -0.13998488 0.022490751 0.117597364
000200 e5 b3 29 3c 39 08 0b 3e b5 0b 7c 3d 96 75 0f 3e
       0.010357832 0.13577355 0.061534602 0.14009699
000210 0f 3e 1c be e6 50 89 3d ee 4d f5 3c 2a 5c 92 3d
       -0.15258048 0.06704883 0.029944386 0.07146485
000220 ec d7 e3 bd c3 68 77 bd 8e 4d 02 3e 77 f6 85 bd
       -0.11125168 -0.060402643 0.12724897 -0.0654115
000230 72 f8 0c bd 1c b0 8f 3d 78 fe 31 3d 1b ee fe 3c
       -0.034416623 0.07016012 0.04345557 0.031119397
000240 65 6d 0c 3e 7c ac 3a bd be c2 62 bd d6 17 f5 bd
       0.13713606 -0.04557465 -0.055361502 -0.11967437
000250 f6 bf d8 bd 4f fc eb 3b c9 8f 99 3c cc 56 ef 3c
       -0.10583489 0.0072017084 0.01874532 0.029216193
000260 f4 d0 f3 3d 82 64 2e 3d aa 31 da 3c 82 02 59 3d
       0.11905089 0.04257632 0.02663501 0.052980907
000270 81 a9 64 bc c5 b0 a9 3d 3d d1 3b 3e fa f4 18 be
       -0.0139564285 0.08285669 0.18341537 -0.14937201
000280 b6 eb 1e 3e c0 3a db bd ad e2 1f 3e 86 ef 0a 3e
       0.15519604 -0.10704565 0.15613814 0.13567933
000290 92 1e 8b 3d 6a dc e1 3b 10 be 30 3a 5f c3 e0 bd
       0.0679294 0.0068927305 0.00067421887 -0.10974764
0002a0 d6 a4 e8 3c 04 f6 39 3c a0 7f d7 3d d3 0b 1c 3e
       0.028398912 0.011350159 0.105223894 0.15238886
0002b0 bf 3c 10 3e bd 63 d2 bc 6c 01 32 3d d8 26 ff bd
       0.14085673 -0.025682325 0.043458387 -0.12458581
0002c0 2f a7 a5 3d 57 c8 fd bd 5a be 96 bb c5 78 09 bd
       0.08088528 -0.123917274 -0.0046003284 -0.03356244
0002d0 07 e7 14 bd 5a 19 d4 3d 77 34 bd 3d ac 1a c2 3d
       -0.036353137 0.10356398 0.092385225 0.094777435
0002e0 68 c0 65 bd 05 4d 40 3d b8 f9 3b bd 76 a2 1e 3e
       -0.056091696 0.04694845 -0.045892447 0.15491661
0002f0 00 bb ca bd e7 eb 97 bb 75 fc 0e 3e 51 2b bc bd
       -0.09898949 -0.004636276 0.13963492 -0.091879494
000300 b8 60 11 be c5 a2 00 3d fb b2 18 bc d2 ca 33 3e
       -0.14197052 0.03140523 -0.009320016 0.17557839
000310 d5 76 95 3d 5e 5d ae bd d4 2a 1d 3e 34 93 c5 3d
       0.07298056 -0.08513902 0.15348369 0.096472174
000320 66 ba ef 3c 05 d2 00 be c1 2d 1f bd 1c 65 9f 3d
       0.029263686 -0.12580116 -0.038861994 0.07782957
000330 40 48 5f 3d e1 e3 6a 3c 61 92 26 3d 22 0a 68 be
       0.054512262 0.014336557 0.04066694 -0.22660115
000340 c0 af 00 3e b2 40 1a 3d da bb 33 3d a6 f7 53 be
       0.12567043 0.037659355 0.04388032 -0.20699939
000350 ce 11 4d 3e 86 ae 0a be 12 03 05 3e d6 1c 43 3e
       0.20026323 -0.13543138 0.12989452 0.19053969
000360 b0 6a 46 3d aa f2 2a 3d fa b7 39 3e 62 df 0a bd
       0.04844159 0.04173533 0.18136588 -0.03390444
000370 ae 8f 44 3e 91 ae 27 be fe 8d 53 be f8 47 5e be
       0.19195434 -0.16375186 -0.20659634 -0.21707141
000380 d6 6c 85 be 27 af 84 be ce 47 f7 bd c8 fd 9c bd
       -0.26059598 -0.2591488 -0.120742425 -0.076655924
000390 a8 9c 7a 3e 5f 82 e7 bd 69 dd 87 3e ef e7 1a be
       0.24473822 -0.11304163 0.2653611 -0.15127538
0003a0 7a 9f 50 bd 7e 7d c2 bd fc ee 7f 3e aa 2d f1 3d
       -0.05093334 -0.09496592 0.24993509 0.11776288
0003b0 d6 3c cb 3d 07 83 82 be ee a0 23 be 89 8b 52 be
       0.09923713 -0.2549059 -0.15979359 -0.20561041
0003c0 47 81 6f be 2a 14 71 be 11 fe 36 3e 7b 19 72 be
       -0.23389159 -0.23542848 0.17870356 -0.23642533
0003d0 3a 2a c9 3d ed 57 1b 3d 50 c6 76 3e 5e 93 1c be
       0.09822507 0.03792565 0.24099088 -0.15290591
0003e0 bd 33 a2 bd ae 5d 5d be 63 57 43 bd e1 34 52 be
       -0.079200245 -0.21617767 -0.04769076 -0.20527984
0003f0 ca 9c 0c be 0e 2e 71 3e bd 22 14 3e 22 3a 43 3e
       -0.13731685 0.23552725 0.14466377 0.19065145

batchnorm3.weight f4 [69]
000000 00 00 80 3f 00 00 80 3f 00 00 80 3f 00 00 80 3f
       1.0 1.0 1.0 1.0
000010 00 00 80 3f 00 00 80 3f 00 00 80 3f 00 00 80 3f
       1.0 1.0 1.0 1.0
000020 00 00 80 3f 00 00 80 3f 00 00 80 3f 00 00 80 3f
       1.0 1.0 1.0 1.0
000030 00 00 80 3f 00 00 80 3f 00 00 80 3f 00 00 80 3f
       1.0 1.0 1.0 1.0
000040 00 00 80 3f 00 00 80 3f 00 00 80 3f 00 00 80 3f
       1.0 1.0 1.0 1.0
000050 00 00 80 3f 00 00 80 3f 00 00 80 3f 00 00 80 3f
       1.0 1.0 1.0 1.0
000060 00 00 80 3f 00 00 80 3f 00 00 80 3f 00 00 80 3f
       1.0 1.0 1.0 1.0
000070 00 00 80 3f 00 00 80 3f 00 00 80 3f 00 00 80 3f
       1.0 1.0 1.0 1.0
000080 00 00 80 3f 00 00 80 3f 00 00 80 3f 00 00 80 3f
       1.0 1.0 1.0 1.0
000090 00 00 80 3f 00 00 80 3f 00 00 80 3f 00 00 80 3f
       1.0 1.0 1.0 1.0
0000a0 00 00 80 3f 00 00 80 3f 00 00 80 3f 00 00 80 3f
       1.0 1.0 1.0 1.0
0000b0 00 00 80 3f 00 00 80 3f 00 00 80 3f 00 00 80 3f
       1.0 1.0 1.0 1.0
0000c0 00 00 80 3f 00 00 80 3f 00 00 80 3f 00 00 80 3f
       1.0 1.0 1.0 1.0
0000d0 00 00 80 3f 00 00 80 3f 00 00 80 3f 00 00 80 3f
       1.0 1.0 1.0 1.0
0000e0 00 00 80 3f 00 00 80 3f 00 00 80 3f 00 00 80 3f
       1.0 1.0 1.0 1.0
0000f0 00 00 80 3f 00 00 80 3f 00 00 80 3f 00 00 80 3f
       1.0 1.0 1.0 1.0
000100 00 00 80 3f 00 00 80 3f 00 00 80 3f 00 00 80 3f
       1.0 1.0 1.0 1.0
000110 00 00 80 3f
       1.0

batchnorm3.bias f4 [69]
000000 00 00 00 00 00 00 00 00 00 00 00 00 00 00 00 00
       0.0 0.0 0.0 0.0
000010 00 00 00 00 00 00 00 00 00 00 00 00 00 00 00 00
       0.0 0.0 0.0 0.0
000020 00 00 00 00 00 00 00 00 00 00 00 00 00 00 00 00
       0.0 0.0 0.0 0.0
000030 00 00 00 00 00 00 00 00 00 00 00 00 00 00 00 00
       0.0 0.0 0.0 0.0
000040 00 00 00 00 00 00 00 00 00 00 00 00 00 00 00 00
       0.0 0.0 0.0 0.0
000050 00 00 00 00 00 00 00 00 00 00 00 00 00 00 00 00
       0.0 0.0 0.0 0.0
000060 00 00 00 00 00 00 00 00 00 00 00 00 00 00 00 00
       0.0 0.0 0.0 0.0
000070 00 00 00 00 00 00 00 00 00 00 00 00 00 00 00 00
       0.0 0.0 0.0 0.0
000080 00 00 00 00 00 00 00 00 00 00 00 00 00 00 00 00
       0.0 0.0 0.0 0.0
000090 00 00 00 00 00 00 00 00 00 00 00 00 00 00 00 00
       0.0 0.0 0.0 0.0
0000a0 00 00 00 00 00 00 00 00 00 00 00 00 00 00 00 00
       0.0 0.0 0.0 0.0
0000b0 00 00 00 00 00 00 00 00 00 00 00 00 00 00 00 00
       0.0 0.0 0.0 0.0
0000c0 00 00 00 00 00 00 00 00 00 00 00 00 00 00 00 00
       0.0 0.0 0.0 0.0
0000d0 00 00 00 00 00 00 00 00 00 00 00 00 00 00 00 00
       0.0 0.0 0.0 0.0
0000e0 00 00 00 00 00 00 00 00 00 00 00 00 00 00 00 00
       0.0 0.0 0.0 0.0
0000f0 00 00 00 00 00 00 00 00 00 00 00 00 00 00 00 00
       0.0 0.0 0.0 0.0
000100 00 00 00 00 00 00 00 00 00 00 00 00 00 00 00 00
       0.0 0.0 0.0 0.0
000110 00 00 00 00
       0.0

batchnorm3.running_mean f4 [69]
000000 5a b5 46 42 97 07 e1 bf d9 07 e1 bf c6 a7 38 42
       49.6771 -1.7580441 -1.758052 46.16384
000010 dc 07 e1 bf f2 67 36 42 b1 07 e1 bf 08 07 e1 bf
       -1.7580523 45.60151 -1.7580472 -1.7580271
000020 9a 07 e1 bf 78 f0 3c 42 61 07 e1 bf 7b 07 e1 bf
       -1.7580445 47.234833 -1.7580377 -1.7580408
000030 50 42 42 42 11 fd 4c 42 86 07 e1 bf eb eb 41 42
       48.56476 51.247135 -1.7580421 48.48039
000040 1d 07 e1 bf 28 6a 3b 42 e7 07 e1 bf 34 07 e1 bf
       -1.7580296 46.85367 -1.7580537 -1.7580323
000050 20 d0 47 42 87 07 e1 bf e9 07 e1 bf a4 07 e1 bf
       49.953247 -1.7580422 -1.7580539 -1.7580457
000060 3b 7f 31 42 55 07 e1 bf c9 aa 4d 42 d7 06 e1 bf
       44.37425 -1.7580363 51.416782 -1.7580212
000070 9e 8e 36 42 a3 40 32 42 28 07 e1 bf 73 31 45 42
       45.639275 44.56312 -1.7580309 49.29829
000080 d0 07 e1 bf d2 40 30 42 7c 07 e1 bf aa de 3d 42
       -1.7580509 44.0633 -1.7580409 47.467445
000090 c6 07 e1 bf b2 07 e1 bf 8f be 3c 42 c2 58 40 42
       -1.7580497 -1.7580473 47.186092 48.086678
0000a0 20 cf 3c 42 f2 07 e1 bf 1c 07 e1 bf 48 d7 42 42
       47.20227 -1.758055 -1.7580295 48.710236
0000b0 5b 07 e1 bf 34 e8 35 42 ca 24 d3 3b d6 7c e5 bc
       -1.758037 45.47676 0.0064435946 -0.028013628
0000c0 43 16 dd bd e6 5f e8 bd 78 bb f7 bc 92 79 cf 3c
       -0.10795262 -0.11346416 -0.03024076 0.025326524
0000d0 63 35 96 bd bf da ff 3c 49 b9 d5 3c be aa 05 be
       -0.073344015 0.031232236 0.026089327 -0.13053414
0000e0 4d 50 bf bd 1a c2 76 3e b8 ea 03 3f ab 78 37 be
       -0.09341488 0.24097481 0.5153003 -0.17917125
0000f0 d3 ec a7 3d 10 2e a7 3d 5e 1c 6b ba 55 d3 ab 3d
       0.081994675 0.081630826 -0.00089687656 0.08389918
000100 26 a3 b4 3d 0f d9 2c bd 8c d4 34 be 8e 74 a8 3d
       0.088201806 -0.04219919 -0.17659205 0.08225356
000110 fd 0a bc 3d
       0.09181783
