output/weights20.pt (torch, 82708 bytes, 22 tensors)

fc1.weight f4 [138, 23]
0.04647396 0.0043653417 0.072890095 -0.085757196 0.17527033 0.017156664 -0.04629773 -0.13031597
0.009867084 0.037812628 -0.1627542 -0.08662099 -0.14587462 0.11916248 0.089020915 -0.15014473
0.1453653 -0.06549427 0.0036124517 -0.02463513 -0.061280046 0.086127855 0.115613416 0.035592835
-0.0069150557 0.14582682 0.17446978 0.1871344 -0.034006517 -0.009985443 0.13036738 -0.15527411
0.21879126 0.10500489 0.02570057 0.065452285 0.13801907 0.14493082 0.0018445407 -0.17856954
-0.13000879 0.008562518 -0.18602467 -0.13648544 -0.0047856662 0.021262765 -0.036723424 0.11392388
0.1967555 0.0630775 -0.11814493 -0.2471931 0.08159079 -0.18640733 -0.068419226 -0.119719215
0.21768141 -0.23623018 -0.2261774 0.13826573 0.16970664 0.16400233 0.14731732 0.06494626
0.08566937 -0.20669724 -0.22070648 -0.031880245 0.1280583 0.11264614 -0.00033116035 0.12884037
-0.052148283 0.12297733 -0.00891817 -0.099996164 0.015153475 0.10053436 0.11212902 0.08448353
0.20478572 0.061210815 -0.1451692 0.12601295 0.066547364 -0.003259881 -0.24291886 -0.01355375
0.093697846 0.14229919 0.10841064 0.05758719 0.062469576 0.13751575 -0.042719997 -0.0471846
0.06832741 -0.22813235 -0.05942317 -0.09398072 -0.14758351 -0.06686887 0.22964782 0.0413898
0.11436041 -0.006780374 0.21493846 -0.14136519 -0.04826898 0.07077588 0.13461392 0.1147005
0.18614583 0.051184956 -0.032181326 -0.058061212 -0.046681024 -0.1692524 -0.13178979 -0.19611955
-0.022656217 0.024690032 0.20251925 0.060446706 -0.14762273 0.007022815 0.051391605 0.031807195
0.2004863 0.015571082 -0.12604223 0.20651515 -0.0016258905 -0.074170426 0.04408243 0.03737822
-0.18575065 0.07438529 0.15338442 0.11961104 -0.1226853 -0.13633963 0.039862305 0.14381777
0.02447884 -0.122858554 0.013935722 0.1626467 -0.09065915 -0.12592402 -0.031950347 0.14290927
0.14301571 -0.010048919 0.044416178 0.025481205 -0.010410815 0.06432821 -0.16976108 -0.09673451
0.041674126 -0.012212956 -0.093681626 -0.10936588 -0.056069218 -0.0045810435 0.18536432 -0.08909435
0.16608076 -0.03268167 -0.015141779 -0.083758466 0.043523144 0.16276093 0.14096534 0.15835673
-0.0035003591 0.020319892 -0.23577282 0.084236145 0.04691857 0.14773093 -0.15477625 -0.052663293
-0.12945655 -0.063858666 0.07158585 -0.15884341 -0.041263077 0.19039643 -0.17396866 -0.025472846
0.053867247 0.078403026 -0.18985818 -0.015094866 0.08495813 0.18101886 0.013673821 0.085044414
0.09226645 -0.08770243 -0.09914396 -0.023883235 0.054216683 0.013146401 0.12476424 -0.07928613
-0.0076349773 0.10326751 -0.19609219 0.07331925 0.18596824 0.053994678 -0.0041216835 -0.053117584
-0.07250065 0.015276804 -0.025185531 0.15842454 0.05041431 0.104117386 -0.01744396 0.036514368
-0.124071 -0.021455599 -0.16024712 0.20596175 -0.11234894 -0.039959636 -0.013033234 0.10837112
-0.09468638 0.14095803 0.20128873 0.17407587 -0.0749601 0.12282324 -0.027214978 -0.021386668
-0.08871561 0.1036426 -0.10092328 -0.11374002 0.09621485 0.10099992 -0.074886866 -0.16326818
-0.20557518 0.12453909 -0.14629325 -0.004411108 -0.0025757805 -0.009579971 0.16468269 -0.056520443
00000000: 7b5b 3e3d 240b 8f3b 6747 953d 78a1 afbd
00000010: 117a 333e 228c 8c3c b0a2 3dbd 8d71 05be
00000020: 8da9 213c 6ae1 1a3d 09a9 26be 5866 b1bd
00000030: 2860 15be 750b f43d 9950 b63d 8abf 19be
00000040: a4da 143e dc21 86bd e2be 6c3b 9dcf c9bc
00000050: c900 7bbd cd63 b03d bac6 ec3d cbc9 113d
00000060: b197 e2bb a053 153e 35a8 323e 29a0 3f3e
00000070: 6b4a 0bbd fc99 23bc 077f 053e 2d00 1fbe
00000080: d10a 603e ce0c d73d 008a d23c d90b 863d
00000090: df54 0d3e bf68 143e 84c4 f13a efda 36be
000000a0: 0621 05be ce49 0c3c 407d 3ebe d7c2 0bbe
000000b0: 14d1 9cbb 402f ae3c 4d6b 16bd ec50 e93d
000000c0: 467a 493e c72e 813d f8f5 f1bd 3020 7dbe
000000d0: 1219 a73d 90e1 3ebe 611f 8cbd 592f f5bd
000000e0: e0e7 5e3e 53e6 71be 0c9b 67be 8895 0d3e
000000f0: 94c7 2d3e 3af0 273e 5ada 163e 8b02 853d
00000100: 6c73 af3d 71a8 53be e100 62be dc94 02bd
00000110: b721 033e 05b3 e63d 979f adb9 bbee 033e
00000120: 7099 55bd 8adb fb3d 841d 12bc caca ccbd
00000130: 4846 783c f5e4 cd3d e6a3 e53d b305 ad3d
00000140: 59b3 513e 31b8 7a3d 3ca7 14be 8a09 013e
00000150: fc49 883d baa3 55bb b9bf 78be 8c10 5ebc
00000160: a8e4 bf3d e1b6 113e 6606 de3d 8ce0 6b3d
00000170: 19e0 7f3d eed0 0c3e 2afb 2ebd a444 41bd
00000180: 3eef 8b3d 879b 69be b665 73bd f778 c0bd
00000190: 2220 17be 8cf2 88bd cc28 6b3e 5a88 293d
000001a0: ca35 ea3d e62d debb d418 5c3e 09c2 10be
000001b0: b2b5 45bd f2f2 903d 3bd8 093e 19e8 ea3d
000001c0: 039d 3e3e 51a7 513d 91d0 03bd 98d1 6dbd
000001d0: 9a34 3fbd 8050 2dbe e7f3 06be 90d3 48be
000001e0: 8899 b9bc c042 ca3c 3561 4f3e f796 773d
000001f0: 6a2a 17be a41f e63b 0180 523d 4348 023d
00000200: 484c 4d3e da1d 7f3c 3711 01be b578 533e
00000210: d51b d5ba aae6 97bd c78f 343d e819 193d
00000220: 6b35 3ebe 5157 983d ce10 1d3e a2f6 f43d
00000230: 6e42 fbbd 9e9c 0bbe a846 233d f744 133e
00000240: d987 c83c 449d fbbd a852 643c db8c 263e
00000250: 81ab b9bd 3af2 00be 5ede 02bd cf56 123e
00000260: b672 123e 39a4 24bc bded 353d f6bd d03c
00000270: 1f92 2abc 82be 833d d9d5 2dbe be1c c6bd
00000280: 7db2 2a3d da18 48bc 27dc bfbd 38fb dfbd
00000290: d6a8 65bd 941c 96bb 25d0 3d3e 1977 b6bd
000002a0: 1311 2a3e 37dd 05bd 3915 78bc 8f89 abbd
000002b0: 5345 323d cdaa 263e 3859 103e 4428 223e
000002c0: 4866 65bb e775 a63c 6e6e 71be 0084 ac3d
000002d0: b02d 403d c746 173e aa7d 1ebe 77b5 57bd
000002e0: 4290 04be 55c8 82bd 9a9b 923d d9a7 22be
000002f0: 7903 29bd 48f7 423e d724 32be 6eac d0bc
00000300: e7a3 5c3d c491 a03d 2f6a 42be 7550 77bc
00000310: 87fe ad3d 025d 393e 2a08 603c c42b ae3d
00000320: 31f6 bc3d 559d b3bd fd0b cbbd c6a6 c3bc
00000330: 5012 5e3d 0164 573c 6584 ff3d c460 a2bd
00000340: d52e fabb eb7d d33d 64cc 48be 6728 963d
00000350: 756e 3e3e 8629 5d3d 300f 87bb d391 59bd
00000360: 397b 94bd 8f4b 7a3c e351 cebc 0b3a 223e
00000370: 3c7f 4e3d 7f3b d53d a3e6 8ebc 1790 153d
00000380: f018 febd a7c3 afbc d217 24be a3e7 523e
00000390: 3317 e6bd b7ac 23bd 5889 55bc aef1 dd3d
000003a0: efea c1bd 4d57 103e a21e 4e3e f240 323e
000003b0: ae84 99bd c08a fb3d f2f1 debc 1833 afbc
000003c0: 88b0 b5bd 9242 d43d ddb0 cebd 87f0 e8bd
000003d0: 4b0c c53d 0cd9 ce3d 495e 99bd c62f 27be
000003e0: 4d82 52be 5a0e ff3d e6cd 15be 0e8b 90bb
000003f0: 6dce 28bb 50f5 1cbc 94a2 283e fb81 67bd

fc1.bias f4 [138]
0.30228838 0.26708442 0.11963454 -0.13386944 0.31912565 -0.34653163 -0.1860412 -0.1854783
-0.12616822 -0.10636331 -0.17628352 0.2782419 -0.13701545 0.3368028 -0.29830188 -0.2022214
0.18352517 -0.13893566 -0.14396317 -0.18548425 0.33200607 0.30550024 -0.3316535 0.13869777
-0.22616248 0.1613394 0.28725657 0.27974164 -0.123647444 0.3031799 -0.36451 0.26117572
-0.13145931 0.29684243 -0.08330754 0.3141944 -0.21139814 0.20603698 -0.19135761 -0.1196062
-0.2035246 0.34271803 -0.3147727 -0.13461146 -0.07662268 -0.13443418 0.23873346 -0.25676796
-0.19161335 -0.24895711 0.21767083 -0.28819126 0.19466962 -0.1367717 0.112965435 -0.19089006
-0.34764016 -0.28817585 -0.32958117 -0.22921275 0.35075283 0.27069747 0.2541574 -0.10313735
0.30991733 -0.111388475 -0.12556247 -0.16076072 0.33705848 0.33686742 -0.13867877 -0.30014548
0.264921 0.31972802 -0.35794175 0.28094554 -0.2976967 -0.06496215 0.25218764 -0.28336328
-0.33541238 -0.35789204 0.2433683 0.2795653 -0.16208267 0.25356212 0.27156302 0.34293014
-0.29156587 -0.100295246 -0.2093373 0.16661076 -0.2243357 0.22030956 -0.29875273 -0.29130998
-0.35932094 -0.10074725 -0.14097854 -0.2521567 0.3411832 -0.04157571 -0.13873103 0.34225035
0.30456775 -0.27282658 0.33564344 -0.16296107 0.15359654 -0.1802363 -0.27236915 0.34898394
0.2090087 0.2549076 0.16981778 -0.36629984 0.28677133 -0.24859998 -0.3411471 -0.25899664
-0.2394557 -0.27271396 -0.16039094 -0.18993177 -0.31091082 0.20814145 -0.12720715 0.25235543
0.35573927 -0.20243447 -0.28886032 0.23099768 -0.33111644 -0.30118775 -0.35102743 0.18407243
0.20763353 -0.26821133
00000000: 8bc5 9a3e 4abf 883e f402 f53d 1215 09be
00000010: 7064 a33e 986c b1be 9681 3ebe 06ee 3dbe
00000020: 3e32 01be 02d5 d9bd ab83 34be b975 8e3e
00000030: c74d 0cbe 6b71 ac3e 06bb 98be 2013 4fbe
00000040: 06ee 3b3e 2645 0ebe 156b 13be 95ef 3dbe
00000050: b3fc a93e 876a 9c3e 7dce a9be ca06 0e3e
00000060: 2397 67be 2836 253e 4b13 933e 4c3a 8f3e
00000070: df3a fdbd 653a 9b3e 0ea1 babe d3b8 853e
00000080: 459d 06be bbfb 973e 259d aabd 17de a03e
00000090: c178 58be 5cfb 523e 40f3 43be 18f4 f4bd
000000a0: c168 50be bd78 af3e e329 a1be 96d7 09be
000000b0: 5aec 9cbd 1da9 09be 8b76 743e 1777 83be
000000c0: 4a36 44be 9dee 7ebe 1ae5 5e3e ce8d 93be
000000d0: 7957 473e e10d 0cbe 6c5a e73d af78 43be
000000e0: e4fd b1be c98b 93be ddbe a8be bfb6 6abe
000000f0: e095 b33e dc98 8a3e eb20 823e ad39 d3bd
00000100: 7cad 9e3e a41f e4bd 7393 00be 759e 24be
00000110: ee92 ac3e e379 ac3e cf01 0ebe abac 99be
00000120: baa3 873e 64b3 a33e 2444 b7be 18d8 8f3e
00000130: b46b 98be e00a 85bd bd1e 813e fe14 91be
00000140: 2cbb abbe a03d b7be 8a35 793e 2f23 8f3e
00000150: 00f9 25be e5d2 813e 4f0a 8b3e 8a94 af3e
00000160: 1f48 95be 9867 cdbd 845c 56be 039c 2a3e
00000170: 42b8 65be d498 613e 1ef6 98be 9526 95be
00000180: eaf8 b7be 9354 cebd ae5c 10be af1a 81be
00000190: 90af ae3e 4b4b 2abd 820f 0ebe 703b af3e
000001a0: 4ef0 9b3e edaf 8bbe 75d9 ab3e 44df 26be
000001b0: 6948 1d3e dd8f 38be f873 8bbe 06ae b23e
000001c0: 6006 563e 4083 823e b6e4 2d3e a78b bbbe
000001d0: b1d3 923e fe90 7ebe d5aa aebe 359b 84be
000001e0: e033 75be 2aa1 8bbe 863d 24be 797d 42be
000001f0: b42f 9fbe 0823 553e 9742 02be bb34 813e
00000200: 7523 b63e fb4a 4fbe 80e5 93be a88a 6c3e
00000210: 1888 a9be 4835 9abe deb9 b3be 7c7d 3c3e
00000220: e29d 543e ff52 89be

batchnorm1.weight f4 [138]
1.0 1.0 1.0 1.0 1.0 1.0 1.0 1.0
1.0 1.0 1.0 1.0 1.0 1.0 1.0 1.0
1.0 1.0 1.0 1.0 1.0 1.0 1.0 1.0
1.0 1.0 1.0 1.0 1.0 1.0 1.0 1.0
1.0 1.0 1.0 1.0 1.0 1.0 1.0 1.0
1.0 1.0 1.0 1.0 1.0 1.0 1.0 1.0
1.0 1.0 1.0 1.0 1.0 1.0 1.0 1.0
1.0 1.0 1.0 1.0 1.0 1.0 1.0 1.0
1.0 1.0 1.0 1.0 1.0 1.0 1.0 1.0
1.0 1.0 1.0 1.0 1.0 1.0 1.0 1.0
1.0 1.0 1.0 1.0 1.0 1.0 1.0 1.0
1.0 1.0 1.0 1.0 1.0 1.0 1.0 1.0
1.0 1.0 1.0 1.0 1.0 1.0 1.0 1.0
1.0 1.0 1.0 1.0 1.0 1.0 1.0 1.0
1.0 1.0 1.0 1.0 1.0 1.0 1.0 1.0
1.0 1.0 1.0 1.0 1.0 1.0 1.0 1.0
1.0 1.0 1.0 1.0 1.0 1.0 1.0 1.0
1.0 1.0
00000000: 0000 803f 0000 803f 0000 803f 0000 803f
00000010: 0000 803f 0000 803f 0000 803f 0000 803f
00000020: 0000 803f 0000 803f 0000 803f 0000 803f
00000030: 0000 803f 0000 803f 0000 803f 0000 803f
00000040: 0000 803f 0000 803f 0000 803f 0000 803f
00000050: 0000 803f 0000 803f 0000 803f 0000 803f
00000060: 0000 803f 0000 803f 0000 803f 0000 803f
00000070: 0000 803f 0000 803f 0000 803f 0000 803f
00000080: 0000 803f 0000 803f 0000 803f 0000 803f
00000090: 0000 803f 0000 803f 0000 803f 0000 803f
000000a0: 0000 803f 0000 803f 0000 803f 0000 803f
000000b0: 0000 803f 0000 803f 0000 803f 0000 803f
000000c0: 0000 803f 0000 803f 0000 803f 0000 803f
000000d0: 0000 803f 0000 803f 0000 803f 0000 803f
000000e0: 0000 803f 0000 803f 0000 803f 0000 803f
000000f0: 0000 803f 0000 803f 0000 803f 0000 803f
00000100: 0000 803f 0000 803f 0000 803f 0000 803f
00000110: 0000 803f 0000 803f 0000 803f 0000 803f
00000120: 0000 803f 0000 803f 0000 803f 0000 803f
00000130: 0000 803f 0000 803f 0000 803f 0000 803f
00000140: 0000 803f 0000 803f 0000 803f 0000 803f
00000150: 0000 803f 0000 803f 0000 803f 0000 803f
00000160: 0000 803f 0000 803f 0000 803f 0000 803f
00000170: 0000 803f 0000 803f 0000 803f 0000 803f
00000180: 0000 803f 0000 803f 0000 803f 0000 803f
00000190: 0000 803f 0000 803f 0000 803f 0000 803f
000001a0: 0000 803f 0000 803f 0000 803f 0000 803f
000001b0: 0000 803f 0000 803f 0000 803f 0000 803f
000001c0: 0000 803f 0000 803f 0000 803f 0000 803f
000001d0: 0000 803f 0000 803f 0000 803f 0000 803f
000001e0: 0000 803f 0000 803f 0000 803f 0000 803f
000001f0: 0000 803f 0000 803f 0000 803f 0000 803f
00000200: 0000 803f 0000 803f 0000 803f 0000 803f
00000210: 0000 803f 0000 803f 0000 803f 0000 803f
00000220: 0000 803f 0000 803f

batchnorm1.bias f4 [138]
0.0 0.0 0.0 0.0 0.0 0.0 0.0 0.0
0.0 0.0 0.0 0.0 0.0 0.0 0.0 0.0
0.0 0.0 0.0 0.0 0.0 0.0 0.0 0.0
0.0 0.0 0.0 0.0 0.0 0.0 0.0 0.0
0.0 0.0 0.0 0.0 0.0 0.0 0.0 0.0
0.0 0.0 0.0 0.0 0.0 0.0 0.0 0.0
0.0 0.0 0.0 0.0 0.0 0.0 0.0 0.0
0.0 0.0 0.0 0.0 0.0 0.0 0.0 0.0
0.0 0.0 0.0 0.0 0.0 0.0 0.0 0.0
0.0 0.0 0.0 0.0 0.0 0.0 0.0 0.0
0.0 0.0 0.0 0.0 0.0 0.0 0.0 0.0
0.0 0.0 0.0 0.0 0.0 0.0 0.0 0.0
0.0 0.0 0.0 0.0 0.0 0.0 0.0 0.0
0.0 0.0 0.0 0.0 0.0 0.0 0.0 0.0
0.0 0.0 0.0 0.0 0.0 0.0 0.0 0.0
0.0 0.0 0.0 0.0 0.0 0.0 0.0 0.0
0.0 0.0 0.0 0.0 0.0 0.0 0.0 0.0
0.0 0.0
00000000: 0000 0000 0000 0000 0000 0000 0000 0000
00000010: 0000 0000 0000 0000 0000 0000 0000 0000
00000020: 0000 0000 0000 0000 0000 0000 0000 0000
00000030: 0000 0000 0000 0000 0000 0000 0000 0000
00000040: 0000 0000 0000 0000 0000 0000 0000 0000
00000050: 0000 0000 0000 0000 0000 0000 0000 0000
00000060: 0000 0000 0000 0000 0000 0000 0000 0000
00000070: 0000 0000 0000 0000 0000 0000 0000 0000
00000080: 0000 0000 0000 0000 0000 0000 0000 0000
00000090: 0000 0000 0000 0000 0000 0000 0000 0000
000000a0: 0000 0000 0000 0000 0000 0000 0000 0000
000000b0: 0000 0000 0000 0000 0000 0000 0000 0000
000000c0: 0000 0000 0000 0000 0000 0000 0000 0000
000000d0: 0000 0000 0000 0000 0000 0000 0000 0000
000000e0: 0000 0000 0000 0000 0000 0000 0000 0000
000000f0: 0000 0000 0000 0000 0000 0000 0000 0000
00000100: 0000 0000 0000 0000 0000 0000 0000 0000
00000110: 0000 0000 0000 0000 0000 0000 0000 0000
00000120: 0000 0000 0000 0000 0000 0000 0000 0000
00000130: 0000 0000 0000 0000 0000 0000 0000 0000
00000140: 0000 0000 0000 0000 0000 0000 0000 0000
00000150: 0000 0000 0000 0000 0000 0000 0000 0000
00000160: 0000 0000 0000 0000 0000 0000 0000 0000
00000170: 0000 0000 0000 0000 0000 0000 0000 0000
00000180: 0000 0000 0000 0000 0000 0000 0000 0000
00000190: 0000 0000 0000 0000 0000 0000 0000 0000
000001a0: 0000 0000 0000 0000 0000 0000 0000 0000
000001b0: 0000 0000 0000 0000 0000 0000 0000 0000
000001c0: 0000 0000 0000 0000 0000 0000 0000 0000
000001d0: 0000 0000 0000 0000 0000 0000 0000 0000
000001e0: 0000 0000 0000 0000 0000 0000 0000 0000
000001f0: 0000 0000 0000 0000 0000 0000 0000 0000
00000200: 0000 0000 0000 0000 0000 0000 0000 0000
00000210: 0000 0000 0000 0000 0000 0000 0000 0000
00000220: 0000 0000 0000 0000

batchnorm1.running_mean f4 [138]
0.3785995 0.22858694 0.2966355 -0.32193103 0.28749847 -0.54830194 -0.19165923 -0.34450316
-0.22242063 -0.22368975 -0.26826388 0.32549682 -0.39428324 0.402033 -0.5163923 -0.2647405
0.32859972 -0.30351135 -0.17430966 -0.36516318 0.33101207 0.38514394 -0.42875844 0.2616075
-0.34757844 0.45993146 0.30856606 0.27012342 -0.33803102 0.3983128 -0.5517962 0.3549942
-0.2758829 0.30609524 -0.29083312 0.30996957 -0.43328062 0.30439332 -0.2496236 -0.29266226
-0.20413494 0.38543802 -0.5672817 -0.23798278 -0.22631456 -0.28476843 0.8826445 -0.46455523
-0.36177698 -0.3377139 0.27975753 -0.49914387 0.37038139 -0.34266394 0.16949576 -0.21466497
-0.508375 -0.45307255 -0.43924814 -0.42787215 0.4916265 0.43651623 0.37818438 -0.20481464
0.7840097 -0.21520431 -0.2332455 -0.3084441 0.3774218 0.39297113 -0.29197192 -0.40973482
0.3274484 0.5000616 -0.53913003 0.3984029 -0.41688251 -0.2055416 0.2979856 -0.4234001
-0.5979853 -0.5960797 0.24366498 0.2489834 -0.17684716 0.36281544 0.30070734 0.43074575
-0.49531585 -0.27669603 -0.36522686 0.4906684 -0.43894055 0.31793955 -0.479784 -0.49336424
-0.5150589 -0.23895384 -0.3770804 -0.44781175 0.44631895 -0.2230604 -0.40084225 0.45041943
0.39508924 -0.45555192 0.60341406 -0.2907004 0.27925962 -0.2779696 -0.45103627 0.43002465
0.59491426 0.34243575 0.2522802 -0.5357546 0.35907683 -0.39502403 -0.5771271 -0.33355775
-0.31715485 -0.474473 -0.24328904 -0.323439 -0.352416 0.30839044 -0.30899033 0.3073573
0.35544753 -0.4237842 -0.43988597 0.2665568 -0.5454371 -0.40483525 -0.46464124 0.29868978
0.27109015 -0.519271
00000000: cbd7 c13e b212 6a3e 9ce0 973e 25d4 a4be
00000010: 0033 933e 845d 0cbf 5142 44be b862 b0be
00000020: 3cc2 63be ed0e 65be e259 89be 85a7 a63e
00000030: 7edf c9be 45d7 cd3e 4932 04bf 118c 87be
00000040: 393e a83e d765 9bbe 3b7e 32be abf6 babe
00000050: 6a7a a93e 9631 c53e 3a86 dbbe 6bf1 853e
00000060: cdf5 b1be 237c eb3e 5ffc 9d3e 9e4d 8a3e
00000070: 6712 adbe a8ef cb3e 8442 0dbf cdc1 b53e
00000080: 8640 8dbe 84b8 9c3e 14e8 94be 55b4 9e3e
00000090: f5d6 ddbe 71d9 9b3e 549d 7fbe d4d7 95be
000000a0: c008 51be 2258 c53e 6039 11bf c2b1 73be
000000b0: 01bf 67be 2bcd 91be fdf4 613f 2fda edbe
000000c0: d53a b9be d6e8 acbe 613c 8f3e c98f ffbe
000000d0: a1a2 bd3e a671 afbe 4c90 2d3e 22d1 5bbe
000000e0: dd24 02bf 20f9 e7be 22e5 e0be 0f12 dbbe
000000f0: 78b6 fb3e 0e7f df3e 62a1 c13e eeba 51be
00000100: dcb4 483f 855e 5cbe e9d7 6ebe 63ec 9dbe
00000110: 6e3d c13e 8333 c93e 587d 95be c3c8 d1be
00000120: 51a7 a73e 0904 003f 6d04 0abf 77fb cb3e
00000130: a071 d5be 7f79 52be 9291 983e e6c7 d8be
00000140: 9115 19bf ae98 18bf 5083 793e 81f5 7e3e
00000150: 6c17 35be f2c2 b93e 50f6 993e b58a dc3e
00000160: 0a9a fdbe 1aab 8dbe 04ff babe e338 fb3e
00000170: d1bc e0be f9c8 a23e 40a6 f5be 3d9a fcbe
00000180: e6da 03bf 51b0 74be af10 c1be 9547 e5be
00000190: eb83 e43e f269 64be 323b cdbe 609d e63e
000001a0: 2349 ca3e 1a3e e9be 5879 1a3f afd6 94be
000001b0: 1efb 8e3e 0852 8ebe 3aee e6be 312c dc3e
000001c0: 4d4c 183f bd53 af3e df2a 813e 3727 09bf
000001d0: ebd8 b73e 9740 cabe 9abe 13bf 15c8 aabe
000001e0: 1f62 a2be 20ee f2be c320 79be cc99 a5be
000001f0: df6f b4be 5ae5 9d3e fb33 9ebe f05d 9d3e
00000200: 38fd b53e 3efa d8be bc38 e1be 227a 883e
00000210: c4a1 0bbf 9146 cfbe 75e5 edbe deed 983e
00000220: 54cc 8a3e f2ee 04bf

batchnorm1.running_var f4 [138]
0.12116027 0.32695526 0.22464842 0.33645225 0.1058623 0.11842258 0.23979913 0.28253314
0.32018468 0.38385445 0.3456234 0.06767276 0.2885923 0.10876429 0.095275834 0.2936954
0.16253334 0.321451 0.24726494 0.21771537 1.2869148 0.07621527 0.09196264 1.3713588
0.23139241 1.7754525 0.86680037 0.929278 0.29899523 0.20707352 0.027598789 0.109381616
0.36750013 0.7157774 0.33110312 0.04312595 0.1900677 1.409813 0.20118305 0.27228114
0.22672124 0.054349072 0.11121288 0.33638906 0.3960496 0.43138275 5.395444 0.19358577
0.22592807 0.1982011 1.3524847 0.08307575 2.2925296 0.27263257 0.5844411 0.2014614
0.03967987 0.18394084 0.06589749 0.28155285 0.1753672 0.15642817 0.17265977 0.30483782
4.116088 0.37631816 0.472143 0.25662303 0.101637006 0.103898875 0.29784918 0.17165898
0.24271165 3.5296493 0.0625791 0.9343465 0.2061123 0.62676597 0.039222877 0.09468485
0.06273415 0.07737746 0.10602896 1.4935358 0.27595043 0.12055114 0.05179657 2.2886782
0.12575318 0.31384778 0.19277734 4.4935975 0.16902785 0.21622738 0.12583105 0.14170139
0.14065324 0.3305969 0.26127708 0.16384244 0.15135844 0.39639065 0.290655 0.08091496
0.07541494 0.062891126 2.4731116 0.30673566 0.12474994 0.1752872 0.15830553 0.074500576
4.6213164 0.09547579 0.13344051 0.12635183 0.15377122 0.14816004 0.1282016 0.11060326
0.24909621 0.15052834 0.2874468 0.36142462 0.14791372 0.08121457 0.28553942 0.1529165
0.048940282 0.21790433 0.08439018 0.12550443 0.05146369 0.05992232 0.1413389 0.1335985
0.28921956 0.1063677
00000000: e022 f83d ae66 a73e 3c0a 663e 7843 ac3e
00000010: 55ce d83d 8a87 f23d e78d 753e 2fa8 903e
00000020: 3fef a33e 9288 c43e 8df5 b03e 0498 8a3d
00000030: 5fc2 933e d0bf de3d fa1f c33d 3e5f 963e
00000040: 246f 263e 3a95 a43e 0533 7d3e c7f0 5e3e
00000050: a0b9 a43f c016 9c3d e956 bc3d af88 af3f
00000060: 22f2 6c3e 0742 e33f a1e6 5d3f 2ae5 6d3f
00000070: e715 993e 150b 543e db16 e23c 7803 e03d
00000080: fa28 bc3e 303d 373f 5986 a93e d6a4 303d
00000090: 1ba1 423e c174 b43f ee02 4e3e 6f68 8b3e
000000a0: 9d29 683e 229d 5e3d 94c3 e33d 303b ac3e
000000b0: 03c7 ca3e 33de dc3e 7aa7 ac40 593b 463e
000000c0: b059 673e 3bf5 4a3e 381e ad3f 9e23 aa3d
000000d0: ceb8 1240 7f96 8b3e ef9d 153f e64b 4e3e
000000e0: 5c87 223d fd5a 3c3e 43f5 863d b227 903e
000000f0: 7693 333e b52e 203e b9cd 303e b413 9c3e
00000100: feb6 8340 c6ac c03e babc f13e 1864 833e
00000110: 1027 d03d efc8 d43d b07f 983e 5fc7 2f3e
00000120: 6789 783e c6e5 6140 7929 803d 5531 6f3f
00000130: 1a0f 533e bc73 203f 2ba8 203d 21ea c13d
00000140: c37a 803d 1378 9e3d b625 d93d 2e2c bf3f
00000150: 6049 8d3e 84e3 f63d a428 543d b479 1240
00000160: 71c5 003e a8b0 a03e 6c67 453e 8dcb 8f40
00000170: a315 2d3e b66a 5d3e dbd9 003e 2b1a 113e
00000180: 6707 103e ff43 a93e 1cc6 853e 50c6 273e
00000190: b5fd 1a3e b7f3 ca3e bbd0 943e beb6 a53d
000001a0: 2673 9a3d 10cd 803d 7647 1e40 750c 9d3e
000001b0: e67c ff3d 7d7e 333e d81a 223e c293 983d
000001c0: d3e1 9340 d088 c33d a1a4 083e 6062 013e
000001d0: 3476 1d3e 44b7 173e 4847 033e f683 e23d
000001e0: 1413 7f3e 1a24 1a3e 3a2c 933e a60c b93e
000001f0: b276 173e d353 a63d 3932 923e 2596 1c3e
00000200: 9b75 483d 5022 5f3e c2d4 ac3d 3c84 003e
00000210: 97cb 523d 1b71 753d 25bb 103e 0cce 083e
00000220: 9614 943e 4fd7 d93d

fc2.weight f4 [69, 138]
-0.16402121 -0.13038923 -0.09173539 0.17563942 -0.12475074 0.07776274 0.13284594 0.020896355
0.12971012 0.06181436 0.101092674 -0.15228702 0.07385787 -0.15132795 0.13088752 0.14033227
-0.076081276 0.16436045 0.0741809 0.055958644 -0.14488903 -0.08649822 0.09796222 -0.05959446
0.1409836 -0.1417977 -0.07364923 -0.059643004 0.08098846 -0.13562125 0.19621783 -0.052346013
0.042023297 -0.010282501 0.06326389 -0.14115384 0.18927217 -0.0314222 0.037579916 0.15188177
0.03813748 -0.13367486 0.087513104 -0.00878256 0.07541639 -0.05729345 -0.18339029 0.07040946
0.04239736 0.037334614 -0.037477862 0.05908589 -0.088535056 0.10051088 -0.036685035 0.15702432
0.15433915 0.1041249 0.1633477 0.17549033 -0.16289903 -0.10098153 -0.04074677 0.08309871
-0.17632447 0.110365815 -0.06489855 0.05599783 -0.15758702 -0.13713877 0.13256454 0.18134096
-0.05031725 -0.15323879 0.051949188 -0.12860112 0.14309894 -0.046166092 -0.07341494 0.15833157
0.13961324 0.07722403 -0.16929424 0.016919378 0.011464901 -0.072697 -0.16917464 -0.056440316
0.16817603 0.004991109 0.05628873 -0.07878867 0.094796345 -0.032798372 0.13596553 0.11587415
0.16571832 0.004430739 0.16996516 0.10657745 -0.17154452 0.06593773 0.14850877 -0.06577135
-0.13654926 0.067589834 -0.058244836 0.024555791 -0.09317432 0.050772008 0.10637978 -0.13425069
-0.12605569 -0.041356817 -0.08183212 0.18993813 -0.06475303 0.03699332 0.18566737 0.16928175
0.038975086 0.14818476 0.023555072 0.017181534 0.15399145 -0.18954091 0.11226147 -0.068315
-0.16437042 0.110345595 0.1150603 -0.1084981 0.053777263 0.18891658 0.100860745 -0.09221303
-0.14285648 0.031523876 0.12126652 0.20575103 0.06703228 -0.03254395 0.10502654 -0.17128816
-0.0901472 -0.16638863 -0.06129034 -0.033749446 -0.11389688 0.13366239 -0.20925862 0.094974965
-0.12650952 -0.08155938 0.1368686 -0.18078206 -0.14257282 -0.1693554 0.18101901 0.15964235
-0.13794169 0.1840552 -0.06987076 0.14401548 0.088279545 0.06841001 -0.1242013 0.20627518
-0.21104704 0.04726253 -0.1872491 0.17448622 -0.04441586 0.21917182 -0.16920833 0.10031713
-0.18030691 -0.08469026 -0.06942963 0.13439184 -0.14236338 -0.1759554 -0.08354519 -0.20154305
0.08730488 -0.092024006 -0.15682153 -0.17065741 0.054302946 -0.12394718 0.15144578 -0.13491921
0.03864704 -0.069962986 -0.064840436 -0.049395747 -0.21105725 -0.048845258 0.2001854 0.102747805
0.13885355 -0.04417914 0.11004954 -0.055309862 -0.17216296 -0.04026109 0.20107509 0.11520074
-0.09690567 -0.19567867 0.18364656 0.17394504 -0.16755864 0.0829384 -0.13126358 -0.022374617
0.19038317 -0.07091987 -0.15192443 -0.19949408 0.1574694 0.15230952 -0.039923422 0.048690442
0.09451412 0.17061234 -0.18575606 -0.16504307 -0.07723368 0.10133849 -0.21818623 0.09296408
-0.096061036 -0.20196413 -0.12414935 -0.11113391 -0.06142497 -0.1547804 0.09771534 -0.0563145
-0.09358958 0.11753047 0.057121802 -0.060882576 0.15310997 -0.17525016 0.15822774 -0.20884877
-0.14499083 0.21615428 0.11840986 0.19003972 0.11852723 -0.18973634 0.099573456 -0.10282462
00000000: 2df5 27be c184 05be c4df bbbd d2da 333e
00000010: 517d ffbd 1242 9f3d c408 083e d52e ab3c
00000020: bbd2 043e 0e31 7d3d ad09 cf3d 21f1 1bbe
00000030: cc42 973d b7f5 1abe 6107 063e 43b3 0f3e
00000040: 80d0 9bbd 1b4e 283e 28ec 973d e434 653d
00000050: ca5d 14be fb25 b1bd 6ba0 c83d 5219 74bd
00000060: 015e 103e 6b33 11be 68d5 96bd 394c 74bd
00000070: 47dd a53d 4ce0 0abe 54ed 483e c668 56bd
00000080: 9f20 2c3d ef77 28bc 8090 813d a28a 10be
00000090: 90d0 413e 91b4 00bd 66ed 193d e586 1b3e
000000a0: 0c36 1c3d 10e2 08be 123a b33d bae4 0fbc
000000b0: e973 9a3d 89ac 6abd aaca 3bbe d632 903d
000000c0: dba8 2d3d 2eec 183d 6382 19bd 0c04 723d
000000d0: de51 b5bd a6d8 cd3d 0c43 16bd fcca 203e
000000e0: 150b 1e3e 703f d53d 9f44 273e bdb3 333e
000000f0: 01cf 26be 68cf cebd 16e6 26bd a82f aa3d
00000100: 678e 34be 7907 e23d 88e9 84bd fb5d 653d
00000110: 7e5e 21be 1b6e 0cbe 00bf 073e 72b1 393e
00000120: 7619 4ebd a1ea 1cbe acc8 543d 03b0 03be
00000130: 8788 123e a818 3dbd 925a 96bd ac21 223e
00000140: c6f6 0e3e a227 9e3d 785b 2dbe 829a 8a3c
00000150: 48d7 3b3c 2ae2 94bd 1e3c 2dbe f62d 67bd
00000160: 5636 2c3e 758c a33b 038f 663d f45b a1bd
00000170: 9624 c23d 9657 06bd 8c3a 0b3e 6d4f ed3d
00000180: 10b2 293e bc2f 913b 590b 2e3e 4745 da3d
00000190: 5ea9 2fbe 5c0a 873d af12 183e 21b3 86bd
000001a0: 92d3 0bbe 8a6c 8a3d 2392 6ebd 3a29 c93c
000001b0: 2ed2 bebd 4ff6 4f3d a4dd d93d 0379 09be
000001c0: be14 01be c465 29bd 9997 a7bd 247f 423e
000001d0: 3d9d 84bd 4f86 173d 961f 3e3e 3258 2d3e
000001e0: 57a4 1f3d bfbd 173e 91f6 c03c 4ac0 8c3c
000001f0: efaf 1d3e 0317 42be 57e9 e53d bce8 8bbd
00000200: b850 28be dffc e13d bca4 eb3d 4034 debd
00000210: 8c45 5c3d 5973 413e 1490 ce3d 2fda bcbd
00000220: f848 12be 2e1f 013d 955a f83d 66b0 523e
00000230: 3848 893d ce4c 05bd 2818 d73d 2a66 2fbe
00000240: 189f b8bd c861 2abe 940b 7bbd dc3c 0abd
00000250: c442 e9bd cbde 083e e447 56be 3c82 c23d
00000260: b68b 01be 9b08 a7bd 4827 0c3e ef1e 39be
00000270: 9cfe 11be 816b 2dbe 0c5d 393e 4979 233e
00000280: 9640 0dbe f778 3c3e 6718 8fbd cb78 133e
00000290: e8cb b43d 8c1a 8c3d 405d febd cd39 533e
000002a0: b71c 58be 5b96 413d 3abe 3fbe 84ac 323e
000002b0: 68ed 35bd 946e 603e f344 2dbe 1173 cd3d
000002c0: 60a2 38be 1672 adbd 1f31 8ebd 049e 093e
000002d0: b5c7 11be a72d 34be be19 abbd 4d61 4ebe
000002e0: e7cc b23d 1577 bcbd d395 20be d1c0 2ebe
000002f0: c46c 5e3d 05d8 fdbd 9a14 1b3e 4328 0abe
00000300: 5c4c 1e3d c148 8fbd 10cb 84bd 3253 4abd
00000310: 641f 58be f711 48bd 67fd 4c3e 716d d23d
00000320: a02f 0e3e 30f5 34bd a761 e13d 988c 62bd
00000330: 7d4b 30be d0e8 24bd a1e6 4d3e 5eee eb3d
00000340: 7b76 c6bd fd5f 48be d80d 3c3e a61e 323e
00000350: 7e94 2bbe 9cdb a93d f669 06be f94a b7bc
00000360: cef3 423e 703e 91bd 1492 1bbe 2d48 4cbe
00000370: a93f 213e 07f7 1b3e be86 23bd a16f 473d
00000380: 9e90 c13d 00b5 2e3e d636 3ebe 0d01 29be
00000390: b12c 9ebd 8e8a cf3d 366c 5fbe f463 be3d
000003a0: a6bb c4bd afcf 4ebe 0442 febd 2d9a e3bd
000003b0: c098 7bbd c17e 1ebe fb1e c83d 08aa 66bd
000003c0: e5ab bfbd d1b3 f03d 8df8 693d 0260 79bd
000003d0: dcc8 1c3e c774 33be 7406 223e 74dc 55be
000003e0: 7a78 14be 8c57 5d3e de80 f23d c699 423e
000003f0: 68be f23d 3e4a 42be 2bed cb3d b795 d2bd

batchnorm2.weight f4 [69]
1.0 1.0 1.0 1.0 1.0 1.0 1.0 1.0
1.0 1.0 1.0 1.0 1.0 1.0 1.0 1.0
1.0 1.0 1.0 1.0 1.0 1.0 1.0 1.0
1.0 1.0 1.0 1.0 1.0 1.0 1.0 1.0
1.0 1.0 1.0 1.0 1.0 1.0 1.0 1.0
1.0 1.0 1.0 1.0 1.0 1.0 1.0 1.0
1.0 1.0 1.0 1.0 1.0 1.0 1.0 1.0
1.0 1.0 1.0 1.0 1.0 1.0 1.0 1.0
1.0 1.0 1.0 1.0 1.0
00000000: 0000 803f 0000 803f 0000 803f 0000 803f
00000010: 0000 803f 0000 803f 0000 803f 0000 803f
00000020: 0000 803f 0000 803f 0000 803f 0000 803f
00000030: 0000 803f 0000 803f 0000 803f 0000 803f
00000040: 0000 803f 0000 803f 0000 803f 0000 803f
00000050: 0000 803f 0000 803f 0000 803f 0000 803f
00000060: 0000 803f 0000 803f 0000 803f 0000 803f
00000070: 0000 803f 0000 803f 0000 803f 0000 803f
00000080: 0000 803f 0000 803f 0000 803f 0000 803f
00000090: 0000 803f 0000 803f 0000 803f 0000 803f
000000a0: 0000 803f 0000 803f 0000 803f 0000 803f
000000b0: 0000 803f 0000 803f 0000 803f 0000 803f
000000c0: 0000 803f 0000 803f 0000 803f 0000 803f
000000d0: 0000 803f 0000 803f 0000 803f 0000 803f
000000e0: 0000 803f 0000 803f 0000 803f 0000 803f
000000f0: 0000 803f 0000 803f 0000 803f 0000 803f
00000100: 0000 803f 0000 803f 0000 803f 0000 803f
00000110: 0000 803f

batchnorm2.bias f4 [69]
0.0 0.0 0.0 0.0 0.0 0.0 0.0 0.0
0.0 0.0 0.0 0.0 0.0 0.0 0.0 0.0
0.0 0.0 0.0 0.0 0.0 0.0 0.0 0.0
0.0 0.0 0.0 0.0 0.0 0.0 0.0 0.0
0.0 0.0 0.0 0.0 0.0 0.0 0.0 0.0
0.0 0.0 0.0 0.0 0.0 0.0 0.0 0.0
0.0 0.0 0.0 0.0 0.0 0.0 0.0 0.0
0.0 0.0 0.0 0.0 0.0 0.0 0.0 0.0
0.0 0.0 0.0 0.0 0.0
00000000: 0000 0000 0000 0000 0000 0000 0000 0000
00000010: 0000 0000 0000 0000 0000 0000 0000 0000
00000020: 0000 0000 0000 0000 0000 0000 0000 0000
00000030: 0000 0000 0000 0000 0000 0000 0000 0000
00000040: 0000 0000 0000 0000 0000 0000 0000 0000
00000050: 0000 0000 0000 0000 0000 0000 0000 0000
00000060: 0000 0000 0000 0000 0000 0000 0000 0000
00000070: 0000 0000 0000 0000 0000 0000 0000 0000
00000080: 0000 0000 0000 0000 0000 0000 0000 0000
00000090: 0000 0000 0000 0000 0000 0000 0000 0000
000000a0: 0000 0000 0000 0000 0000 0000 0000 0000
000000b0: 0000 0000 0000 0000 0000 0000 0000 0000
000000c0: 0000 0000 0000 0000 0000 0000 0000 0000
000000d0: 0000 0000 0000 0000 0000 0000 0000 0000
000000e0: 0000 0000 0000 0000 0000 0000 0000 0000
000000f0: 0000 0000 0000 0000 0000 0000 0000 0000
00000100: 0000 0000 0000 0000 0000 0000 0000 0000
00000110: 0000 0000

batchnorm2.running_mean f4 [69]
-1.7427396 7.1051435 7.2195883 7.302482 -1.7417468 7.3419127 -1.7312795 7.314531
7.4462285 7.6674 7.1880918 7.0859118 -1.7300179 7.1644163 -1.7359838 -1.737225
-1.7354399 -1.7340503 -1.7395192 -1.7328749 -1.7356322 7.2034836 -1.7327312 7.284814
-1.7323297 -1.7357883 -1.7328644 6.7239113 7.4306364 6.9471984 -1.7403498 -1.7362002
-1.73757 -1.736911 -1.7379158 7.3425417 -1.7335503 7.4081078 7.3642526 6.81962
-1.7391672 -1.7348692 -1.7398263 -1.7400424 -1.732419 -1.7347717 7.0532804 7.2709746
7.0005226 -1.7315873 7.708789 7.108124 -1.7363878 6.9905486 7.109804 -1.7375472
7.086528 -1.7376643 -1.7362622 7.1401396 -1.7358053 -1.7357359 -1.7367879 7.3013372
-1.7359025 -1.7340676 -1.7377 6.8997664 -1.7389752
00000000: 1712 dfbf 565d e340 de06 e740 efad e940
00000010: 8ff1 debf f3f0 ea40 919a ddbf a310 ea40
00000020: 8147 ee40 575b f540 d904 e640 cabf e240
00000030: 3a71 ddbf e642 e540 b834 debf 645d debf
00000040: e522 debf 5cf5 ddbf 91a8 debf d8ce ddbf
00000050: 3229 debf f082 e640 23ca ddbf 321d e940
00000060: fbbc ddbf 502e debf 80ce ddbf 482a d740
00000070: c6c7 ed40 734f de40 c8c3 debf cf3b debf
00000080: b268 debf 1a53 debf 0674 debf 1af6 ea40
00000090: fae4 ddbf 380f ed40 f5a7 eb40 543a da40
000000a0: 089d debf 3210 debf a1b2 debf b6b9 debf
000000b0: e8bf ddbf 000d debf 79b4 e140 d3ab e840
000000c0: 4804 e040 a7a4 ddbf 66ae f640 c075 e340
000000d0: f541 debf 93b2 df40 8483 e340 f267 debf
000000e0: d6c4 e240 c96b debf d73d debf 067c e440
000000f0: de2e debf 982c debf 114f debf 8ea4 e940
00000100: 0e32 debf edf5 ddbf f46c debf e3ca dc40
00000110: bd96 debf

batchnorm2.running_var f4 [69]
0.00030886687 7.49813 8.398481 8.926459 0.0003409342 8.455142 0.0009808281 8.831146
9.59885 7.5156155 9.038551 8.7827215 0.0010100405 7.175474 0.00062389177 0.0006491152
0.000820855 0.00062836206 0.0005090633 0.0007932364 0.00083368795 8.289101 0.0007247767 8.470241
0.0011729957 0.000563223 0.0007115173 6.4004087 8.907818 6.8921795 0.0003893846 0.0005943128
0.0004049172 0.0005714867 0.0005097833 9.38964 0.0007265543 9.96696 11.10416 7.4062862
0.00040153967 0.0007474857 0.00050705794 0.00033370528 0.00096390164 0.0005863062 6.964629 8.794811
7.8456984 0.0011819956 10.161013 7.9517603 0.00046423753 8.7499695 7.285452 0.00063004595
8.082309 0.00044977147 0.00072587305 10.475727 0.000605587 0.0005149321 0.000544911 7.083885
0.00066336204 0.00061103713 0.00051076524 7.480667 0.0004568146
00000000: 69ef a139 aef0 ef40 2e60 0641 c7d2 0e41
00000010: 6abf b239 4348 0741 218f 803a 604c 0d41
00000020: e494 1941 ec7f f040 e89d 1041 0786 0c41
00000030: 5663 843a 7c9d e540 ab8c 233a 6229 2a3a
00000040: a62e 573a aab8 243a a972 053a 32f1 4f3a
00000050: da8b 5a3a 28a0 0441 f1fe 3d3a 1b86 0741
00000060: 34bf 993a 41a5 133a 1e85 3a3a 26d0 cc40
00000070: 6c86 0e41 bc8c dc40 5126 cc39 a8cb 1b3a
00000080: 114b d439 d3cf 153a faa2 053a f73b 1641
00000090: 3c76 3e3a ab78 1f41 a4aa 3141 4c00 ed40
000000a0: be85 d239 ebf2 433a 15ec 043a 2af5 ae39
000000b0: 58ae 7c3a 58b2 193a 3ede de40 8cb7 0c41
000000c0: f60f fb40 31ed 9a3a 8293 2241 d274 fe40
000000d0: e864 f339 e0ff 0b41 6c22 e940 ab29 253a
000000e0: 2351 0141 4ecf eb39 8448 3e3a 949c 2741
000000f0: 41c0 1e3a 82fc 063a 5cd8 0e3a 30af e240
00000100: 79e5 2d3a 022e 203a e0e4 053a a061 ef40
00000110: 9e80 ef39

fc3.weight f4 [46, 69]
-0.16570602 0.19265461 0.083839506 0.2554323 -0.21164747 0.271066 -0.100086346 0.24997216
0.10012855 0.25864717 0.22966342 0.25419068 -0.19757582 0.10760712 -0.22610174 -0.2634066
-0.22292314 -0.11233671 -0.10393512 -0.06042543 -0.21105771 0.037662633 -0.16831361 0.25542283
-0.07241299 -0.12019596 -0.118165396 0.23448858 0.25201532 0.24713138 -0.23267962 -0.15365389
-0.07907141 -0.10606036 -0.05520936 0.13532759 -0.052253615 0.23695886 0.11333746 0.03960539
-0.17426671 -0.1390333 -0.21241774 -0.20716059 -0.045297224 -0.059639033 0.19344006 0.18195854
0.05472932 -0.21695483 0.16647524 0.20899238 -0.23123991 0.0929267 0.17621708 -0.06839577
0.10070841 -0.26384658 -0.05355814 0.08285507 -0.13253987 -0.052027054 -0.06299919 0.07490539
-0.088498056 -0.11018104 -0.1652199 0.21010865 -0.24069016 -0.046108283 -0.03268071 -0.07753196
0.008697377 0.100857556 0.029447017 0.03466029 0.07561428 0.059339162 -0.0028660898 -0.066866115
-0.062922426 0.10317185 -0.1275436 0.16330847 0.17034554 0.08572829 0.09877693 -0.045864247
0.06949145 0.16232625 -0.15687124 0.105069056 -0.1147884 0.06240263 0.16200317 0.16890992
-0.099125385 0.04227416 0.0017742806 0.027868224 0.020470982 0.14380498 0.15752953 0.07826238
-0.13213386 0.0048748567 0.052873585 0.05474711 -0.10964923 0.0955094 0.0742237 0.0715409
0.089951634 -0.040547207 0.027768973 -0.06980861 0.041212767 -0.1322393 0.17213175 0.047771227
-0.075730026 -0.01943502 -0.08587569 0.03218926 0.08091609 -0.13953048 0.021634776 0.116787724
0.010317884 0.13492718 0.060656402 0.1392687 -0.15156004 0.0661713 0.029049873 0.070589356
-0.11063554 -0.061247714 0.12646778 -0.06523164 -0.034524243 0.070025034 0.042669006 0.03115065
0.13622311 -0.04568625 -0.055478815 -0.11913069 -0.106034294 0.007156424 0.017814334 0.029544374
0.11819063 0.041723713 0.025764856 0.052142687 -0.014689724 0.08197673 0.18253852 -0.14939687
0.15439425 -0.10716968 0.1553246 0.13482991 0.067039765 0.0071514766 0.0006357512 -0.10926033
0.027603932 0.010536641 0.10443988 0.15155202 0.14006662 -0.02586624 0.042592127 -0.12475178
0.08055469 -0.12364954 -0.005432915 -0.034344852 -0.03716933 0.10275526 0.09149401 0.09396817
-0.055636466 0.046835396 -0.04590564 0.15408641 -0.09915042 -0.00476787 0.13875017 -0.09201854
-0.14194393 0.030610036 -0.009313186 0.174726 0.07221854 -0.08547332 0.15264955 0.09566207
0.02851515 -0.12514447 -0.03968788 0.07699969 0.053677976 0.014408522 0.039852288 -0.21639302
0.121086426 0.03247377 0.039077718 -0.19678977 0.1966059 -0.1251855 0.12558784 0.18591079
0.04379533 0.036371615 0.17792211 -0.023660192 0.18776858 -0.15352182 -0.19636624 -0.20683758
-0.2503602 -0.24892843 -0.110505454 -0.066422455 0.24051866 -0.102803245 0.26077962 -0.14102906
-0.040698748 -0.08472795 0.24535331 0.11340556 0.095184594 -0.24469003 -0.1495631 -0.1953908
-0.22365677 -0.22521077 0.17427683 -0.22618395 0.09374948 0.033730175 0.23681849 -0.14268316
-0.068965636 -0.20596077 -0.037474684 -0.19503717 -0.12708773 0.23091258 0.14010255 0.18641771
00000000: d7ae 29be 4047 453e 0cb4 ab3d 06c8 823e
00000010: 1dba 58be 2ac9 8a3e 12fa ccbd b4f8 7f3e
00000020: 3210 cd3d 676d 843e e32c 6b3e 4825 823e
00000030: 5151 4abe 1f61 dc3d 3787 67be 3bdd 86be
00000040: f745 64be ca10 e6bd f0db d4bd a880 77bd
00000050: 831f 58be 2244 1a3d 675a 2cbe c8c6 823e
00000060: 434d 94bd 4d29 f6bd b300 f2bd c61d 703e
00000070: 2708 813e 0210 7d3e 9143 6ebe 7257 1dbe
00000080: 31f0 a1bd 2d36 d9bd 3623 62bd 5193 0a3e
00000090: e307 56bd 58a5 723e 781d e83d 4339 223d
000000a0: f972 32be bf5e 0ebe 0984 59be e821 54be
000000b0: 9589 39bd 0f48 74bd 2715 463e 5753 3a3e
000000c0: da2b 603d 6829 5ebe 7c78 2a3e 1902 563e
000000d0: 28ca 6cbe 5b50 be3d 4072 343e 1513 8cbd
000000e0: 3640 ce3d e616 87be c85f 5bbd ebaf a93d
000000f0: 88b8 07be 521a 55bd b805 81bd ff67 993d
00000100: 783e b5bd 99a6 e1bd 682f 29be b926 573e
00000110: 7b77 76be 0adc 3cbd 35dc 05bd 14c9 9ebd
00000120: 717f 0e3c 688e ce3d df3a f13c f3f7 0d3d
00000130: a9db 9a3d 9f0d 733d 02d5 3bbb 1af1 88bd
00000140: 79dd 80bd c34b d33d ca9a 02be 563a 273e
00000150: 106f 2e3e 5092 af3d 8f4b ca3d 26dc 3bbd
00000160: 8951 8e3d da38 263e dba2 20be 722e d73d
00000170: 2e16 ebbd e699 7f3d 29e4 253e b9f6 2c3e
00000180: 4002 cbbd ab27 2d3d fa8e e83a e74b e43c
00000190: c3b2 a73c 9d41 133e 6c4f 213e 0748 a03d
000001a0: 194e 07be 43bd 9f3b f991 583d 813e 603d
000001b0: c78f e0bd 6f9a c33d 9802 983d 0984 923d
000001c0: 9038 b83d d414 26bd c27b e33c d1f7 8ebd
000001d0: b8ce 283d bd69 07be 4e43 303e c3ab 433d
000001e0: 5818 9bbd 3136 9fbc 98df afbd e3d8 033d
000001f0: 56b7 a53d 14e1 0ebe 6a3b b13c 672e ef3d
00000200: 580c 293c 5a2a 0a3e d972 783d 749c 0e3e
00000210: 8e32 1bbe d284 873d 00fa ed3c 2791 903d
00000220: e394 e2bd e2de 7abd c580 013e 2b98 85bd
00000230: 4b69 0dbd 4969 8f3d b2c5 2e3d a62f ff3c
00000240: 127e 0b3e 8121 3bbd c13d 63bd cbfa f3bd
00000250: 8228 d9bd 7080 ea3b 5eef 913c 0b07 f23c
00000260: ee0d f23d 7ce6 2a3d d210 d33c 9293 553d
00000270: 2bad 70bc 6ae3 a73d 61eb 3a3e 7efb 18be
00000280: 8719 1e3e c77b dbbd 690d 1f3e da10 0a3e
00000290: 254c 893d ef56 ea3b 8aa8 263a e1c3 dfbd
000002a0: a421 e23c e0a1 2c3c 93e4 d53d 7430 1b3e
000002b0: a06d 0f3e 70e5 d3bc 1575 2e3d dc7d ffbd
000002c0: dbf9 a43d f83b fdbd 9806 b2bb 30ad 0cbd
000002d0: de3e 18bd 5a71 d23d 3661 bb3d 6272 c03d
000002e0: 10e3 63bd 79d6 3f3d 8d07 3cbd d4c8 1d3e
000002f0: 600f cbbd cb3b 9cbb 8614 0e3e 3774 bcbd
00000300: c059 11be e6c1 fa3c 5596 18bc 5feb 323e
00000310: 50e7 933d a30c afbd 2a50 1c3e 7aea c33d
00000320: 9b98 e93c df25 00be c28f 22bd 03b2 9d3d
00000330: 70dd 5b3d b911 6c3c 273c 233d 2296 5dbe
00000340: 29fc f73d 3703 053d f50f 203d 4283 49be
00000350: 0f53 493e a130 00be 199a 003e 665f 3e3e
00000360: bb62 333d 67fa 143d 3731 363e 05d3 c1bc
00000370: 6846 403e d334 1dbe 3b14 49be 3bcd 53be
00000380: 362f 80be 18e7 7ebe af50 e2bd 7f08 88bd
00000390: 864a 763e 828a d2bd e884 853e ec69 10be
000003a0: bbb3 26bd d985 adbd e63d 7b3e 2d41 e83d
000003b0: 24f0 c23d 0690 7abe 1227 19be 8714 48be
000003c0: 4806 65be a79d 66be a075 323e c49c 67be
000003d0: baff bf3d a728 0a3d 8c80 723e 891b 12be
000003e0: db3d 8dbd 61e7 52be 0e7f 19bd d3b7 47be
000003f0: 4923 02be 5974 6c3e 0b77 0f3e 49e4 3e3e

batchnorm3.weight f4 [69]
1.0 1.0 1.0 1.0 1.0 1.0 1.0 1.0
1.0 1.0 1.0 1.0 1.0 1.0 1.0 1.0
1.0 1.0 1.0 1.0 1.0 1.0 1.0 1.0
1.0 1.0 1.0 1.0 1.0 1.0 1.0 1.0
1.0 1.0 1.0 1.0 1.0 1.0 1.0 1.0
1.0 1.0 1.0 1.0 1.0 1.0 1.0 1.0
1.0 1.0 1.0 1.0 1.0 1.0 1.0 1.0
1.0 1.0 1.0 1.0 1.0 1.0 1.0 1.0
1.0 1.0 1.0 1.0 1.0
00000000: 0000 803f 0000 803f 0000 803f 0000 803f
00000010: 0000 803f 0000 803f 0000 803f 0000 803f
00000020: 0000 803f 0000 803f 0000 803f 0000 803f
00000030: 0000 803f 0000 803f 0000 803f 0000 803f
00000040: 0000 803f 0000 803f 0000 803f 0000 803f
00000050: 0000 803f 0000 803f 0000 803f 0000 803f
00000060: 0000 803f 0000 803f 0000 803f 0000 803f
00000070: 0000 803f 0000 803f 0000 803f 0000 803f
00000080: 0000 803f 0000 803f 0000 803f 0000 803f
00000090: 0000 803f 0000 803f 0000 803f 0000 803f
000000a0: 0000 803f 0000 803f 0000 803f 0000 803f
000000b0: 0000 803f 0000 803f 0000 803f 0000 803f
000000c0: 0000 803f 0000 803f 0000 803f 0000 803f
000000d0: 0000 803f 0000 803f 0000 803f 0000 803f
000000e0: 0000 803f 0000 803f 0000 803f 0000 803f
000000f0: 0000 803f 0000 803f 0000 803f 0000 803f
00000100: 0000 803f 0000 803f 0000 803f 0000 803f
00000110: 0000 803f

batchnorm3.bias f4 [69]
0.0 0.0 0.0 0.0 0.0 0.0 0.0 0.0
0.0 0.0 0.0 0.0 0.0 0.0 0.0 0.0
0.0 0.0 0.0 0.0 0.0 0.0 0.0 0.0
0.0 0.0 0.0 0.0 0.0 0.0 0.0 0.0
0.0 0.0 0.0 0.0 0.0 0.0 0.0 0.0
0.0 0.0 0.0 0.0 0.0 0.0 0.0 0.0
0.0 0.0 0.0 0.0 0.0 0.0 0.0 0.0
0.0 0.0 0.0 0.0 0.0 0.0 0.0 0.0
0.0 0.0 0.0 0.0 0.0
00000000: 0000 0000 0000 0000 0000 0000 0000 0000
00000010: 0000 0000 0000 0000 0000 0000 0000 0000
00000020: 0000 0000 0000 0000 0000 0000 0000 0000
00000030: 0000 0000 0000 0000 0000 0000 0000 0000
00000040: 0000 0000 0000 0000 0000 0000 0000 0000
00000050: 0000 0000 0000 0000 0000 0000 0000 0000
00000060: 0000 0000 0000 0000 0000 0000 0000 0000
00000070: 0000 0000 0000 0000 0000 0000 0000 0000
00000080: 0000 0000 0000 0000 0000 0000 0000 0000
00000090: 0000 0000 0000 0000 0000 0000 0000 0000
000000a0: 0000 0000 0000 0000 0000 0000 0000 0000
000000b0: 0000 0000 0000 0000 0000 0000 0000 0000
000000c0: 0000 0000 0000 0000 0000 0000 0000 0000
000000d0: 0000 0000 0000 0000 0000 0000 0000 0000
000000e0: 0000 0000 0000 0000 0000 0000 0000 0000
000000f0: 0000 0000 0000 0000 0000 0000 0000 0000
00000100: 0000 0000 0000 0000 0000 0000 0000 0000
00000110: 0000 0000

batchnorm3.running_mean f4 [69]
48.802032 -1.7579228 -1.7579297 45.20576 -1.7579533 44.644943 -1.757938 -1.7578089
-1.7578554 46.310894 -1.7579219 -1.7578689 47.693584 50.41453 -1.757834 47.60254
-1.7578827 45.931076 -1.7579477 -1.7578733 49.08106 -1.7579111 -1.7579436 -1.7578957
43.3675 -1.7578927 50.569927 -1.757848 44.709606 43.584538 -1.7578503 48.420254
-1.7579011 43.032417 -1.7578392 46.550766 -1.7578961 -1.757911 46.251236 47.15599
46.32388 -1.75792 -1.7578481 47.88291 -1.7578946 44.499912 9.145068e-05 -0.03417282
-0.09503975 -0.0865438 -0.0021375308 0.010335938 -0.058489077 -0.0013367292 0.0008799622 -0.09917219
-0.054289084 0.2509963 0.5042244 -0.17172357 0.06891794 0.057651877 -0.038606647 0.06630957
0.04935106 -0.067515075 -0.1453594 0.048794914 0.07046608
00000000: 4835 4342 9d03 e1bf d703 e1bf b3d2 3442
00000010: 9d04 e1bf 6c94 3242 1d04 e1bf e2ff e0bf
00000020: 6801 e1bf 5b3e 3942 9603 e1bf d901 e1bf
00000030: 3bc6 3e42 7ba8 4942 b400 e1bf 0069 3e42
00000040: 4d02 e1bf 6cb9 3742 6e04 e1bf fe01 e1bf
00000050: 0153 4442 3b03 e1bf 4c04 e1bf ba02 e1bf
00000060: 5278 2d42 a102 e1bf 9b47 4a42 2a01 e1bf
00000070: a3d6 3242 9156 2e42 3d01 e1bf 57ae 4142
00000080: e702 e1bf 3221 2c42 e000 e1bf fc33 3a42
00000090: bd02 e1bf 3a03 e1bf 4401 3942 bc9f 3c42
000000a0: a74b 3942 8603 e1bf 2b01 e1bf 1a88 3f42
000000b0: b102 e1bf e9ff 3142 36c9 bf38 cdf8 0bbd
000000c0: 33a4 c2bd e03d b1bd d115 0cbb 1158 293c
000000d0: 3e92 6fbd 3035 afba 43ad 663a ca1a cbbd
000000e0: 3b5e 5ebd 9682 803e da14 013f 4ed8 2fbe
000000f0: d924 8d3d 6024 6c3d 0122 1ebd 50cd 873d
00000100: 5624 4a3d 5845 8abd 18d9 14be 2ddd 473d
00000110: 8550 903d

batchnorm3.running_var f4 [69]
238.5287 5.747088e-05 5.8768484e-05 194.61673 5.584419e-05 196.51253 5.8348985e-05 6.659249e-05
8.7152104e-05 196.8829 4.4881846e-05 6.9110516e-05 224.44539 261.27582 8.2536e-05 227.74068
5.0239156e-05 201.80771 5.069873e-05 5.499792e-05 230.84587 6.124871e-05 6.360895e-05 6.388074e-05
167.0817 5.188243e-05 250.38274 4.801154e-05 197.05734 174.22144 6.464328e-05 225.13248
6.888078e-05 162.87247 7.5934986e-05 208.23273 7.208205e-05 5.7061356e-05 202.5887 211.27463
220.40773 7.266836e-05 5.500015e-05 239.3093 5.519137e-05 185.63115 0.56354594 0.6152479
0.55013734 0.5553713 0.5163261 0.5329707 0.5072118 0.5502905 0.5446229 0.5918088
0.50077426 5.00134 5.131453 0.5190557 0.50107473 0.5172547 0.49184024 0.504575
0.5213209 0.46121928 0.54433846 0.51685405 0.5101559
00000000: 5987 6e43 e30c 7138 2e7e 7638 e29d 4243
00000010: 3e3a 6a38 3583 4443 bfbb 7438 92a7 8b38
00000020: 6ec5 b638 06e2 4443 843f 3c38 6def 9038
00000030: 0572 6043 4ea3 8243 2d17 ad38 9dbd 6343
00000040: e2b7 5238 c6ce 4943 59a5 5438 91ad 6638
00000050: 8bd8 6643 a772 8038 cc65 8538 b6f7 8538
00000060: ea14 2743 569c 5938 fb61 7a43 0060 4938
00000070: ae0e 4543 b038 2e43 1991 8738 ea21 6143
00000080: 1674 9038 5adf 2243 493f 9f38 943b 5043
00000090: c22a 9738 2a55 6f38 b596 4a43 4e46 5343
000000a0: 6168 5c43 8765 9838 f6af 6638 2e4f 6f43
000000b0: 487d 6738 93a1 3943 8c44 103f e380 1d3f
000000c0: cdd5 0c3f d02c 0e3f f32d 043f c570 083f
000000d0: a2d8 013f d7df 0c3f 686c 0b3f c880 173f
000000e0: be32 003f fa0a a040 dd34 a440 d6e0 043f
000000f0: 6f46 003f ce6a 043f 7cd2 fb3e d42b 013f
00000100: 4975 053f ef24 ec3e c459 0b3f 8c50 043f
00000110: 9499 023f
