output/weights5.pt (torch, 82708 bytes, 22 tensors)

fc1.weight f4 [138, 23]
0	0x3d9b69c7	0.07588535
1	0xbb26b6a7	-0.002543846
2	0x3d61d17f	0.05513143
3	0xbdfd545c	-0.12369606
4	0x3e333b6c	0.17503136
5	0x3d6cd275	0.057817895
6	0xbdbed32d	-0.09317622
7	0xbdb4beca	-0.088254526
8	0x3ce99cd3	0.028517162
9	0x3d1df7a2	0.03856624
10	0xbe3fe4c0	-0.18739605
11	0xbd31774f	-0.043326672
12	0xbe3433b5	-0.1759785
13	0x3e08fd41	0.13377859
14	0x3d942e0c	0.07235345
15	0xbe26b501	-0.16279985
16	0x3e2a62ae	0.16639206
17	0xbdba6eb3	-0.091031455
18	0xbc8d7625	-0.01726825
19	0xbca62ed3	-0.020286
20	0xbd4ac1b4	-0.049501136
21	0x3d90875a	0.07057066
22	0x3dc72a83	0.09724905
23	0x3ccec82e	0.025241937
24	0xbc816227	-0.015793873
25	0x3de8574c	0.113447756
26	0x3e053ded	0.13011904
27	0x3e25b9f6	0.1618422
28	0x3c53bbe8	0.012923218
29	0xbd5d33bd	-0.05400442
30	0x3e397a0c	0.18112963
31	0xbe0341f7	-0.12818132
32	0x3e4f2568	0.20229113
33	0x3d9ea908	0.07747084
34	0x3cc5acd4	0.024130262
35	0x3dc1db06	0.094656035
36	0x3e1d7801	0.15377809
37	0x3e023224	0.1271444
38	0xbc09fac0	-0.0084216
39	0xbe1e4adc	-0.15458244
40	0xbe1abf6e	-0.15112087
41	0xbb8186a7	-0.0039528194
42	0xbe1ea26f	-0.15491651
43	0xbe073efe	-0.13207623
44	0xbc578cfe	-0.013156174
45	0x3c27a9be	0.010233341
46	0xbd719956	-0.058984123
47	0x3e1ab776	0.15109047
48	0x3e4f1990	0.20224595
49	0x3cfdd3f4	0.030984856
50	0xbe0f08d1	-0.13968207
51	0xbe5926ae	-0.21206161
52	0x3d3fa4c5	0.046787996
53	0xbe12c08b	-0.14331262
54	0xbd69a167	-0.05703869
55	0xbdf233a8	-0.11826259
56	0x3e625733	0.22103576
57	0xbe570fd5	-0.21002133
58	0xbe60d137	-0.21954809
59	0x3e1cabc1	0.15299894
60	0x3e1c9f73	0.152952
61	0x3e2418bc	0.1602506
62	0x3e0f8e82	0.14019206
63	0x3d1ef51b	0.03880797
64	0x3d92b9ed	0.07164369
65	0xbe4fe2ec	-0.20301408
66	0xbe56b7d5	-0.20968564
67	0xbd3ededd	-0.046599258
68	0x3deb6eae	0.1149572
69	0x3e1f7393	0.15571432
70	0x3c15d904	0.009145979
71	0x3e18e1a3	0.14929824
72	0xbca150f5	-0.019691924
73	0x3e134b05	0.14384086
74	0xbd46ab77	-0.048503365
75	0xbd91271e	-0.07087539
76	0xbcd39676	-0.025828581
77	0x3db205d6	0.08692519
78	0x3de90274	0.11377421
79	0x3dd38e3b	0.10329863
80	0x3e541925	0.20712717
81	0x3d0af30b	0.03392319
82	0xbe2d9dad	-0.1695468
83	0x3e1bf34a	0.15229526
84	0x3db411ea	0.08792479
85	0xbc963c52	-0.01833931
86	0xbe5df24e	-0.21674463
87	0x3c0aba96	0.008467337
88	0x3dbcd838	0.09220928
89	0x3dfe9c67	0.12432175
90	0x3e05267a	0.13002959
91	0x3da1f3f0	0.079078555
92	0x3d2571d8	0.040391773
93	0x3e241a83	0.16025738
94	0xbd8f20b9	-0.06988663
95	0xbda908ca	-0.082536295
96	0x3d5ff5a4	0.05467762
97	0xbe3f2e12	-0.18669918
98	0xbde7ab8b	-0.11312016
99	0xbd5d07e6	-0.05396261
100	0xbe037d57	-0.12840782
101	0xbd96b0fc	-0.07357976
102	0x3e5f502b	0.21807925
103	0x3d06eb97	0.03293952
104	0x3e13e761	0.14443733
105	0x3c3ed25b	0.011646832
106	0x3e4712ec	0.19440812
107	0xbe26d81b	-0.16293375
108	0xbd2492e2	-0.04017914
109	0x3d4c3da1	0.04986346
110	0x3de9fd8d	0.11425314
111	0x3e02bc0c	0.12767047
112	0x3e54c1fd	0.20777126
113	0x3cd389fc	0.025822632
114	0xbd5d9a47	-0.05410221
115	0xbda48e78	-0.08034986
116	0xbd89579e	-0.06706165
117	0xbe206346	-0.1566287
118	0xbdc3f114	-0.095674664
119	0xbe50fe9e	-0.20409629
120	0xbd8064a8	-0.06269199
121	0x3d997d3f	0.07494592
122	0x3e245ef6	0.1605185
123	0x3d45b8fb	0.048272114
124	0xbe1f6a33	-0.15567856
125	0xba6a8137	-0.0008945646
126	0x3cbcd4e5	0.023050735
127	0x3d050926	0.032479428
128	0x3e43b8a7	0.19113408
129	0x3cdd1ee5	0.02699227
130	0xbdf3feea	-0.119138554
131	0x3e5fceb8	0.218562
132	0x3c986bb0	0.018606037
133	0xbd72b487	-0.059254196
134	0x3d283b9e	0.04107248
135	0x3ce73a7f	0.028226135
136	0xbe30f816	-0.17282137
137	0x3dc322a9	0.09528095
138	0x3e23e97d	0.16007037
139	0x3e0e728e	0.13910887
140	0xbdd35a3c	-0.10319945
141	0xbdcea040	-0.10089159
142	0x3da05ded	0.07830415
143	0x3dcd008f	0.10009872
144	0x3da57a25	0.08079938
145	0xbe30c710	-0.17263436
146	0xbc362b6f	-0.011118754
147	0x3e346c30	0.17619395
148	0xbd82c795	-0.063857235
149	0xbe215a89	-0.15757193
150	0xbd143ffd	-0.036193836
151	0x3dfdc238	0.1239056
152	0x3e281a91	0.16416384
153	0x3952dd08	0.00020109501
154	0x3cab62f8	0.020921215
155	0x3d54105d	0.051773418
156	0x3ba32a4b	0.004979407
157	0x3ce36ecb	0.027762791
158	0xbe3f0375	-0.18653663
159	0xbd9b8d79	-0.07595343
160	0x3d61d941	0.05513883
161	0xbd3a6ff4	-0.045516923
162	0xbde55122	-0.111971155
163	0xbdc20dbc	-0.09475276
164	0xbc6cd4ad	-0.014455003
165	0x3cc0daaa	0.023541767
166	0x3e0f0eb6	0.13970456
167	0xbd42e7c6	-0.047584318
168	0x3df148f1	0.117814906
169	0xbd6e4d34	-0.058179095
170	0xbc4a5a6b	-0.012350659
171	0xbd9f2971	-0.07771576
172	0xbbb03b9f	-0.005378201
173	0x3e3eb9d1	0.18625571
174	0x3e014b3d	0.12626357
175	0x3e335c0d	0.17515583
176	0x3be90ed4	0.0071123634
177	0x3c97a4cc	0.018511198
178	0xbe608c34	-0.21928483
179	0x3dc351a6	0.095370576
180	0x3cd530d2	0.026024256
181	0x3e149ab2	0.14512137
182	0xbe17c5fc	-0.14821619
183	0xbd3b43e1	-0.04571903
184	0xbe2fd951	-0.17172743
185	0xbd95c547	-0.07313018
186	0x3dd3b002	0.10336305
187	0xbdf81739	-0.12113804
188	0xbc937f2a	-0.018004972
189	0x3e10fb67	0.14158402
190	0xbe06c8d4	-0.13162547
191	0xbd9e1a8f	-0.077199094
192	0x3ce49bc8	0.027906314
193	0x3dc048cc	0.09388885
194	0xbe4c5487	-0.1995412
195	0xbd50be44	-0.0509627
196	0x3dabaefa	0.083829835
197	0x3e31114d	0.17291756
198	0x3cc424b6	0.023943286
199	0x3db7cc61	0.08974529
200	0x3dd9e17d	0.106387116
201	0xbd9b534e	-0.075842485
202	0xbdc0f6e8	-0.09422094
203	0xbd350db7	-0.044202533
204	0x3d3b23c3	0.045688402
205	0x3cd19f80	0.02558875
206	0x3e040e58	0.12896097
207	0xbdfc1e4c	-0.12310466
208	0xbb8db9b6	-0.004325117
209	0x3df86410	0.121284604
210	0xbe248c9c	-0.16069263
211	0x3dc0abe6	0.09407787
212	0x3e14c28a	0.14527336
213	0x3dbd911e	0.092561945
214	0xbd611a48	-0.054956704
215	0xbd9a1e56	-0.07525317
216	0xbd9ec14d	-0.07751713
217	0xbb27b1a3	-0.0025588057
218	0xbd9d72ae	-0.07687889
219	0x3e390c94	0.18071204
220	0x3d172255	0.036897976
221	0x3df552d5	0.119786896
222	0xbcafc617	-0.021456761
223	0x3d6e9aa8	0.05825296
224	0xbde03561	-0.10947681
225	0xbccf0d69	-0.02527495
226	0xbe2f92cd	-0.17145844
227	0x3e571313	0.2100337
228	0xbde70477	-0.112801485
229	0xbd2d72ac	-0.042345688
230	0x3d4b77bf	0.049674746
231	0x3e122e73	0.14275531
232	0xbdc81ec3	-0.09771492
233	0x3e22317d	0.15839191
234	0x3e4b9ed8	0.19884813
235	0x3e1fe5fd	0.15615077
236	0xbd292e85	-0.04130413
237	0x3dcf77d8	0.1013028
238	0xbcb68640	-0.022280812
239	0xbd36cc56	-0.044628464
240	0xbdb12aa8	-0.08650714
241	0x3e15b57d	0.14620014
242	0xbe19b979	-0.15012158
243	0xbe1b5ccb	-0.15172116
244	0x3e0ae9fa	0.13565817
245	0x3e0a98e0	0.1353488
246	0xbd95a1d0	-0.07306254
247	0xbdfe09a3	-0.12404182
248	0xbe2fc5e6	-0.17165336
249	0x3e1f56b8	0.15560424
250	0xbe38e4df	-0.18056057
251	0x3d05eef6	0.032698594
252	0x3d0cccd7	0.034375038
253	0xbcd57d63	-0.026060766
254	0x3e4562ec	0.19276017
255	0xbda1f9ee	-0.079089984

fc1.bias f4 [138]
0	0x3e5a0081	0.21289255
1	0x3e3753da	0.1790308
2	0x3d00ffda	0.031494
3	0xbd2f582d	-0.0428087
4	0x3e6b9dbb	0.23009388
5	0xbe841c6a	-0.25802928
6	0xbdc2af31	-0.09506071
7	0xbdc3595f	-0.095385306
8	0xbd12664d	-0.035742093
9	0xbc771529	-0.015080729
10	0xbda82322	-0.08209826
11	0x3e430ebf	0.19048594
12	0xbd458ea7	-0.048231747
13	0x3e7d2221	0.2472005
14	0xbe544fa8	-0.20733511
15	0xbdcc7065	-0.09982375
16	0x3dc613c1	0.096717365
17	0xbd3d542a	-0.046222843
18	0xbd46005b	-0.048340183
19	0xbdc3f6d7	-0.09568565
20	0x3e79d989	0.2439939
21	0x3e5e1e77	0.21691309
22	0xbe773cd9	-0.24144305
23	0x3d4e7356	0.05040296
24	0xbe0d265d	-0.13784166
25	0x3d907f77	0.07055562
26	0x3e4b326a	0.1984345
27	0x3e427fa0	0.18993998
28	0xbd0d74a3	-0.03453506
29	0x3e5c221b	0.21497385
30	0xbe8cbde8	-0.27488637
31	0x3e2f9139	0.17145242
32	0xbd2bdca5	-0.04195847
33	0x3e54f780	0.20797539
34	0x3c23501a	0.009967828
35	0x3e672f16	0.22576556
36	0xbdf839b8	-0.12120384
37	0x3df29626	0.11845045
38	0xbdc6752a	-0.09690316
39	0xbcff8b8e	-0.031194475
40	0xbde8b9cc	-0.11363563
41	0x3e81dcb1	0.25363687
42	0xbe653f10	-0.22387338
43	0xbd32aaa0	-0.043619752
44	0x3c95cf61	0.018287363
45	0xbd3419ef	-0.043970045
46	0x3e1a60b7	0.15075956
47	0xbe2beed5	-0.16790326
48	0xbdcd9562	-0.10038258
49	0xbe22ed12	-0.15910748
50	0x3e030579	0.12795056
51	0xbe4a7e6a	-0.19774786
52	0x3dd6fc54	0.104973465
53	0xbd41868d	-0.04724746
54	0x3c6aaa05	0.014322762
55	0xbdc49058	-0.09597844
56	0xbe84a884	-0.25909817
57	0xbe4b56ec	-0.19857377
58	0xbe76933c	-0.24079603
59	0xbe0f4228	-0.1399008
60	0x3e866215	0.26246706
61	0x3e3ae50e	0.1825144
62	0x3e29d18c	0.16583842
63	0xbc393358	-0.011303745
64	0x3e630a1d	0.22171827
65	0xbc9858a8	-0.018596962
66	0xbd07d0a4	-0.03315796
67	0xbd90ffe7	-0.070800595
68	0x3e7e7fe6	0.24853477
69	0x3e7e8c79	0.24858274
70	0xbd465ec6	-0.048430227
71	0xbe5770e2	-0.21039155
72	0x3e340a8b	0.17582147
73	0x3e6d3c9d	0.23167653
74	0xbe8a2b4e	-0.26986164
75	0x3e45844b	0.19288747
76	0xbe543f97	-0.20727383
77	0x3cde6327	0.027146889
78	0x3e25ecd3	0.16203623
79	0xbe465f41	-0.19372274
80	0xbe7c1479	-0.24617185
81	0xbe898249	-0.26857212
82	0x3e1d4c6c	0.15361184
83	0x3e41b9c6	0.18918523
84	0xbd8e0007	-0.06933599
85	0x3e2788a8	0.16360724
86	0x3e39d724	0.18148476
87	0x3e82a91d	0.25519648
88	0xbe4ea7f9	-0.20181264
89	0xbc14d23a	-0.009083325
90	0xbdf6bc4c	-0.120476335
91	0x3d9e8c63	0.077416204
92	0xbe098030	-0.13427806
93	0x3e0618f2	0.13095453
94	0xbe55aa81	-0.20865823
95	0xbe4dfb27	-0.20115338
96	0xbe89f233	-0.26942596
97	0xbc17d3db	-0.009266819
98	0xbd509bea	-0.05092994
99	0xbe252654	-0.16127902
100	0x3e81a9d5	0.25324884
101	0x3d42f456	0.0475963
102	0xbd4cad93	-0.04997022
103	0x3e8285da	0.25492746
104	0x3e5cfcb3	0.21580772
105	0xbe3c34e7	-0.18379556
106	0x3e7c9947	0.24667846
107	0xbd961744	-0.07328656
108	0x3d8146a6	0.06312303
109	0xbdbbba25	-0.091663636
110	0xbe3b641c	-0.18299907
111	0x3e862822	0.26202494
112	0x3df8480a	0.12123115
113	0x3e29fa63	0.16599421
114	0x3da142f7	0.07874101
115	0xbe8cb428	-0.27481198
116	0x3e4a1b9a	0.19737092
117	0xbe21539d	-0.15754552
118	0xbe807d70	-0.250957
119	0xbe2b53bb	-0.1673116
120	0xbe18d48c	-0.1492483
121	0xbe3a893b	-0.18216412
122	0xbd93e0ef	-0.07220637
123	0xbdcaf258	-0.09909505
124	0xbe622b13	-0.22086744
125	0x3df42138	0.119203985
126	0xbcfdea22	-0.030995432
127	0x3e2445e0	0.1604228
128	0x3e88f22b	0.2674726
129	0xbde569dd	-0.112018324
130	0xbe4d21ab	-0.20032375
131	0x3e1085da	0.1411356
132	0xbe76ed0e	-0.24113867
133	0xbe5a7c57	-0.21336494
134	0xbe8602b6	-0.26173943
135	0x3dbee2e0	0.09320617
136	0x3deda001	0.11602784
137	0xbe362caa	-0.17790475

batchnorm1.weight f4 [138]
0	0x3f800000	1.0
1	0x3f800000	1.0
2	0x3f800000	1.0
3	0x3f800000	1.0
4	0x3f800000	1.0
5	0x3f800000	1.0
6	0x3f800000	1.0
7	0x3f800000	1.0
8	0x3f800000	1.0
9	0x3f800000	1.0
10	0x3f800000	1.0
11	0x3f800000	1.0
12	0x3f800000	1.0
13	0x3f800000	1.0
14	0x3f800000	1.0
15	0x3f800000	1.0
16	0x3f800000	1.0
17	0x3f800000	1.0
18	0x3f800000	1.0
19	0x3f800000	1.0
20	0x3f800000	1.0
21	0x3f800000	1.0
22	0x3f800000	1.0
23	0x3f800000	1.0
24	0x3f800000	1.0
25	0x3f800000	1.0
26	0x3f800000	1.0
27	0x3f800000	1.0
28	0x3f800000	1.0
29	0x3f800000	1.0
30	0x3f800000	1.0
31	0x3f800000	1.0
32	0x3f800000	1.0
33	0x3f800000	1.0
34	0x3f800000	1.0
35	0x3f800000	1.0
36	0x3f800000	1.0
37	0x3f800000	1.0
38	0x3f800000	1.0
39	0x3f800000	1.0
40	0x3f800000	1.0
41	0x3f800000	1.0
42	0x3f800000	1.0
43	0x3f800000	1.0
44	0x3f800000	1.0
45	0x3f800000	1.0
46	0x3f800000	1.0
47	0x3f800000	1.0
48	0x3f800000	1.0
49	0x3f800000	1.0
50	0x3f800000	1.0
51	0x3f800000	1.0
52	0x3f800000	1.0
53	0x3f800000	1.0
54	0x3f800000	1.0
55	0x3f800000	1.0
56	0x3f800000	1.0
57	0x3f800000	1.0
58	0x3f800000	1.0
59	0x3f800000	1.0
60	0x3f800000	1.0
61	0x3f800000	1.0
62	0x3f800000	1.0
63	0x3f800000	1.0
64	0x3f800000	1.0
65	0x3f800000	1.0
66	0x3f800000	1.0
67	0x3f800000	1.0
68	0x3f800000	1.0
69	0x3f800000	1.0
70	0x3f800000	1.0
71	0x3f800000	1.0
72	0x3f800000	1.0
73	0x3f800000	1.0
74	0x3f800000	1.0
75	0x3f800000	1.0
76	0x3f800000	1.0
77	0x3f800000	1.0
78	0x3f800000	1.0
79	0x3f800000	1.0
80	0x3f800000	1.0
81	0x3f800000	1.0
82	0x3f800000	1.0
83	0x3f800000	1.0
84	0x3f800000	1.0
85	0x3f800000	1.0
86	0x3f800000	1.0
87	0x3f800000	1.0
88	0x3f800000	1.0
89	0x3f800000	1.0
90	0x3f800000	1.0
91	0x3f800000	1.0
92	0x3f800000	1.0
93	0x3f800000	1.0
94	0x3f800000	1.0
95	0x3f800000	1.0
96	0x3f800000	1.0
97	0x3f800000	1.0
98	0x3f800000	1.0
99	0x3f800000	1.0
100	0x3f800000	1.0
101	0x3f800000	1.0
102	0x3f800000	1.0
103	0x3f800000	1.0
104	0x3f800000	1.0
105	0x3f800000	1.0
106	0x3f800000	1.0
107	0x3f800000	1.0
108	0x3f800000	1.0
109	0x3f800000	1.0
110	0x3f800000	1.0
111	0x3f800000	1.0
112	0x3f800000	1.0
113	0x3f800000	1.0
114	0x3f800000	1.0
115	0x3f800000	1.0
116	0x3f800000	1.0
117	0x3f800000	1.0
118	0x3f800000	1.0
119	0x3f800000	1.0
120	0x3f800000	1.0
121	0x3f800000	1.0
122	0x3f800000	1.0
123	0x3f800000	1.0
124	0x3f800000	1.0
125	0x3f800000	1.0
126	0x3f800000	1.0
127	0x3f800000	1.0
128	0x3f800000	1.0
129	0x3f800000	1.0
130	0x3f800000	1.0
131	0x3f800000	1.0
132	0x3f800000	1.0
133	0x3f800000	1.0
134	0x3f800000	1.0
135	0x3f800000	1.0
136	0x3f800000	1.0
137	0x3f800000	1.0

batchnorm1.bias f4 [138]
0	0x00000000	0.0
1	0x00000000	0.0
2	0x00000000	0.0
3	0x00000000	0.0
4	0x00000000	0.0
5	0x00000000	0.0
6	0x00000000	0.0
7	0x00000000	0.0
8	0x00000000	0.0
9	0x00000000	0.0
10	0x00000000	0.0
11	0x00000000	0.0
12	0x00000000	0.0
13	0x00000000	0.0
14	0x00000000	0.0
15	0x00000000	0.0
16	0x00000000	0.0
17	0x00000000	0.0
18	0x00000000	0.0
19	0x00000000	0.0
20	0x00000000	0.0
21	0x00000000	0.0
22	0x00000000	0.0
23	0x00000000	0.0
24	0x00000000	0.0
25	0x00000000	0.0
26	0x00000000	0.0
27	0x00000000	0.0
28	0x00000000	0.0
29	0x00000000	0.0
30	0x00000000	0.0
31	0x00000000	0.0
32	0x00000000	0.0
33	0x00000000	0.0
34	0x00000000	0.0
35	0x00000000	0.0
36	0x00000000	0.0
37	0x00000000	0.0
38	0x00000000	0.0
39	0x00000000	0.0
40	0x00000000	0.0
41	0x00000000	0.0
42	0x00000000	0.0
43	0x00000000	0.0
44	0x00000000	0.0
45	0x00000000	0.0
46	0x00000000	0.0
47	0x00000000	0.0
48	0x00000000	0.0
49	0x00000000	0.0
50	0x00000000	0.0
51	0x00000000	0.0
52	0x00000000	0.0
53	0x00000000	0.0
54	0x00000000	0.0
55	0x00000000	0.0
56	0x00000000	0.0
57	0x00000000	0.0
58	0x00000000	0.0
59	0x00000000	0.0
60	0x00000000	0.0
61	0x00000000	0.0
62	0x00000000	0.0
63	0x00000000	0.0
64	0x00000000	0.0
65	0x00000000	0.0
66	0x00000000	0.0
67	0x00000000	0.0
68	0x00000000	0.0
69	0x00000000	0.0
70	0x00000000	0.0
71	0x00000000	0.0
72	0x00000000	0.0
73	0x00000000	0.0
74	0x00000000	0.0
75	0x00000000	0.0
76	0x00000000	0.0
77	0x00000000	0.0
78	0x00000000	0.0
79	0x00000000	0.0
80	0x00000000	0.0
81	0x00000000	0.0
82	0x00000000	0.0
83	0x00000000	0.0
84	0x00000000	0.0
85	0x00000000	0.0
86	0x00000000	0.0
87	0x00000000	0.0
88	0x00000000	0.0
89	0x00000000	0.0
90	0x00000000	0.0
91	0x00000000	0.0
92	0x00000000	0.0
93	0x00000000	0.0
94	0x00000000	0.0
95	0x00000000	0.0
96	0x00000000	0.0
97	0x00000000	0.0
98	0x00000000	0.0
99	0x00000000	0.0
100	0x00000000	0.0
101	0x00000000	0.0
102	0x00000000	0.0
103	0x00000000	0.0
104	0x00000000	0.0
105	0x00000000	0.0
106	0x00000000	0.0
107	0x00000000	0.0
108	0x00000000	0.0
109	0x00000000	0.0
110	0x00000000	0.0
111	0x00000000	0.0
112	0x00000000	0.0
113	0x00000000	0.0
114	0x00000000	0.0
115	0x00000000	0.0
116	0x00000000	0.0
117	0x00000000	0.0
118	0x00000000	0.0
119	0x00000000	0.0
120	0x00000000	0.0
121	0x00000000	0.0
122	0x00000000	0.0
123	0x00000000	0.0
124	0x00000000	0.0
125	0x00000000	0.0
126	0x00000000	0.0
127	0x00000000	0.0
128	0x00000000	0.0
129	0x00000000	0.0
130	0x00000000	0.0
131	0x00000000	0.0
132	0x00000000	0.0
133	0x00000000	0.0
134	0x00000000	0.0
135	0x00000000	0.0
136	0x00000000	0.0
137	0x00000000	0.0

batchnorm1.running_mean f4 [138]
0	0x3e7d17b5	0.24716075
1	0x3dc4d7a5	0.096114434
2	0x3e327863	0.17428736
3	0xbe5b8ced	-0.21440478
4	0x3e22d45d	0.15901323
5	0xbed26c55	-0.41098276
6	0xbd46cb54	-0.048533753
7	0xbe6a61fa	-0.22888938
8	0xbdd941e3	-0.1060827
9	0xbde38246	-0.11108832
10	0xbde92557	-0.11384075
11	0x3e5cb6b1	0.21554066
12	0xbe860184	-0.2617303
13	0x3e9a44f6	0.30130738
14	0xbec80078	-0.39062858
15	0xbe14c6b0	-0.14528918
16	0x3e630438	0.22169578
17	0xbe46bc18	-0.1940769
18	0xbcb4a498	-0.02205114
19	0xbe702c1c	-0.23454326
20	0x3e68549a	0.22688523
21	0x3e87123e	0.26381105
22	0xbe987ec5	-0.29784217
23	0x3dcad431	0.099037535
24	0xbe498874	-0.19680959
25	0x3e472e79	0.19451322
26	0x3e49844f	0.19679378
27	0x3e3239e3	0.17404895
28	0xbe6b23f3	-0.22962932
29	0x3e87074e	0.2637276
30	0xbec608ba	-0.38678533
31	0x3e8bdddc	0.27317703
32	0xbe21b127	-0.15790235
33	0x3e2df7f2	0.16989115
34	0xbe4cc97b	-0.19998734
35	0x3e39646f	0.18104719
36	0xbe9ecf05	-0.31017318
37	0x3e1cb656	0.1530393
38	0xbdf0b915	-0.117540516
39	0xbe41437a	-0.18873397
40	0xbda71894	-0.08158985
41	0x3e87816c	0.2646593
42	0xbef3153f	-0.47477147
43	0xbdeb8986	-0.1150084
44	0xbdc42dae	-0.09579025
45	0xbe09f456	-0.13472113
46	0x3eef3065	0.4671661
47	0xbea2ef11	-0.31823018
48	0xbe590e4c	-0.2119686
49	0xbe69a4b9	-0.22816743
50	0x3e0f6244	0.14002329
51	0xbeb72318	-0.35768962
52	0x3e3f364b	0.18673055
53	0xbe315c4f	-0.17320369
54	0x3d974451	0.07386077
55	0xbde2b096	-0.11068837
56	0xbec8651d	-0.39139643
57	0xbe8b2614	-0.2717749
58	0xbe92c73c	-0.2866763
59	0xbe9897a3	-0.2980319
60	0x3ec8241f	0.39090058
61	0x3e9d7622	0.3075419
62	0x3e8183b8	0.25295806
63	0xbd9bee0a	-0.07613762
64	0x3ee4fb18	0.4472282
65	0xbdc78d22	-0.09743716
66	0xbe022dd9	-0.12712802
67	0xbe346f8a	-0.17620674
68	0x3e85f0b1	0.26160195
69	0x3e6211d2	0.2207711
70	0xbe24be6e	-0.16088268
71	0xbe8d225d	-0.2756528
72	0x3e564704	0.20925528
73	0x3e30353c	0.17207807
74	0xbec39d0f	-0.38205764
75	0x3e7dd031	0.2478645
76	0xbe8eec0e	-0.2791447
77	0xbdb35f1d	-0.08758376
78	0x3e3ae896	0.18252787
79	0xbe88e62f	-0.26738116
80	0xbeed5a41	-0.4635792
81	0xbef1d571	-0.47233155
82	0x3e0b5a1c	0.13608593
83	0x3da6c898	0.08143729
84	0x3bcfebb7	0.006345238
85	0x3e783043	0.2423716
86	0x3e050179	0.12988843
87	0x3e537bdb	0.20652716
88	0xbeaa13b0	-0.33218145
89	0xbe1e5e09	-0.15465559
90	0xbe5e8e80	-0.21734047
91	0x3dde0abc	0.10841891
92	0xbea3e7c4	-0.3201276
93	0x3e3c1d5e	0.18370578
94	0xbeb03337	-0.34414074
95	0xbec0288c	-0.37530935
96	0xbebe34e8	-0.3714974
97	0xbdd2cea4	-0.1029332
98	0xbe8390ee	-0.2569651
99	0xbead0b8c	-0.33797872
100	0x3ea53a7f	0.3227119
101	0xbe117d6a	-0.14207998
102	0xbe8a977f	-0.27068707
103	0x3ea6bfed	0.32568303
104	0x3e95f69e	0.29289716
105	0xbeaf807e	-0.3427772
106	0x3eb85b19	0.36007002
107	0xbe21391a	-0.15744439
108	0x3e1a8e99	0.15093459
109	0xbe28808d	-0.16455288
110	0xbea1fa97	-0.31636497
111	0x3eaa5abe	0.33272356
112	0x3e5a5fcc	0.21325606
113	0x3e5627b0	0.20913577
114	0x3e01ad58	0.12663782
115	0xbeaf7d30	-0.34275198
116	0x3e6553ec	0.22395295
117	0xbe92bbad	-0.2865881
118	0xbee91186	-0.45521182
119	0xbe271a8b	-0.16318719
120	0xbe46b6c6	-0.1940566
121	0xbeaf29d8	-0.34211612
122	0xbdde3bcf	-0.10851251
123	0xbe44a053	-0.19201784
124	0xbe3f57f4	-0.18685895
125	0x3e342c86	0.1759511
126	0xbe45d630	-0.19319987
127	0x3e16aea2	0.14715055
128	0x3e69fa55	0.228494
129	0xbea9bbc0	-0.33151054
130	0xbe9efa47	-0.3105032
131	0x3e2520a5	0.16125734
132	0xbed14e6e	-0.4088015
133	0xbe70f515	-0.23530991
134	0xbea25356	-0.31704205
135	0x3e2b9c1f	0.16758774
136	0x3e150539	0.14552774
137	0xbec025f7	-0.37528965

batchnorm1.running_var f4 [138]
0	0x3e7773c5	0.24165256
1	0x3e6f5c65	0.2337509
2	0x3e6fd50f	0.23421119
3	0x3ee57c6c	0.4482149
4	0x3e2e604d	0.17028923
5	0x3e158406	0.14601144
6	0x3e80b42d	0.25137463
7	0x3ee802fe	0.45314783
8	0x3ebc908a	0.36829025
9	0x3f210588	0.62899065
10	0x3f26a8aa	0.6510111
11	0x3dc87ac4	0.09789041
12	0x3e823571	0.25431398
13	0x3e42a8ba	0.19009677
14	0x3e826ab0	0.2547202
15	0x3f5ac5c7	0.85458034
16	0x3e210ba2	0.15727094
17	0x3f195d28	0.5990777
18	0x3e9ed80f	0.31024215
19	0x3ebf6f37	0.37389538
20	0x3f69b72e	0.91295135
21	0x3e36c434	0.17848283
22	0x3e425527	0.18977796
23	0x3efc5a96	0.49287862
24	0x3e6a38ef	0.22873281
25	0x3f35f685	0.71079284
26	0x3f294488	0.66120195
27	0x3f2f678e	0.68517387
28	0x3ed87c44	0.42282307
29	0x3e95c0d0	0.29248667
30	0x3e439635	0.19100268
31	0x3e84e504	0.25955975
32	0x3ee6d6e4	0.45085824
33	0x3f0e304d	0.5554245
34	0x3ed7e1a7	0.42164347
35	0x3db6f2ac	0.08933005
36	0x3eabb93f	0.3353977
37	0x3efff5f6	0.4999234
38	0x3e92e882	0.28693014
39	0x3e27da63	0.16391902
40	0x3e38a2a0	0.18030787
41	0x3d7ca452	0.061680146
42	0x3e7da428	0.24769652
43	0x3ee6fae2	0.45113283
44	0x3f1fd6f5	0.62437373
45	0x3ee9b2cf	0.45644233
46	0x40252c4d	2.580829
47	0x3e8b0cb8	0.2715814
48	0x3e99d1a2	0.3004275
49	0x3ec0902c	0.37609994
50	0x3f5e4cd8	0.86836004
51	0x3dd8b4ed	0.10581384
52	0x3fac72ca	1.3472531
53	0x3e85b6b3	0.2611595
54	0x3ef0efe2	0.47058016
55	0x3e923b94	0.2856108
56	0x3e0f0e63	0.13970332
57	0x3ed7c146	0.42139643
58	0x3dd9f885	0.106431045
59	0x3e9b903b	0.30383477
60	0x3e166947	0.14688598
61	0x3e1c4f27	0.15264569
62	0x3e5273d8	0.20552003
63	0x3e7e4694	0.24831611
64	0x3fedd90b	1.8581861
65	0x3f106346	0.5640148
66	0x3f15ccfc	0.58515906
67	0x3e8fc743	0.28081712
68	0x3e05cbcb	0.13066022
69	0x3ea61302	0.32436377
70	0x3e9e4d04	0.30918133
71	0x3ea7bbd9	0.32760504
72	0x3ea82b86	0.32845706
73	0x3fd01652	1.6256812
74	0x3dc148fa	0.09437747
75	0x3f0becf6	0.5465845
76	0x3ef2dad2	0.47432572
77	0x3f1f5d80	0.62252045
78	0x3d9a2f36	0.07528536
79	0x3e09c533	0.13454132
80	0x3dfdaa00	0.123859406
81	0x3e464e39	0.19365777
82	0x3e79e2d6	0.24402937
83	0x3f1597e8	0.58434916
84	0x3eb7ffa0	0.35937214
85	0x3e19b744	0.15011317
86	0x3e21ddc9	0.1580726
87	0x3f77cdfc	0.9679868
88	0x3e3f04d6	0.18654189
89	0x3eb5a210	0.35475206
90	0x3e6545ac	0.22389859
91	0x4013f280	2.311676
92	0x3e94cb1c	0.2906121
93	0x3e7ee206	0.24890909
94	0x3e732722	0.23745397
95	0x3e6b50c0	0.22980022
96	0x3ed40206	0.41407794
97	0x3eda0d52	0.42588288
98	0x3e913205	0.28358474
99	0x3e6f3b74	0.23362523
100	0x3e47c464	0.19508511
101	0x3ebc4b3f	0.36776158
102	0x3e8a186d	0.2697176
103	0x3dccee4e	0.100063905
104	0x3e4af191	0.19818713
105	0x3e1b27ed	0.15151949
106	0x3f8ea80d	1.1145035
107	0x3e9d6fad	0.30749264
108	0x3e06f9e5	0.13181265
109	0x3e5b001e	0.21386763
110	0x3e6bbdaa	0.2302157
111	0x3da7c8ae	0.081925735
112	0x401b6964	2.4283075
113	0x3e446b1a	0.19181481
114	0x3e49f3ea	0.19721952
115	0x3ee44eb7	0.44591305
116	0x3e531451	0.20613219
117	0x3eb683c8	0.35647416
118	0x3e5027bb	0.20327656
119	0x3e73aab1	0.23795582
120	0x3edc723f	0.43055913
121	0x3e6b2280	0.2296238
122	0x3eb1df15	0.3474051
123	0x3f06963f	0.5257301
124	0x3e6fdd98	0.23424375
125	0x3dbbf815	0.09178177
126	0x3f02b7c8	0.5106168
127	0x3ea59d95	0.32346788
128	0x3d83d6c2	0.06437446
129	0x3ea9395e	0.3305158
130	0x3e39d771	0.1814859
131	0x3e20f698	0.15719068
132	0x3e3100a1	0.17285396
133	0x3df00ace	0.11720811
134	0x3e8e5aaa	0.27803546
135	0x3e28a02d	0.16467352
136	0x3eb268dc	0.34845626
137	0x3e374edf	0.1790118

fc2.weight f4 [69, 138]
0	0xbdcd497f	-0.10023784
1	0xbdf25d81	-0.11834241
2	0xbd7bb31a	-0.0614501
3	0x3dec2763	0.1153095
4	0xbd8866f0	-0.06660259
5	0x3cc2833b	0.023744216
6	0x3dbaae0c	0.09115228
7	0xbcde3508	-0.027124897
8	0x3ddcf574	0.10789004
9	0x3cc7fcbf	0.02441251
10	0x3d2e304b	0.042526525
11	0xbdbe1f53	-0.09283318
12	0x3c548d0a	0.012973079
13	0xbdc4bb6c	-0.096060604
14	0x3d98712c	0.07443461
15	0x3da2118e	0.079135045
16	0xbc96263b	-0.018328777
17	0x3dd9caef	0.1063441
18	0x3d3aa4e0	0.045567393
19	0xba2b44e6	-0.0006533399
20	0xbdb9f4ce	-0.09079896
21	0xbccfa3e1	-0.025346698
22	0x3d0fff51	0.035155598
23	0xbdd50a52	-0.10402359
24	0x3dd8287c	0.10554597
25	0xbda00290	-0.07812989
26	0xbd832bf6	-0.06404869
27	0xbc0409b0	-0.00805895
28	0x3ccd42bb	0.025056234
29	0xbd9ba247	-0.07599311
30	0x3e0b01d3	0.13574915
31	0x3c0f5844	0.0087490715
32	0x3cc3c4ab	0.02389749
33	0x3ba432a9	0.005010922
34	0x3cb811d7	0.022469444
35	0xbda61663	-0.08109739
36	0x3e078aba	0.13236514
37	0xbd518f54	-0.05116208
38	0xbcdc46c5	-0.026889214
39	0x3df079bf	0.11741971
40	0xbc617c00	-0.013762474
41	0xbd97a81e	-0.07405113
42	0x3ce29826	0.02766044
43	0xbd32947a	-0.04359863
44	0x3cad4629	0.021151619
45	0xbd17135d	-0.0368837
46	0xbdf1f127	-0.11813574
47	0x3c9d2120	0.019180834
48	0xbc9cb25b	-0.019128015
49	0xbcbd568c	-0.023112558
50	0xbc65e4d9	-0.014031612
51	0xba854a72	-0.0010169281
52	0xbd12a97e	-0.03580617
53	0x3d2afc3c	0.041744456
54	0xbd6bf34d	-0.057605077
55	0x3dbb395a	0.09141798
56	0x3dbe2a58	0.0928542
57	0x3d567760	0.05235994
58	0x3dd0a0f0	0.101869464
59	0x3e0da142	0.13831046
60	0xbdd2cefd	-0.10293386
61	0xbd43f171	-0.04783768
62	0x3c9f7748	0.019466057
63	0x3d9dc9a1	0.07704473
64	0xbde2b791	-0.11070169
65	0x3da69368	0.08133584
66	0xbd4111b4	-0.047136024
67	0xbba35318	-0.004984271
68	0xbdcafbd8	-0.09911317
69	0xbd9dd46a	-0.077065304
70	0x3db4e45b	0.08832618
71	0x3df8b168	0.121432126
72	0x3c250083	0.010070923
73	0xbdf8020a	-0.12109764
74	0xbbedf63d	-0.00726202
75	0xbd830d3d	-0.063990094
76	0x3da6363f	0.08115815
77	0x3b566ffa	0.0032720552
78	0xbc51f47f	-0.01281464
79	0x3dd3e952	0.10347237
80	0x3da3312f	0.079683654
81	0x3c8edadc	0.017438345
82	0xbde019f7	-0.109424524
83	0x3ce0978a	0.02741601
84	0xbc99da30	-0.018780798
85	0xbc2be278	-0.010491006
86	0xbde17cd4	-0.11010137
87	0xbd28d562	-0.041219123
88	0x3de961ec	0.1139563
89	0xbd6c24ab	-0.057652157
90	0x3b993c59	0.0046763835
91	0xbd6c1b28	-0.057643086
92	0x3d14955b	0.03627525
93	0xbb0f614d	-0.0021878064
94	0x3d9aa6ce	0.07551347
95	0x3d5832e6	0.052782916
96	0x3dd2329e	0.10263561
97	0xbd590098	-0.052979082
98	0x3dd9e7e8	0.10639936
99	0x3d3255c3	0.04353882
100	0xbdf06743	-0.117384456
101	0x3d981ec1	0.07427741
102	0x3dae8b0b	0.08522614
103	0xbbe92705	-0.007115247
104	0xbda3388b	-0.07969769
105	0x3bca0a3a	0.00616577
106	0x3c0329e7	0.008005596
107	0x3ae2bfda	0.0017299608
108	0xbd7e7189	-0.062119994
109	0xbc2e04d0	-0.010621265
110	0x3d4fea86	0.05076077
111	0xbd9b4218	-0.07580966
112	0xbdb2e3e0	-0.0873487
113	0x3c85a4ac	0.016313873
114	0xbd8ba967	-0.0681942
115	0x3e01cfc8	0.12676919
116	0xbc28c735	-0.010301401
117	0xbcae4276	-0.021271925
118	0x3dfed09b	0.12442132
119	0x3de2b3e8	0.11069471
120	0xbc656752	-0.014001684
121	0x3db80abc	0.089864224
122	0xbc2aca5a	-0.010424221
123	0x3be0cd35	0.0068604
124	0x3dbdfd93	0.09276881
125	0xbe051359	-0.12995662
126	0x3d6370eb	0.05552761
127	0xbc4924f5	-0.012276878
128	0xbdd553bd	-0.104163624
129	0x3d4f12d4	0.050555065
130	0x3d5f7d40	0.054562807
131	0xbd6810eb	-0.05665676
132	0xbb9ccfa8	-0.0047854967
133	0x3e01cdf1	0.12676217
134	0x3d271e9e	0.040800683
135	0xbd82cf94	-0.06387249
136	0xbdac3477	-0.084084444
137	0xbcdf74d6	-0.027277391
138	0x3d272522	0.040806897
139	0x3df09b1d	0.117483355
140	0x3c3b2c56	0.011424145
141	0x3d2c8785	0.04212143
142	0x3c5160c6	0.01277942
143	0xbdb229b1	-0.08699358
144	0x3a9c0e0c	0.0011906042
145	0xbdb5fcac	-0.08886084
146	0x3c9b5c06	0.018964779
147	0x3d1ecc67	0.038769152
148	0xbcfe7bec	-0.03106495
149	0x3d414668	0.047186285
150	0xbe0b3483	-0.1359425
151	0x3c3c6088	0.011497624
152	0xbd35250e	-0.04422479
153	0x3ab28727	0.0013620601
154	0x3d9495f6	0.07255165
155	0xbdd36787	-0.10322481
156	0xbd647b84	-0.055781856
157	0xbdb13cd7	-0.086541824
158	0x3dce2a98	0.10066718
159	0x3da07903	0.07835581
160	0xbd3ed332	-0.04658813
161	0x3deff099	0.11715812
162	0x3c7d3efb	0.01545691
163	0x3d9e7c9e	0.077386126
164	0x3c610f1d	0.013736513
165	0xbc173a0b	-0.009230147
166	0xbd3fb920	-0.04680741
167	0x3e030379	0.12794293
168	0xbdfebbe3	-0.1243818
169	0xbd033a66	-0.032038115
170	0xbdea5c48	-0.114433825
171	0x3dbfe197	0.093692
172	0x3ca65c25	0.02030761
173	0x3e05398d	0.13010235
174	0xbdb85371	-0.0900029
175	0x3ce173d9	0.02752106
176	0xbdb23358	-0.08701199
177	0xbc152065	-0.009101962
178	0x3ccade34	0.024764158
179	0x3d4a5900	0.049401283
180	0xbd786af9	-0.060648892
181	0xbdcaaf12	-0.09896673
182	0xbc85e1bb	-0.016342988
183	0xbe056cd3	-0.13029794
184	0x3b9d0670	0.004792027
185	0xbc3eb60b	-0.011640082
186	0xbd9c4094	-0.07629505
187	0xbda77356	-0.081762955
188	0xbc93d2ee	-0.018044915
189	0xbd28914a	-0.041154183
190	0x3d971a9b	0.073781215
191	0xbd68f960	-0.056878448
192	0xbb80a6cf	-0.003926135
193	0x3cc8da2e	0.024518099
194	0x3cc4ec1e	0.02403837
195	0x3d0a1e45	0.033720274
196	0xbdf7a2bf	-0.12091588
197	0x3cfccc6b	0.030859193
198	0x3dfe4822	0.12416102
199	0x3ceb5b4a	0.028730053
200	0x3d7c5710	0.061606467
201	0x3d0d0759	0.034430835
202	0x3cef4b62	0.02921075
203	0x3c95d5f5	0.0182905
204	0xbdcc7e3e	-0.09985016
205	0x3d27c5a0	0.040959954
206	0x3de90c87	0.113793425
207	0x3d014a6a	0.031565107
208	0xbc9be60f	-0.019030599
209	0xbdd9fd26	-0.10643987
210	0x3dd84c4d	0.10561428
211	0x3db4266b	0.0879639
212	0xbda75421	-0.08170343
213	0x3ba9d1f9	0.0051825014
214	0xbd3a0f99	-0.04542503
215	0x3d267c22	0.040645726
216	0x3dd52437	0.10407298
217	0x3c8191a1	0.015816512
218	0xbd8d3bc9	-0.06896169
219	0xbdec748d	-0.11545668
220	0x3d863237	0.065525465
221	0x3d87b671	0.06626595
222	0x3d5b3014	0.053512648
223	0xbcd13f72	-0.025542948
224	0x3bcf1204	0.0063192863
225	0x3db5d3d1	0.088782914
226	0xbdd2008a	-0.10254009
227	0xbdb06f64	-0.08614996
228	0x3bd740e5	0.0065690153
229	0x3c84ce7c	0.01621174
230	0xbe0c17fd	-0.13681026
231	0x3cba74fd	0.022760862
232	0xbc23b78d	-0.009992492
233	0xbdf97165	-0.121798314
234	0xbd1db728	-0.03850475
235	0xbcff9ac2	-0.031201724
236	0x3c4bd5b8	0.012441091
237	0xbd96d594	-0.073649555
238	0x3c8c167b	0.017100563
239	0x3b8ce509	0.004299764
240	0xbcb34535	-0.021883586
241	0x3d156ad5	0.036478836
242	0xbcca6eaf	-0.024710981
243	0x3ccdd082	0.025123838
244	0x3d93bd0c	0.07213792
245	0xbdc21f26	-0.09478597
246	0x3dbb6d58	0.09151715
247	0xbdf1538f	-0.11783516
248	0xbd801935	-0.06254808
249	0x3e0890d2	0.13336495
250	0x3d07a425	0.033115525
251	0x3ddee3a7	0.10883265
252	0x3d1b4350	0.03790599
253	0xbdd69892	-0.10478319
254	0x3cae1ec4	0.021254905
255	0xbc89e136	-0.016831022

batchnorm2.weight f4 [69]
0	0x3f800000	1.0
1	0x3f800000	1.0
2	0x3f800000	1.0
3	0x3f800000	1.0
4	0x3f800000	1.0
5	0x3f800000	1.0
6	0x3f800000	1.0
7	0x3f800000	1.0
8	0x3f800000	1.0
9	0x3f800000	1.0
10	0x3f800000	1.0
11	0x3f800000	1.0
12	0x3f800000	1.0
13	0x3f800000	1.0
14	0x3f800000	1.0
15	0x3f800000	1.0
16	0x3f800000	1.0
17	0x3f800000	1.0
18	0x3f800000	1.0
19	0x3f800000	1.0
20	0x3f800000	1.0
21	0x3f800000	1.0
22	0x3f800000	1.0
23	0x3f800000	1.0
24	0x3f800000	1.0
25	0x3f800000	1.0
26	0x3f800000	1.0
27	0x3f800000	1.0
28	0x3f800000	1.0
29	0x3f800000	1.0
30	0x3f800000	1.0
31	0x3f800000	1.0
32	0x3f800000	1.0
33	0x3f800000	1.0
34	0x3f800000	1.0
35	0x3f800000	1.0
36	0x3f800000	1.0
37	0x3f800000	1.0
38	0x3f800000	1.0
39	0x3f800000	1.0
40	0x3f800000	1.0
41	0x3f800000	1.0
42	0x3f800000	1.0
43	0x3f800000	1.0
44	0x3f800000	1.0
45	0x3f800000	1.0
46	0x3f800000	1.0
47	0x3f800000	1.0
48	0x3f800000	1.0
49	0x3f800000	1.0
50	0x3f800000	1.0
51	0x3f800000	1.0
52	0x3f800000	1.0
53	0x3f800000	1.0
54	0x3f800000	1.0
55	0x3f800000	1.0
56	0x3f800000	1.0
57	0x3f800000	1.0
58	0x3f800000	1.0
59	0x3f800000	1.0
60	0x3f800000	1.0
61	0x3f800000	1.0
62	0x3f800000	1.0
63	0x3f800000	1.0
64	0x3f800000	1.0
65	0x3f800000	1.0
66	0x3f800000	1.0
67	0x3f800000	1.0
68	0x3f800000	1.0

batchnorm2.bias f4 [69]
0	0x00000000	0.0
1	0x00000000	0.0
2	0x00000000	0.0
3	0x00000000	0.0
4	0x00000000	0.0
5	0x00000000	0.0
6	0x00000000	0.0
7	0x00000000	0.0
8	0x00000000	0.0
9	0x00000000	0.0
10	0x00000000	0.0
11	0x00000000	0.0
12	0x00000000	0.0
13	0x00000000	0.0
14	0x00000000	0.0
15	0x00000000	0.0
16	0x00000000	0.0
17	0x00000000	0.0
18	0x00000000	0.0
19	0x00000000	0.0
20	0x00000000	0.0
21	0x00000000	0.0
22	0x00000000	0.0
23	0x00000000	0.0
24	0x00000000	0.0
25	0x00000000	0.0
26	0x00000000	0.0
27	0x00000000	0.0
28	0x00000000	0.0
29	0x00000000	0.0
30	0x00000000	0.0
31	0x00000000	0.0
32	0x00000000	0.0
33	0x00000000	0.0
34	0x00000000	0.0
35	0x00000000	0.0
36	0x00000000	0.0
37	0x00000000	0.0
38	0x00000000	0.0
39	0x00000000	0.0
40	0x00000000	0.0
41	0x00000000	0.0
42	0x00000000	0.0
43	0x00000000	0.0
44	0x00000000	0.0
45	0x00000000	0.0
46	0x00000000	0.0
47	0x00000000	0.0
48	0x00000000	0.0
49	0x00000000	0.0
50	0x00000000	0.0
51	0x00000000	0.0
52	0x00000000	0.0
53	0x00000000	0.0
54	0x00000000	0.0
55	0x00000000	0.0
56	0x00000000	0.0
57	0x00000000	0.0
58	0x00000000	0.0
59	0x00000000	0.0
60	0x00000000	0.0
61	0x00000000	0.0
62	0x00000000	0.0
63	0x00000000	0.0
64	0x00000000	0.0
65	0x00000000	0.0
66	0x00000000	0.0
67	0x00000000	0.0
68	0x00000000	0.0

batchnorm2.running_mean f4 [69]
0	0xbfb1bf3b	-1.3886484
1	0x3fe0e8d3	1.7571052
2	0x3fe8cb59	1.8187057
3	0x3ff8b370	1.942976
4	0xbfb079ec	-1.3787208
5	0x3ffdea7e	1.9837186
6	0xbf9cfc35	-1.2264467
7	0x3ff4159c	1.9069095
8	0x3ff7d65b	1.9362291
9	0x400899b7	2.134382
10	0x3fe2958a	1.7701886
11	0x3fe3d51c	1.7799411
12	0xbf9e6caa	-1.2376912
13	0x3fe4aeab	1.7865804
14	0xbfa37848	-1.2771082
15	0xbfaa543f	-1.330696
16	0xbfa49f08	-1.2861032
17	0xbfa01052	-1.250498
18	0xbfac134f	-1.3443393
19	0xbf9fb1fd	-1.2476193
20	0xbfa97794	-1.3239617
21	0x3fe95490	1.8228931
22	0xbfa095fa	-1.2545769
23	0x3ff6fe8d	1.9296433
24	0xbfa0ffb4	-1.2578034
25	0xbfa259d6	-1.2683666
26	0xbf9efcb7	-1.2420872
27	0x3fb23ff2	1.3925765
28	0x3ff7b593	1.9352287
29	0x3fced95e	1.6160085
30	0xbfab2748	-1.3371363
31	0xbfa3f70c	-1.2809768
32	0xbfa7b9ad	-1.3103539
33	0xbf9f120a	-1.242738
34	0xbfa98687	-1.324418
35	0x3ff01721	1.8757058
36	0xbf9efa5f	-1.2420157
37	0x3ffe4603	1.9865116
38	0x3ff579b3	1.9177765
39	0x3fca0e67	1.5785645
40	0xbfa49392	-1.2857535
41	0xbfa5c0c4	-1.2949452
42	0xbfade6d1	-1.3586065
43	0xbfaa0bcf	-1.3284854
44	0xbfa09858	-1.2546492
45	0xbfa5f424	-1.2965131
46	0x3fe0a61f	1.7550696
47	0x3fec4ff0	1.8461895
48	0x3fe009f9	1.7503043
49	0xbf9f4582	-1.2443087
50	0x400951e7	2.145624
51	0x3fe4276a	1.7824528
52	0xbfa3bdae	-1.2792261
53	0x3fd4bf0c	1.6620803
54	0x3feb024b	1.8360075
55	0xbfa93069	-1.3217899
56	0x3fe118bc	1.7585673
57	0xbfa709b7	-1.304984
58	0xbfad8a17	-1.3557767
59	0x3fe38aa0	1.777668
60	0xbfa68606	-1.3009651
61	0xbf9fa3b8	-1.2471838
62	0xbfa5bf4f	-1.2949008
63	0x3ffa6206	1.9561164
64	0xbfa46863	-1.2844356
65	0xbfa0facc	-1.2576537
66	0xbfa6b053	-1.302256
67	0x3fcf90d8	1.6216078
68	0xbfa7e9e9	-1.3118259

batchnorm2.running_var f4 [69]
0	0x3d10daa6	0.03536477
1	0x3f259f8d	0.6469658
2	0x3f3c0fbc	0.7346151
3	0x3f8511de	1.0396078
4	0x3d1c2ded	0.038129736
5	0x3f97775d	1.1833302
6	0x3d8a0e40	0.06740999
7	0x3f85ae02	1.0443728
8	0x3f8c578b	1.0964216
9	0x3f4ad140	0.7922554
10	0x3f7dc1d6	0.99123895
11	0x3f9868cc	1.1906981
12	0x3d8ff279	0.0702867
13	0x3f4a225f	0.78958696
14	0x3d32c0f4	0.043641046
15	0x3d788f70	0.060683668
16	0x3e01947d	0.126543
17	0x3d427376	0.047473393
18	0x3d3f03ed	0.046634603
19	0x3d80025e	0.062504515
20	0x3d6e6847	0.058204915
21	0x3f4571c2	0.77126706
22	0x3d683c65	0.05669822
23	0x3f8335b7	1.0250767
24	0x3d7963aa	0.060886063
25	0x3d4383b1	0.047733013
26	0x3d55cd6a	0.05219785
27	0x3ef9879f	0.48736283
28	0x3f726086	0.94678533
29	0x3f45fad1	0.7733584
30	0x3d1b725b	0.037950855
31	0x3d84ac5a	0.06478186
32	0x3d0f196c	0.034936354
33	0x3d3d4482	0.046207912
34	0x3d0ca07b	0.034332734
35	0x3fb2ee4c	1.3978972
36	0x3d9446c7	0.07240062
37	0x3f8ddbd0	1.1082706
38	0x3fab01a6	1.3359878
39	0x3f3a7c04	0.7284548
40	0x3d0bd9c7	0.034143236
41	0x3d38a030	0.04507464
42	0x3d5d3d23	0.054013383
43	0x3d044be3	0.032298934
44	0x3dc92be6	0.09822826
45	0x3d24aed0	0.040205777
46	0x3f26085c	0.64856505
47	0x3f6b881f	0.9200458
48	0x3f4518b5	0.76990825
49	0x3dc07845	0.093979396
50	0x3fb1d07e	1.3891752
51	0x3f493d6c	0.7860935
52	0x3d613039	0.05497763
53	0x3f87d53f	1.0611953
54	0x3f19e670	0.60117245
55	0x3d265190	0.040605128
56	0x3f38559f	0.7200565
57	0x3d3312c0	0.043719053
58	0x3d881472	0.06644525
59	0x3fc9eaa3	1.577473
60	0x3d120bd4	0.03565581
61	0x3d52dd49	0.051480565
62	0x3d292bcb	0.04130153
63	0x3f49ca75	0.7882455
64	0x3d1fb71f	0.038992997
65	0x3d6652e1	0.056231383
66	0x3d8d37b2	0.06895389
67	0x3f5294bb	0.82258195
68	0x3d2f6997	0.042825308

fc3.weight f4 [46, 69]
0	0xbdad5c92	-0.08464922
1	0x3dd77a57	0.10521381
2	0xbb603473	-0.003421095
3	0x3e2cd2c0	0.1687727
4	0xbe05ac7a	-0.13054076
5	0x3e3d3d0f	0.18480323
6	0xbc93429b	-0.017976096
7	0x3e272b7c	0.16325182
8	0x3c591154	0.01324876
9	0x3e302b8a	0.17204109
10	0x3e11a80b	0.1422426
11	0x3e2b7214	0.16742736
12	0xbdeccba6	-0.1156228
13	0x3ca703c1	0.020387532
14	0xbe13ab67	-0.14420854
15	0xbe3a703e	-0.1820688
16	0xbe10d8f8	-0.14145267
17	0xbcf85814	-0.030315436
18	0xbcb97cb5	-0.022642473
19	0x3cb06b72	0.021535609
20	0xbe04d47a	-0.12971678
21	0xbd4ac7d0	-0.049506962
22	0xbdb1072d	-0.08643947
23	0x3e2ccba4	0.16874558
24	0x3c1ad9c6	0.009451335
25	0xbd1d1b1e	-0.03835594
26	0xbd13e7ff	-0.03610992
27	0x3e1512c4	0.1455794
28	0x3e291a9f	0.16514061
29	0x3e22f78a	0.15914741
30	0xbe1adbac	-0.1512286
31	0xbd934f36	-0.07192843
32	0x3b28efeb	0.0025777768
33	0xbcc38320	-0.023866236
34	0x3cd7a12d	0.026321972
35	0x3d46e702	0.04856015
36	0x3cf3b6a9	0.029750185
37	0x3e19fe75	0.15038474
38	0x3cdb042e	0.026735391
39	0xbd45da2e	-0.048303775
40	0xbdbd338a	-0.09238346
41	0xbd6af559	-0.057362888
42	0xbe066497	-0.1312431
43	0xbe00a28a	-0.12562004
44	0x3d15748e	0.03648811
45	0x3cb4801f	0.02203375
46	0x3dd8ebad	0.105918266
47	0x3dc25ee0	0.09490752
48	0xbd050257	-0.032472935
49	0xbe0a57c6	-0.13510045
50	0x3da48e91	0.08035005
51	0x3df8f521	0.1215613
52	0xbe190c35	-0.14946063
53	0x3bb2691a	0.005444658
54	0x3db678d6	0.089097664
55	0x3c568b02	0.0130946655
56	0x3c59fcdb	0.013304914
57	0xbe3a9868	-0.18222201
58	0x3ce14cbf	0.027502416
59	0xbb86b189	-0.0041105193
60	0xbd5081dd	-0.050905097
61	0x3cf67ee4	0.030089803
62	0x3c990739	0.018680202
63	0xbc426a14	-0.011866111
64	0xbbd92530	-0.0066267475
65	0xbce797b7	-0.028270585
66	0xbdab596e	-0.08366667
67	0x3dfaea60	0.12251735
68	0xbe22e776	-0.15908608
69	0xbd8e6487	-0.06952768
70	0xbcbbb1f6	-0.022912007
71	0xbd99beb8	-0.0750708
72	0x3bf6d786	0.0075330166
73	0x3d9f2d5f	0.07772326
74	0x3d0a170c	0.033713385
75	0x3c1f6e4b	0.009730886
76	0x3d9e9107	0.077425055
77	0x3d6f297c	0.058389172
78	0x3c3eb87c	0.011640664
79	0xbd929be9	-0.07158644
80	0xbd82ad9e	-0.06380771
81	0x3da14db8	0.07876152
82	0xbdec9afc	-0.115529984
83	0x3e0c7315	0.13715775
84	0x3e16e38c	0.1473524
85	0x3d82083d	0.063492276
86	0x3d95b127	0.0730918
87	0xbd8dcc71	-0.0692376
88	0x3d3632af	0.04448193
89	0x3e10236c	0.14076012
90	0xbe1bc45a	-0.15211621
91	0x3da46750	0.08027518
92	0xbde9e9f9	-0.1142158
93	0x3d1e3293	0.03862245
94	0x3e0d5402	0.13801578
95	0x3e12c9cf	0.14334796
96	0xbdb1b5a2	-0.08677222
97	0x3d3b8481	0.045780662
98	0x3cacc198	0.021088406
99	0x3b500dc8	0.0031746496
100	0xbb61d57a	-0.0034459517
101	0x3df1a731	0.11799467
102	0x3e05e433	0.13075332
103	0x3d5e1419	0.054218385
104	0xbe0d0fec	-0.13775605
105	0xbca9c97b	-0.020725956
106	0x3d54d4c6	0.05196073
107	0x3d43ff1e	0.04785072
108	0xbdca47f1	-0.09877003
109	0x3d8d9e01	0.069149025
110	0x3d4edf94	0.05050619
111	0x3d4b8b19	0.0496932
112	0x3d861228	0.06546432
113	0xbd81d7c2	-0.06339981
114	0x3b6a50c6	0.003575371
115	0xbd68c227	-0.056825783
116	0x3d2cb718	0.0421668
117	0xbe035cc4	-0.12828356
118	0x3e189d09	0.14903654
119	0x3d3c5dbd	0.045987833
120	0xbd9d4fb4	-0.07681218
121	0xbd35d568	-0.044392973
122	0xbdb9a869	-0.09065325
123	0x3d2048ce	0.039131932
124	0x3d6cc48f	0.05780464
125	0xbe0b3c78	-0.13597286
126	0xbb3ccba1	-0.0028807896
127	0x3dc4b657	0.09605091
128	0x39313315	0.00016899065
129	0x3de3d2df	0.11124205
130	0x3d05ff1f	0.032714006
131	0x3dec3e25	0.11535291
132	0xbe0ba3fb	-0.13636772
133	0x3d24f3c3	0.04027153
134	0x3b2952ae	0.0025836634
135	0x3d3ccb3d	0.04609226
136	0xbdd7fda6	-0.105464265
137	0xbdb00291	-0.085942395
138	0x3dc7e075	0.09759609
139	0xbd7d52e8	-0.061846644
140	0xbd2924b9	-0.041294787
141	0x3d71e69d	0.05905782
142	0x3c68aa88	0.014200814
143	0x3cdadff3	0.026718115
144	0x3dd8cf56	0.10586421
145	0xbd5ad8b8	-0.053429335
146	0xbd88c90e	-0.06678973
147	0xbddb40ef	-0.107057445
148	0xbdf9d235	-0.12198297
149	0xbb92a0f8	-0.0044747554
150	0xbc578906	-0.0131552275
151	0x3d1252be	0.03572344
152	0x3dafd4da	0.0858552
153	0x3c49b394	0.012310881
154	0xbb1e3719	-0.0024141727
155	0x3ca71871	0.020397397
156	0xbd330945	-0.043710012
157	0x3d4feca1	0.050762776
158	0x3e1fa038	0.15588462
159	0xbe1cf0c2	-0.15326217
160	0x3dfc283e	0.12312363
161	0xbdeea807	-0.116531424
162	0x3e008c8c	0.12553614
163	0x3dd77bf9	0.10521693
164	0x3d118bcb	0.035533708
165	0x3c2e400c	0.010635387
166	0xbb9ae25d	-0.0047266916
167	0xbdbdac93	-0.092614315
168	0xbb361f91	-0.002778981
169	0xbc9c2229	-0.019059258
170	0x3d942c5e	0.07235025
171	0x3df2777c	0.11839196
172	0x3de2c8a4	0.110734254
173	0xbd323199	-0.04350433
174	0x3c232d9a	0.009959603
175	0xbe0ab9f5	-0.135475
176	0x3d808864	0.062760144
177	0xbdf3ec31	-0.11910284
178	0xbd18679d	-0.03720819
179	0xbd81ba7a	-0.06334396
180	0xbd82e9bc	-0.063922375
181	0x3d957a71	0.072987445
182	0x3d8080cb	0.06274565
183	0x3d82766e	0.06370245
184	0xbd40d24f	-0.047075566
185	0x3d1b2a81	0.03788233
186	0xbd5100c1	-0.05102611
187	0x3dff5244	0.12466863
188	0xbde42fbb	-0.11141916
189	0xbc82e6ac	-0.015979134
190	0x3ddd1ac1	0.107961185
191	0xbdddea16	-0.10835664
192	0xbe1203a9	-0.14259209
193	0x3b354a86	0.0027662828
194	0xbc776b03	-0.015101197
195	0x3e139456	0.14412054
196	0x3d401fe5	0.046905417
197	0xbddd1909	-0.10795791
198	0x3dfda716	0.12385385
199	0x3d79a947	0.06095245
200	0xba273a61	-0.00063792436
201	0xbde54493	-0.1119472
202	0xbd91261b	-0.07087346
203	0x3d321d90	0.043485224
204	0x3cb9a375	0.02266095
205	0x3c204daa	0.009784142
206	0x3c1ce6ef	0.009576543
207	0xbe0b8544	-0.13625056
208	0x3d0d0243	0.034425985
209	0xbd5d34a6	-0.054005288
210	0xbd3fa72b	-0.046790283
211	0xbdeecb8a	-0.11659916
212	0x3de39ab6	0.11113493
213	0xbd340e88	-0.04395917
214	0x3d226e8c	0.039656207
215	0x3dcc6cec	0.09981713
216	0xbd2c15db	-0.04201303
217	0xbd4de8c0	-0.050270796
218	0x3dbc4acf	0.09193956
219	0x3d6b1db0	0.05740136
220	0x3dcf8574	0.10132876
221	0xbd94823b	-0.07251402
222	0xbded70d9	-0.115937896
223	0xbe014dbc	-0.1262731
224	0xbe2d496c	-0.1692254
225	0xbe2c972e	-0.16854545
226	0xbcf11d3f	-0.029432891
227	0x3c658071	0.014007674
228	0x3e1dd3f3	0.15412883
229	0xbcb2c7ba	-0.021823753
230	0x3e33177a	0.17489424
231	0xbd75ff95	-0.060058195
232	0x3d24d576	0.040242635
233	0xbb6908ed	-0.0035558299
234	0x3e20f5e6	0.15718803
235	0x3cdfc04a	0.02731337
236	0x3c02696e	0.007959707
237	0xbe28155a	-0.16414395
238	0xbd8cc72a	-0.06873925
239	0xbdeac847	-0.11463981
240	0xbe11c20d	-0.14234181
241	0xbe140dc0	-0.1445837
242	0x3db4d548	0.08829743
243	0xbe148ca9	-0.14506783
244	0x3c0286b2	0.007966684
245	0xbd555539	-0.052083228
246	0x3e194478	0.14967525
247	0xbd7caac6	-0.0616863
248	0x3c416a12	0.011805074
249	0xbe00b8b5	-0.1257046
250	0x3d30c98d	0.043160964
251	0xbde9c82c	-0.11415133
252	0xbd3db3eb	-0.04631416
253	0x3e13a0d8	0.14416826
254	0x3d5c8383	0.053836357
255	0x3dccca21	0.099994905

batchnorm3.weight f4 [69]
0	0x3f800000	1.0
1	0x3f800000	1.0
2	0x3f800000	1.0
3	0x3f800000	1.0
4	0x3f800000	1.0
5	0x3f800000	1.0
6	0x3f800000	1.0
7	0x3f800000	1.0
8	0x3f800000	1.0
9	0x3f800000	1.0
10	0x3f800000	1.0
11	0x3f800000	1.0
12	0x3f800000	1.0
13	0x3f800000	1.0
14	0x3f800000	1.0
15	0x3f800000	1.0
16	0x3f800000	1.0
17	0x3f800000	1.0
18	0x3f800000	1.0
19	0x3f800000	1.0
20	0x3f800000	1.0
21	0x3f800000	1.0
22	0x3f800000	1.0
23	0x3f800000	1.0
24	0x3f800000	1.0
25	0x3f800000	1.0
26	0x3f800000	1.0
27	0x3f800000	1.0
28	0x3f800000	1.0
29	0x3f800000	1.0
30	0x3f800000	1.0
31	0x3f800000	1.0
32	0x3f800000	1.0
33	0x3f800000	1.0
34	0x3f800000	1.0
35	0x3f800000	1.0
36	0x3f800000	1.0
37	0x3f800000	1.0
38	0x3f800000	1.0
39	0x3f800000	1.0
40	0x3f800000	1.0
41	0x3f800000	1.0
42	0x3f800000	1.0
43	0x3f800000	1.0
44	0x3f800000	1.0
45	0x3f800000	1.0
46	0x3f800000	1.0
47	0x3f800000	1.0
48	0x3f800000	1.0
49	0x3f800000	1.0
50	0x3f800000	1.0
51	0x3f800000	1.0
52	0x3f800000	1.0
53	0x3f800000	1.0
54	0x3f800000	1.0
55	0x3f800000	1.0
56	0x3f800000	1.0
57	0x3f800000	1.0
58	0x3f800000	1.0
59	0x3f800000	1.0
60	0x3f800000	1.0
61	0x3f800000	1.0
62	0x3f800000	1.0
63	0x3f800000	1.0
64	0x3f800000	1.0
65	0x3f800000	1.0
66	0x3f800000	1.0
67	0x3f800000	1.0
68	0x3f800000	1.0

batchnorm3.bias f4 [69]
0	0x00000000	0.0
1	0x00000000	0.0
2	0x00000000	0.0
3	0x00000000	0.0
4	0x00000000	0.0
5	0x00000000	0.0
6	0x00000000	0.0
7	0x00000000	0.0
8	0x00000000	0.0
9	0x00000000	0.0
10	0x00000000	0.0
11	0x00000000	0.0
12	0x00000000	0.0
13	0x00000000	0.0
14	0x00000000	0.0
15	0x00000000	0.0
16	0x00000000	0.0
17	0x00000000	0.0
18	0x00000000	0.0
19	0x00000000	0.0
20	0x00000000	0.0
21	0x00000000	0.0
22	0x00000000	0.0
23	0x00000000	0.0
24	0x00000000	0.0
25	0x00000000	0.0
26	0x00000000	0.0
27	0x00000000	0.0
28	0x00000000	0.0
29	0x00000000	0.0
30	0x00000000	0.0
31	0x00000000	0.0
32	0x00000000	0.0
33	0x00000000	0.0
34	0x00000000	0.0
35	0x00000000	0.0
36	0x00000000	0.0
37	0x00000000	0.0
38	0x00000000	0.0
39	0x00000000	0.0
40	0x00000000	0.0
41	0x00000000	0.0
42	0x00000000	0.0
43	0x00000000	0.0
44	0x00000000	0.0
45	0x00000000	0.0
46	0x00000000	0.0
47	0x00000000	0.0
48	0x00000000	0.0
49	0x00000000	0.0
50	0x00000000	0.0
51	0x00000000	0.0
52	0x00000000	0.0
53	0x00000000	0.0
54	0x00000000	0.0
55	0x00000000	0.0
56	0x00000000	0.0
57	0x00000000	0.0
58	0x00000000	0.0
59	0x00000000	0.0
60	0x00000000	0.0
61	0x00000000	0.0
62	0x00000000	0.0
63	0x00000000	0.0
64	0x00000000	0.0
65	0x00000000	0.0
66	0x00000000	0.0
67	0x00000000	0.0
68	0x00000000	0.0

batchnorm3.running_mean f4 [69]
0	0x41012e6f	8.073836
1	0xbfdba775	-1.7160479
2	0xbfdcccac	-1.7249961
3	0x40e5e03c	7.1836224
4	0xbfdd4d33	-1.7289184
5	0x40de8f7f	6.9550166
6	0xbfdc54ea	-1.7213414
7	0xbfd9d6e4	-1.7018704
8	0xbfda9f30	-1.707983
9	0x4105418e	8.328505
10	0xbfdc27f2	-1.719969
11	0xbfdbeaec	-1.7181067
12	0x41040e31	8.253465
13	0x41078b9b	8.471583
14	0xbfdb74a5	-1.7144972
15	0x40f7bfb5	7.7421517
16	0xbfdc0cce	-1.7191408
17	0x40f7abd2	7.739724
18	0xbfdd64c0	-1.7296371
19	0xbfdb1d9c	-1.7118411
20	0x410bf7d6	8.748007
21	0xbfdbccce	-1.7171876
22	0xbfddc62b	-1.7326101
23	0xbfdc3894	-1.7204766
24	0x40e977d2	7.2958765
25	0xbfdbf1ca	-1.7183163
26	0x41126b7b	9.15124
27	0xbfdaa74d	-1.7082306
28	0x40dff402	6.998536
29	0x40e78be9	7.235829
30	0xbfda7bb2	-1.7068999
31	0x4107f5eb	8.497539
32	0xbfdcc915	-1.7248865
33	0x40e706e7	7.2195926
34	0xbfdb2cfd	-1.7123104
35	0x40fcedbe	7.9040213
36	0xbfdbdfe6	-1.7177703
37	0xbfdcf49f	-1.7262152
38	0x40fa4d2c	7.8219204
39	0x410593a2	8.348543
40	0x40ea9459	7.330609
41	0xbfdd0b0f	-1.7269
42	0xbfdaf1ff	-1.7105101
43	0x40fa4e14	7.822031
44	0xbfdba586	-1.7159889
45	0x40e90d64	7.2828846
46	0x3c17c4da	0.009263242
47	0x38e5f026	0.00010964302
48	0xbddd6a90	-0.10811341
49	0xbdd4b584	-0.10386184
50	0xbccde927	-0.02513559
51	0x3c767073	0.015041458
52	0xbd589a4c	-0.052881524
53	0x3ca62ed0	0.020285994
54	0x3ca5b403	0.020227438
55	0xbde4479b	-0.1114647
56	0xbda7bf68	-0.08190805
57	0x3e812c0e	0.25228924
58	0x3efa5fa8	0.48901105
59	0xbe3065aa	-0.17226282
60	0x3d9df429	0.077125855
61	0x3d9df860	0.077133894
62	0xbc413375	-0.0117920535
63	0x3d954bbd	0.072898366
64	0x3d9b4725	0.07581929
65	0xbd4956e2	-0.049155124
66	0xbe24b4e8	-0.16084635
67	0x3d8bed93	0.06832423
68	0x3d9cd02e	0.076568946

batchnorm3.running_var f4 [69]
0	0x4105a6a3	8.353183
1	0x3bf37310	0.007429488
2	0x3c00b0db	0.007854666
3	0x40beb4f9	5.9595914
4	0x3c043280	0.008068681
5	0x40c8950a	6.2681932
6	0x3becae8c	0.007222956
7	0x3c432459	0.011910521
8	0x3c99fff2	0.018798802
9	0x40e9dccf	7.308204
10	0x3bbfbde2	0.005851493
11	0x3c248a04	0.010042671
12	0x4105babe	8.358091
13	0x411eeafe	9.932371
14	0x3c456b58	0.0120495185
15	0x40ff967b	7.987119
16	0x3baac31c	0.005211247
17	0x40d9c82a	6.805684
18	0x3ba07fa3	0.004898028
19	0x3c0f3431	0.008740471
20	0x410d5a09	8.834481
21	0x3c4c9118	0.012485765
22	0x3ba9d963	0.005183385
23	0x3c1a4ca5	0.009417688
24	0x40a06ca6	5.0132627
25	0x3c11cd89	0.008899101
26	0x4125916d	10.348004
27	0x3bd32306	0.006443384
28	0x40c439cd	6.1320558
29	0x40abe9b4	5.372278
30	0x3c1ad316	0.009449741
31	0x410006ef	8.001693
32	0x3c15f394	0.009152312
33	0x409a2dc5	4.818087
34	0x3c4f5a69	0.012655833
35	0x40e61a8f	7.190742
36	0x3c28b20f	0.010296359
37	0x3c0260db	0.007957662
38	0x40e8574d	7.260657
39	0x4100447e	8.016722
40	0x40ea56e0	7.323105
41	0x3c30e8cb	0.01079769
42	0x3bff00c9	0.007782076
43	0x410f5dd3	8.960406
44	0x3c2ccea0	0.01054731
45	0x40ba5cd6	5.8238325
46	0x3f0f4d6d	0.5597752
47	0x3f21777b	0.6307294
48	0x3f1219c7	0.57070583
49	0x3f12e173	0.5737526
50	0x3f0a914e	0.5412797
51	0x3f0fcf22	0.56175435
52	0x3f075f99	0.52880245
53	0x3f12e084	0.57373834
54	0x3f116134	0.56788945
55	0x3f167532	0.58772576
56	0x3efe6cfc	0.49692523
57	0x40a089e4	5.0168324
58	0x40a43461	5.131394
59	0x3f0d914e	0.5529984
60	0x3f093371	0.5359412
61	0x3f0a60ba	0.54053843
62	0x3f006a17	0.5016188
63	0x3f079cc8	0.52973604
64	0x3f090cca	0.5353514
65	0x3ef52b04	0.4788438
66	0x3f0ccae9	0.54997116
67	0x3f097c59	0.53705364
68	0x3f08a6ad	0.5337933
