output/weights0.pt (torch, 82708 bytes, 22 tensors)

fc1.weight f4 [138, 23]
0	0x3d9f5df7	0.07781594
1	0xbbe1efe1	-0.006895051
2	0x3d6d7d52	0.057980843
3	0xbe047ce5	-0.12938268
4	0x3e343ce4	0.17601353
5	0x3d868108	0.065675795
6	0xbde1918e	-0.110140905
7	0xbda4a256	-0.080387756
8	0x3ce5254c	0.027971886
9	0x3d59d71d	0.053183664
10	0xbe35321e	-0.176949
11	0xbc025ebc	-0.007957157
12	0xbe4170fe	-0.1889076
13	0x3e1a7dcc	0.1508705
14	0x3d5f0a43	0.054453146
15	0xbe383f81	-0.17992975
16	0x3e1dd9cd	0.15415116
17	0xbde75c31	-0.11296881
18	0xbd1d2b19	-0.03837118
19	0xbce40b7c	-0.027837507
20	0xbd00291d	-0.03128921
21	0x3d50dbc8	0.05099085
22	0x3d9c88e0	0.07643294
23	0x3bfbba1e	0.007682099
24	0xbcd38f3f	-0.025825141
25	0x3dce5c81	0.100762375
26	0x3de87010	0.11349499
27	0x3e21553f	0.15755175
28	0x3ce17713	0.0275226
29	0xbd9dad41	-0.07699061
30	0x3e4b25c2	0.19838622
31	0xbdf446ef	-0.11927592
32	0x3e500214	0.20313293
33	0x3d6da634	0.05801983
34	0x3cdac38c	0.026704572
35	0x3dffb74c	0.12486133
36	0x3e2bc23a	0.1677331
37	0x3de64684	0.112439185
38	0xbca00c48	-0.019537106
39	0xbe0bb213	-0.13642149
40	0xbe2bc204	-0.1677323
41	0xbc8c6205	-0.017136583
42	0xbe1e4819	-0.1545719
43	0xbe004a0a	-0.12528244
44	0xbcb0a564	-0.02156324
45	0xbb858f63	-0.004075931
46	0xbd9253a2	-0.07144858
47	0x3e2953ee	0.16535923
48	0x3e5012f9	0.20319737
49	0x3c766d02	0.015040638
50	0xbe21d5e1	-0.15804245
51	0xbe49724e	-0.1967251
52	0x3ce1147e	0.027475592
53	0xbdfdf2eb	-0.123998486
54	0xbd47cf7f	-0.048781868
55	0xbdee404d	-0.11633358
56	0x3e5daf4f	0.21648906
57	0xbe3d90ed	-0.18512316
58	0xbe55587d	-0.20834537
59	0x3e256844	0.16153055
60	0x3e12f5d3	0.14351587
61	0x3e2043ce	0.15650865
62	0x3e1243ae	0.1428363
63	0x3ccc79aa	0.024960358
64	0x3d80b609	0.062847205
65	0xbe4beed2	-0.19915321
66	0xbe5168de	-0.2045016
67	0xbd5afcc0	-0.053463697
68	0x3dd99ecb	0.106259905
69	0x3e3ad29f	0.18244408
70	0x3cbfc529	0.023409443
71	0x3e1e166b	0.1543824
72	0xbc34072d	-0.010988039
73	0x3e27cbc5	0.16386326
74	0xbd7802fe	-0.06054973
75	0xbd7e2279	-0.062044594
76	0xbd1928c1	-0.03739238
77	0x3dad9b02	0.08476831
78	0x3ddd1070	0.10794151
79	0x3dfaf1d5	0.12253157
80	0x3e464504	0.19362265
81	0x3c366433	0.011132288
82	0xbe40aade	-0.1881518
83	0x3e2fc2e8	0.17164195
84	0x3dda34b4	0.106545836
85	0xbd13ea4e	-0.036112122
86	0xbe4a4b20	-0.1975522
87	0x3cde809a	0.027160931
88	0x3db54be8	0.088523686
89	0x3ddca3ca	0.10773428
90	0x3e179590	0.14803147
91	0x3dc96c3e	0.09835099
92	0x3c85176c	0.01624652
93	0x3e1e2567	0.15443955
94	0xbdc4da68	-0.0961197
95	0xbde24c81	-0.11049748
96	0x3d062a0b	0.03275494
97	0xbe222c96	-0.1583732
98	0xbe167578	-0.14693248
99	0xbccbdfd5	-0.024887005
100	0xbdd29d67	-0.10283928
101	0xbdbad2bb	-0.09122225
102	0x3e3fa48e	0.18715116
103	0x3ca82d32	0.020529363
104	0x3e3ce900	0.18448257
105	0x3c455292	0.012043612
106	0x3e45798f	0.19284652
107	0xbe2455aa	-0.16048303
108	0xbc25db0f	-0.010123028
109	0x3d49ee4b	0.04929952
110	0x3df164c1	0.117867954
111	0x3e11602e	0.14196846
112	0x3e4fe412	0.20301846
113	0x3ce9888d	0.028507495
114	0xbd637ec4	-0.055540815
115	0xbdba57de	-0.090987906
116	0xbd97d7f8	-0.0741424
117	0xbe14adb4	-0.14519387
118	0xbd9e02fb	-0.07715412
119	0xbe4bff30	-0.19921565
120	0xbda64109	-0.08117873
121	0x3dce43bf	0.10071515
122	0x3e11838e	0.1421034
123	0x3d17b7fa	0.037040688
124	0xbe215ba4	-0.15757614
125	0x3c0ef592	0.008725541
126	0xbba926a6	-0.005162078
127	0x3cb0cb8e	0.021581437
128	0x3e3ddc09	0.18540968
129	0x3d09c386	0.03363373
130	0xbde86887	-0.11348062
131	0x3e57e1d4	0.2108224
132	0x3ce90299	0.028443621
133	0xbd4f9b78	-0.050685376
134	0x3d24f5d0	0.040273488
135	0x3cc46f7a	0.023978937
136	0xbe2ae3e5	-0.16688497
137	0x3ddcff92	0.10790934
138	0x3e318d7c	0.17339128
139	0x3e1ad56e	0.1512048
140	0xbdb98046	-0.09057669
141	0xbdab2509	-0.08356673
142	0x3dd12378	0.10211843
143	0x3da0e447	0.078560404
144	0x3de14d0e	0.11001025
145	0xbe47c5e6	-0.19509086
146	0xbce0fe11	-0.027464898
147	0x3e3bf337	0.18354498
148	0xbd20cdfd	-0.039258946
149	0xbe2dca1c	-0.1697163
150	0xbd887245	-0.0666242
151	0x3dea3b1e	0.11437057
152	0x3e32f334	0.17475587
153	0x3c076680	0.008264184
154	0xbb1a0512	-0.0023501557
155	0x3d83b993	0.0643188
156	0x3c782229	0.015144863
157	0x3c180fc3	0.009281102
158	0xbe4a340e	-0.1974642
159	0xbd81520a	-0.06314476
160	0x3d85b667	0.06528931
161	0xbd78ebaa	-0.06077162
162	0xbdffe539	-0.124948926
163	0xbdbd7744	-0.09251264
164	0x3aeaace5	0.001790431
165	0x3d1832f7	0.03715798
166	0x3e0030b9	0.12518586
167	0xbcf02679	-0.02931522
168	0x3dd207bf	0.10255384
169	0xbd8b0bd4	-0.067893654
170	0xbc9750b6	-0.018471103
171	0xbd9826cb	-0.07429274
172	0xbd1b95d6	-0.03798469
173	0x3e3e5e37	0.18590628
174	0x3de713f5	0.112831034
175	0x3e41efec	0.18939179
176	0x3ca1cc52	0.019750748
177	0x3c8bc12a	0.017059881
178	0xbe531f9a	-0.20617524
179	0x3ddc39ef	0.107532375
180	0x3cbd7fb8	0.02313219
181	0x3e0ed48e	0.1394827
182	0xbe1059dd	-0.1409678
183	0xbd08ebe4	-0.033428088
184	0xbe427f50	-0.18993878
185	0xbd9a0051	-0.075195916
186	0x3df6f0ab	0.120576225
187	0xbdd28010	-0.10278332
188	0xbbc6b2ab	-0.0060637794
189	0x3df209d4	0.11818281
190	0xbde30087	-0.11084085
191	0xbdcebb37	-0.10094302
192	0x3c44d5fd	0.012013909
193	0x3dd2c334	0.10291138
194	0xbe513cab	-0.20433299
195	0xbda19d18	-0.078912914
196	0x3d998579	0.07496161
197	0x3e2de305	0.16981132
198	0x3ce61e68	0.02809067
199	0x3dbcdfcb	0.092223726
200	0x3de8037a	0.11328788
201	0xbd90b053	-0.07064881
202	0xbdba201c	-0.090881556
203	0xbd3d137f	-0.04616117
204	0x3d2bb717	0.041922655
205	0x3cffada1	0.031210722
206	0x3e07d496	0.13264689
207	0xbe1100cc	-0.1416046
208	0x3bcec394	0.006309936
209	0x3e06e669	0.13173832
210	0xbe13c6db	-0.14431326
211	0x3dd3d049	0.103424616
212	0x3e037765	0.12838514
213	0x3de69e8d	0.1126071
214	0xbd9cb845	-0.07652334
215	0xbdb45010	-0.08804333
216	0xbda8f406	-0.08249669
217	0xbbff85c6	-0.0077979295
218	0xbddfe0b7	-0.10931533
219	0x3e3bc725	0.18337686
220	0x3ceb5bc3	0.028730279
221	0x3e03ef48	0.12884247
222	0xbca1883d	-0.019718284
223	0x3d85b4dd	0.065286376
224	0xbdd25dd9	-0.10271806
225	0xbcd08f6e	-0.025459018
226	0xbe2de133	-0.16980438
227	0x3e583a85	0.21116073
228	0xbde61a77	-0.112355165
229	0xbd1b7846	-0.0379565
230	0x3db387fd	0.08766172
231	0x3e2f219d	0.17102666
232	0xbdcfb42e	-0.101417884
233	0x3e2a4a14	0.16629821
234	0x3e5017e5	0.20321615
235	0x3e1b64e9	0.15175213
236	0xbcb1b3d6	-0.021692198
237	0x3dc4a9ba	0.09602685
238	0xbc9816ad	-0.0185655
239	0xbd74c9e9	-0.05976287
240	0xbd92b93d	-0.07164238
241	0x3e2f702c	0.17132634
242	0xbe455e5a	-0.19274274
243	0xbe2dcec7	-0.1697341
244	0x3e1e1cb6	0.1544064
245	0x3e1be5f6	0.15224442
246	0xbdb06f54	-0.08614984
247	0xbdcfcfd3	-0.10147061
248	0xbe1af566	-0.15132675
249	0x3e3631d2	0.17792442
250	0xbe4b1fc9	-0.19836344
251	0x3d542c13	0.051799845
252	0x3d6c2c2f	0.057659324
253	0xbd23fefd	-0.040038098
254	0x3e4f98da	0.20273152
255	0xbdbfe160	-0.09369159

fc1.bias f4 [138]
0	0x3e2e19ca	0.17002025
1	0x3e104ece	0.14092562
2	0xbc1d2f03	-0.009593728
3	0xb9938ffd	-0.00028145305
4	0x3e3dde07	0.18541728
5	0xbe6020ab	-0.21887462
6	0xbd52b1aa	-0.051438965
7	0xbd5dfee6	-0.05419817
8	0x3bd2639f	0.006420567
9	0x3ccc9ab8	0.02497612
10	0xbd06f231	-0.032945815
11	0x3e1b829f	0.15186547
12	0xbc1ca191	-0.009560005
13	0x3e504e40	0.2034235
14	0xbe2b46b9	-0.16726197
15	0xbda6016e	-0.081057414
16	0x3d6d3920	0.057915807
17	0xb9bb6cd4	-0.00035748503
18	0xbba27242	-0.0049574682
19	0xbd6657cd	-0.056236077
20	0x3e5173b4	0.20454293
21	0x3e3364b9	0.17518891
22	0xbe4c9ad6	-0.1998094
23	0x3c5a59f7	0.013327113
24	0xbdc78e28	-0.09743911
25	0x3ced1474	0.028940417
26	0x3e214e28	0.1575247
27	0x3e1743e1	0.14771987
28	0x3b98a327	0.004658121
29	0x3e336529	0.17519058
30	0xbe70b39a	-0.23506013
31	0x3e03c50f	0.1286814
32	0xbb0f2958	-0.002184471
33	0x3e2ae4ea	0.16688886
34	0x3d3eb43d	0.046558607
35	0x3e3da6fd	0.18520732
36	0xbda880f3	-0.0822772
37	0x3d9f1705	0.077680625
38	0xbd5ef8de	-0.054436557
39	0x3c00ac4b	0.007853578
40	0xbd8d39c3	-0.06895783
41	0x3e56cb22	0.20975927
42	0xbe3b2a3b	-0.18277828
43	0x39d8e68c	0.000413705
44	0x3d6c87e3	0.05774678
45	0xbadefaf6	-0.0017012048
46	0x3de2fea5	0.11083726
47	0xbe04ddf5	-0.12975295
48	0xbd610c14	-0.05494316
49	0xbdef500f	-0.11685192
50	0x3dae238b	0.08502873
51	0xbe2010c0	-0.1563139
52	0x3d800470	0.062508464
53	0xbb9ec5d8	-0.004845362
54	0xbc833a72	-0.01601908
55	0xbd63e33f	-0.05563664
56	0xbe5e4c38	-0.21708763
57	0xbe21a711	-0.15786387
58	0xbe4c7f90	-0.19970536
59	0xbdcbcd02	-0.099512115
60	0x3e6328f2	0.22183588
61	0x3e10b9d6	0.14133391
62	0x3e003d16	0.12523302
63	0x3d13ccfe	0.036084168
64	0x3e3a2002	0.18176273
65	0x3ce69ed9	0.028151916
66	0x3c053c92	0.008132117
67	0xbcd68398	-0.026185796
68	0x3e561a7c	0.2090854
69	0x3e54c5a0	0.20778513
70	0xbb8e9b4b	-0.0043520085
71	0xbe2e4a72	-0.17020586
72	0x3e0b55d6	0.13606963
73	0x3e44c51d	0.19215818
74	0xbe6be8e3	-0.23038058
75	0x3e1d5652	0.1536496
76	0xbe286eb9	-0.16448487
77	0x3d9506c0	0.07276678
78	0x3df0bed1	0.11755145
79	0xbe1b92dc	-0.15192741
80	0xbe53516f	-0.20636533
81	0xbe6b7d93	-0.22997122
82	0x3de74210	0.11291897
83	0x3e149401	0.14509584
84	0xbcf48335	-0.02984772
85	0x3def78ae	0.1169294
86	0x3e0f9be2	0.14024308
87	0x3e5bf876	0.21481499
88	0xbe24da44	-0.16098887
89	0x3cfba9f8	0.030720696
90	0xbda3348a	-0.079690054
91	0x3d1d7410	0.038440764
92	0xbdc3a14f	-0.095522515
93	0x3db097e6	0.08622722
94	0xbe2b4f0c	-0.16729373
95	0xbe254d55	-0.16142781
96	0xbe6ab888	-0.22921956
97	0x3cf31496	0.029672902
98	0xbc15cc9e	-0.009143023
99	0xbdefbdef	-0.11706149
100	0x3e5a525d	0.21320482
101	0x3dad6969	0.08467371
102	0xbc2e01c7	-0.010620541
103	0x3e5d8552	0.21632889
104	0x3e32de17	0.17467533
105	0xbe13ac60	-0.14421225
106	0x3e523dc2	0.20531371
107	0xbd03193f	-0.0320065
108	0x3c8838c0	0.016628623
109	0xbd59acb0	-0.053143203
110	0xbe12055e	-0.1425986
111	0x3e65d881	0.22445871
112	0x3da5be91	0.08092988
113	0x3dfeb6fd	0.12437246
114	0x3d15ba47	0.0365546
115	0xbe6eb781	-0.23312189
116	0x3e1dda06	0.154152
117	0xbdea7bc0	-0.11449385
118	0xbe5653cf	-0.20930408
119	0xbe013c3b	-0.12620632
120	0xbddbe886	-0.1073771
121	0xbe10e720	-0.14150667
122	0xbd092fb9	-0.033492777
123	0xbd63d09e	-0.055618875
124	0xbe37abf4	-0.17936689
125	0x3d9df409	0.07712562
126	0x3b9c8c69	0.0047774804
127	0x3de6303f	0.11239671
128	0x3e68a8f0	0.22720695
129	0xbd921677	-0.07133191
130	0xbe238ae8	-0.15970957
131	0x3dc56485	0.09638313
132	0xbe4eb701	-0.20186998
133	0xbe32e668	-0.17470706
134	0xbe6257f5	-0.22103865
135	0x3d400778	0.046882123
136	0x3d8bb53b	0.06821676
137	0xbe0bb001	-0.13641359

batchnorm1.weight f4 [138]
0	0x3f800000	1.0
1	0x3f800000	1.0
2	0x3f800000	1.0
3	0x3f800000	1.0
4	0x3f800000	1.0
5	0x3f800000	1.0
6	0x3f800000	1.0
7	0x3f800000	1.0
8	0x3f800000	1.0
9	0x3f800000	1.0
10	0x3f800000	1.0
11	0x3f800000	1.0
12	0x3f800000	1.0
13	0x3f800000	1.0
14	0x3f800000	1.0
15	0x3f800000	1.0
16	0x3f800000	1.0
17	0x3f800000	1.0
18	0x3f800000	1.0
19	0x3f800000	1.0
20	0x3f800000	1.0
21	0x3f800000	1.0
22	0x3f800000	1.0
23	0x3f800000	1.0
24	0x3f800000	1.0
25	0x3f800000	1.0
26	0x3f800000	1.0
27	0x3f800000	1.0
28	0x3f800000	1.0
29	0x3f800000	1.0
30	0x3f800000	1.0
31	0x3f800000	1.0
32	0x3f800000	1.0
33	0x3f800000	1.0
34	0x3f800000	1.0
35	0x3f800000	1.0
36	0x3f800000	1.0
37	0x3f800000	1.0
38	0x3f800000	1.0
39	0x3f800000	1.0
40	0x3f800000	1.0
41	0x3f800000	1.0
42	0x3f800000	1.0
43	0x3f800000	1.0
44	0x3f800000	1.0
45	0x3f800000	1.0
46	0x3f800000	1.0
47	0x3f800000	1.0
48	0x3f800000	1.0
49	0x3f800000	1.0
50	0x3f800000	1.0
51	0x3f800000	1.0
52	0x3f800000	1.0
53	0x3f800000	1.0
54	0x3f800000	1.0
55	0x3f800000	1.0
56	0x3f800000	1.0
57	0x3f800000	1.0
58	0x3f800000	1.0
59	0x3f800000	1.0
60	0x3f800000	1.0
61	0x3f800000	1.0
62	0x3f800000	1.0
63	0x3f800000	1.0
64	0x3f800000	1.0
65	0x3f800000	1.0
66	0x3f800000	1.0
67	0x3f800000	1.0
68	0x3f800000	1.0
69	0x3f800000	1.0
70	0x3f800000	1.0
71	0x3f800000	1.0
72	0x3f800000	1.0
73	0x3f800000	1.0
74	0x3f800000	1.0
75	0x3f800000	1.0
76	0x3f800000	1.0
77	0x3f800000	1.0
78	0x3f800000	1.0
79	0x3f800000	1.0
80	0x3f800000	1.0
81	0x3f800000	1.0
82	0x3f800000	1.0
83	0x3f800000	1.0
84	0x3f800000	1.0
85	0x3f800000	1.0
86	0x3f800000	1.0
87	0x3f800000	1.0
88	0x3f800000	1.0
89	0x3f800000	1.0
90	0x3f800000	1.0
91	0x3f800000	1.0
92	0x3f800000	1.0
93	0x3f800000	1.0
94	0x3f800000	1.0
95	0x3f800000	1.0
96	0x3f800000	1.0
97	0x3f800000	1.0
98	0x3f800000	1.0
99	0x3f800000	1.0
100	0x3f800000	1.0
101	0x3f800000	1.0
102	0x3f800000	1.0
103	0x3f800000	1.0
104	0x3f800000	1.0
105	0x3f800000	1.0
106	0x3f800000	1.0
107	0x3f800000	1.0
108	0x3f800000	1.0
109	0x3f800000	1.0
110	0x3f800000	1.0
111	0x3f800000	1.0
112	0x3f800000	1.0
113	0x3f800000	1.0
114	0x3f800000	1.0
115	0x3f800000	1.0
116	0x3f800000	1.0
117	0x3f800000	1.0
118	0x3f800000	1.0
119	0x3f800000	1.0
120	0x3f800000	1.0
121	0x3f800000	1.0
122	0x3f800000	1.0
123	0x3f800000	1.0
124	0x3f800000	1.0
125	0x3f800000	1.0
126	0x3f800000	1.0
127	0x3f800000	1.0
128	0x3f800000	1.0
129	0x3f800000	1.0
130	0x3f800000	1.0
131	0x3f800000	1.0
132	0x3f800000	1.0
133	0x3f800000	1.0
134	0x3f800000	1.0
135	0x3f800000	1.0
136	0x3f800000	1.0
137	0x3f800000	1.0

batchnorm1.bias f4 [138]
0	0x00000000	0.0
1	0x00000000	0.0
2	0x00000000	0.0
3	0x00000000	0.0
4	0x00000000	0.0
5	0x00000000	0.0
6	0x00000000	0.0
7	0x00000000	0.0
8	0x00000000	0.0
9	0x00000000	0.0
10	0x00000000	0.0
11	0x00000000	0.0
12	0x00000000	0.0
13	0x00000000	0.0
14	0x00000000	0.0
15	0x00000000	0.0
16	0x00000000	0.0
17	0x00000000	0.0
18	0x00000000	0.0
19	0x00000000	0.0
20	0x00000000	0.0
21	0x00000000	0.0
22	0x00000000	0.0
23	0x00000000	0.0
24	0x00000000	0.0
25	0x00000000	0.0
26	0x00000000	0.0
27	0x00000000	0.0
28	0x00000000	0.0
29	0x00000000	0.0
30	0x00000000	0.0
31	0x00000000	0.0
32	0x00000000	0.0
33	0x00000000	0.0
34	0x00000000	0.0
35	0x00000000	0.0
36	0x00000000	0.0
37	0x00000000	0.0
38	0x00000000	0.0
39	0x00000000	0.0
40	0x00000000	0.0
41	0x00000000	0.0
42	0x00000000	0.0
43	0x00000000	0.0
44	0x00000000	0.0
45	0x00000000	0.0
46	0x00000000	0.0
47	0x00000000	0.0
48	0x00000000	0.0
49	0x00000000	0.0
50	0x00000000	0.0
51	0x00000000	0.0
52	0x00000000	0.0
53	0x00000000	0.0
54	0x00000000	0.0
55	0x00000000	0.0
56	0x00000000	0.0
57	0x00000000	0.0
58	0x00000000	0.0
59	0x00000000	0.0
60	0x00000000	0.0
61	0x00000000	0.0
62	0x00000000	0.0
63	0x00000000	0.0
64	0x00000000	0.0
65	0x00000000	0.0
66	0x00000000	0.0
67	0x00000000	0.0
68	0x00000000	0.0
69	0x00000000	0.0
70	0x00000000	0.0
71	0x00000000	0.0
72	0x00000000	0.0
73	0x00000000	0.0
74	0x00000000	0.0
75	0x00000000	0.0
76	0x00000000	0.0
77	0x00000000	0.0
78	0x00000000	0.0
79	0x00000000	0.0
80	0x00000000	0.0
81	0x00000000	0.0
82	0x00000000	0.0
83	0x00000000	0.0
84	0x00000000	0.0
85	0x00000000	0.0
86	0x00000000	0.0
87	0x00000000	0.0
88	0x00000000	0.0
89	0x00000000	0.0
90	0x00000000	0.0
91	0x00000000	0.0
92	0x00000000	0.0
93	0x00000000	0.0
94	0x00000000	0.0
95	0x00000000	0.0
96	0x00000000	0.0
97	0x00000000	0.0
98	0x00000000	0.0
99	0x00000000	0.0
100	0x00000000	0.0
101	0x00000000	0.0
102	0x00000000	0.0
103	0x00000000	0.0
104	0x00000000	0.0
105	0x00000000	0.0
106	0x00000000	0.0
107	0x00000000	0.0
108	0x00000000	0.0
109	0x00000000	0.0
110	0x00000000	0.0
111	0x00000000	0.0
112	0x00000000	0.0
113	0x00000000	0.0
114	0x00000000	0.0
115	0x00000000	0.0
116	0x00000000	0.0
117	0x00000000	0.0
118	0x00000000	0.0
119	0x00000000	0.0
120	0x00000000	0.0
121	0x00000000	0.0
122	0x00000000	0.0
123	0x00000000	0.0
124	0x00000000	0.0
125	0x00000000	0.0
126	0x00000000	0.0
127	0x00000000	0.0
128	0x00000000	0.0
129	0x00000000	0.0
130	0x00000000	0.0
131	0x00000000	0.0
132	0x00000000	0.0
133	0x00000000	0.0
134	0x00000000	0.0
135	0x00000000	0.0
136	0x00000000	0.0
137	0x00000000	0.0

batchnorm1.running_mean f4 [138]
0	0x3e1dba07	0.15402995
1	0x3cca6bfc	0.024709694
2	0x3dc80f44	0.09768537
3	0xbdf12f6a	-0.11776622
4	0x3da20193	0.079104565
5	0xbeb2f01f	-0.34948823
6	0x3ad967ef	0.0016586761
7	0xbe36c63e	-0.17849061
8	0xbd7f96ae	-0.06239956
9	0xbd94de63	-0.072689794
10	0x3c5c753d	0.013455686
11	0x3e1ae17f	0.15125082
12	0xbe4e33d2	-0.20136955
13	0x3e71a86c	0.23599404
14	0xbea214f6	-0.31656617
15	0xbdc59434	-0.09647408
16	0x3e2a25de	0.16616008
17	0xbde024e3	-0.109445356
18	0x3db39733	0.08769073
19	0xbe23f898	-0.160128
20	0x3e0b7af8	0.13621128
21	0x3e5dfd5c	0.2167868
22	0xbe7cf829	-0.2470404
23	0x3cfe5dc5	0.031050572
24	0xbe0bebda	-0.13664189
25	0x3ddf0078	0.10888761
26	0x3e15f037	0.14642416
27	0x3da89de1	0.08233238
28	0xbe0feb84	-0.14054686
29	0x3e35e6dc	0.17763847
30	0xbe86c191	-0.26319554
31	0x3e4793b4	0.19489938
32	0xbdadd5fe	-0.084880814
33	0x3dbe360b	0.09287652
34	0xbe20448e	-0.15651152
35	0x3dcece39	0.100979276
36	0xbe75d682	-0.2400761
37	0x3da53057	0.08065861
38	0xbd4313d1	-0.04762632
39	0xbdec5b4c	-0.11540851
40	0xbc28bd64	-0.0102990605
41	0x3e4dce22	0.20098165
42	0xbed04a94	-0.406819
43	0xbd61babe	-0.05510973
44	0x397fa196	0.0002437889
45	0xbd7ecf64	-0.0622095
46	0x3e8e6004	0.2780763
47	0xbe88d43f	-0.2672443
48	0xbd9a4c3a	-0.0753407
49	0xbe12ec23	-0.14347892
50	0x3d1a8dea	0.037732996
51	0xbe80d1de	-0.25160116
52	0x3deda13f	0.11603021
53	0xbd7e2509	-0.06204704
54	0x3cf8882a	0.030338366
55	0xbd2937a5	-0.041312832
56	0xbeadf053	-0.33972415
57	0xbe339ea5	-0.17540987
58	0xbe5bc434	-0.21461564
59	0xbe7d3020	-0.2472539
60	0x3ea5ed0b	0.32407412
61	0x3e59a0fd	0.21252818
62	0x3e228c80	0.15873909
63	0x3cbde7a7	0.02318175
64	0x3e935b9b	0.28780827
65	0xbd16d4dd	-0.036824096
66	0xbdf3f4a0	-0.11911893
67	0xbcdfd5cb	-0.027323624
68	0x3e5a8817	0.21340977
69	0x3dfc4c60	0.12319255
70	0xbdb5746e	-0.08860098
71	0xbe2ec870	-0.17068648
72	0x3dfb7384	0.12277892
73	0x3dc0eb2c	0.094198555
74	0xbe94bfff	-0.2905273
75	0x3e49b630	0.19698405
76	0xbe541943	-0.20712762
77	0xbd2bd6a5	-0.041952748
78	0x3e0d936e	0.13825771
79	0xbe3b8ef3	-0.1831625
80	0xbec17aca	-0.37788993
81	0xbee0e78d	-0.4392666
82	0x3dad8ac9	0.08473737
83	0x3d046a56	0.032327972
84	0x3dacd538	0.08439106
85	0x3e1d3bee	0.15354893
86	0x3d692a3c	0.056925043
87	0x3e2b4eb1	0.16729237
88	0xbe657b61	-0.22410347
89	0xbddcd4aa	-0.1078275
90	0xbe0fea96	-0.14054331
91	0x3c8115cb	0.015757462
92	0xbe67cacd	-0.22635956
93	0x3dcc6057	0.09979313
94	0xbe9bb48b	-0.3041118
95	0xbeb02824	-0.34405625
96	0xbea9c8e1	-0.3316107
97	0x3c6a51ca	0.014301727
98	0xbe526d95	-0.20549615
99	0xbe8a46c6	-0.2700712
100	0x3e705ae3	0.2347217
101	0xbdf3b417	-0.11899584
102	0xbe5f9fe7	-0.21838342
103	0x3e8306c3	0.25591096
104	0x3e7e4c3a	0.24833766
105	0xbe8b433c	-0.27199733
106	0x3e6c8d2f	0.23100732
107	0xbd926c9c	-0.07149622
108	0x3dbad554	0.0912272
109	0xbdc10ddc	-0.094264716
110	0xbe87b158	-0.2650249
111	0x3e8ce940	0.27521706
112	0x3daf3b42	0.085562244
113	0x3e0f6a71	0.14005448
114	0x3da6b162	0.08139302
115	0xbe872c35	-0.26400915
116	0x3e12974f	0.14315532
117	0xbe47f2c7	-0.19526206
118	0xbec34060	-0.38135052
119	0xbde39421	-0.11112238
120	0xbe12501c	-0.14288372
121	0xbe95b2b6	-0.29237908
122	0xbd67bb3f	-0.056575056
123	0xbe1fe209	-0.1561357
124	0xbde85910	-0.11345112
125	0x3db62166	0.08893089
126	0xbdfa94c2	-0.122354046
127	0x3c39c292	0.011337893
128	0x3e2e73a7	0.17036305
129	0xbe82f9a6	-0.25581092
130	0xbe85b03d	-0.26111022
131	0x3de094dc	0.10965893
132	0xbea36320	-0.31911564
133	0xbe21499b	-0.15750735
134	0xbe8653c4	-0.26235783
135	0x3dd7dd57	0.10540264
136	0x3dbe0223	0.09277751
137	0xbe96c657	-0.29448196

batchnorm1.running_var f4 [138]
0	0x3ec95f5a	0.3933056
1	0x3e7b9a6b	0.24570625
2	0x3e5f74da	0.21821919
3	0x3efcc091	0.49365667
4	0x3eaca830	0.33722067
5	0x3e140a73	0.14457111
6	0x3e57dd70	0.21080565
7	0x3f1059d0	0.56387043
8	0x3ed381d2	0.41309983
9	0x3f483268	0.78201914
10	0x3f780400	0.96881104
11	0x3dec7a72	0.11546792
12	0x3e3fea2a	0.1874167
13	0x3eb1cbe7	0.34725878
14	0x3eb3d54c	0.3512367
15	0x3f860f70	1.0473461
16	0x3e17abd8	0.14811647
17	0x3f70ea7e	0.94107807
18	0x3ef9b0eb	0.4876779
19	0x3ee2a017	0.44262764
20	0x3f540217	0.8281569
21	0x3e83cf51	0.25744107
22	0x3e70006c	0.23437661
23	0x3eb838af	0.35980746
24	0x3e4d0779	0.20022382
25	0x3f08c7f0	0.5343008
26	0x3f1eee91	0.62082773
27	0x3f2a1349	0.66435677
28	0x3efa7abb	0.4892176
29	0x3eb055ef	0.34440562
30	0x3e979bf7	0.2961118
31	0x3ea6ee4a	0.32603675
32	0x3f0212b7	0.50809807
33	0x3f12642a	0.5718409
34	0x3edb09f7	0.4278104
35	0x3e43dce9	0.1912724
36	0x3eb59d70	0.35471678
37	0x3eac1f67	0.33617708
38	0x3e47164a	0.19442096
39	0x3e035e94	0.12829047
40	0x3e44479b	0.1916794
41	0x3dd21485	0.1025782
42	0x3f03b42c	0.51446795
43	0x3efb6655	0.4910151
44	0x3f488502	0.78327954
45	0x3ef95238	0.4869554
46	0x3fd5b99e	1.6697271
47	0x3e96f65a	0.29484826
48	0x3ecc3fd7	0.39892456
49	0x3f18e231	0.5972014
50	0x3f42b342	0.76054776
51	0x3e016454	0.12635928
52	0x3f87f4ab	1.0621542
53	0x3e951096	0.29114217
54	0x3f0ce881	0.5504227
55	0x3e94f197	0.29090568
56	0x3e8e1caa	0.27756244
57	0x3f2f3811	0.68444926
58	0x3dfea304	0.124334365
59	0x3e8eccc7	0.27890608
60	0x3e0966b9	0.13418092
61	0x3e4095e3	0.18807177
62	0x3e5e1503	0.21687703
63	0x3e7be5f0	0.24599433
64	0x3f979224	1.1841474
65	0x3f262840	0.64905167
66	0x3f34c9ac	0.70620227
67	0x3e90defa	0.28295118
68	0x3e2e91ac	0.17047757
69	0x3eeb63cc	0.45974576
70	0x3e8f8e8e	0.28038448
71	0x3edd2311	0.43190816
72	0x3ebeaf35	0.37243047
73	0x3f82723b	1.019111
74	0x3dee8049	0.11645562
75	0x3ede679d	0.43438426
76	0x3f337619	0.7010208
77	0x3f145674	0.57944417
78	0x3e75635c	0.23963684
79	0x3e17a4c1	0.14808942
80	0x3e43c4f3	0.19118099
81	0x3e865521	0.26236823
82	0x3e9e2917	0.30890724
83	0x3ef800f1	0.48438218
84	0x3ee209ed	0.44148198
85	0x3e5ca298	0.215464
86	0x3e9c90eb	0.30579314
87	0x3f3a7d56	0.728475
88	0x3e867353	0.2625986
89	0x3e983287	0.2972605
90	0x3e5ae459	0.2137617
91	0x3fc4cd68	1.5375185
92	0x3e966f07	0.29381582
93	0x3e878b2e	0.26473373
94	0x3e8d3367	0.2757828
95	0x3e8017ca	0.2501815
96	0x3f16315e	0.5866908
97	0x3ef6cfe8	0.48205495
98	0x3e899aa2	0.26875788
99	0x3e813c8f	0.25241515
100	0x3e7d3b04	0.24729544
101	0x3eb6b4fb	0.35684952
102	0x3e657c10	0.22410607
103	0x3e1ac04e	0.15112421
104	0x3e966d50	0.29380274
105	0x3e8fa024	0.28051865
106	0x3f4e50bc	0.8059194
107	0x3e9e3a25	0.30903736
108	0x3e3a5537	0.1819657
109	0x3e3ff7c0	0.18746853
110	0x3e6c5465	0.23079069
111	0x3e0cefa1	0.13763286
112	0x3fc4be24	1.5370526
113	0x3e961504	0.2931291
114	0x3e3ff155	0.18744405
115	0x3f3a5590	0.7278681
116	0x3e7285d4	0.23683864
117	0x3f0d2dfa	0.5514828
118	0x3e7c0049	0.24609484
119	0x3e9a2808	0.30108666
120	0x3f15139f	0.58233064
121	0x3e7b3d1a	0.24535027
122	0x3eb058b9	0.3444269
123	0x3f25b5e1	0.6473065
124	0x3e93f297	0.2889602
125	0x3dd7c03a	0.10534711
126	0x3f66ad19	0.90107876
127	0x3ed94024	0.42431748
128	0x3db874e0	0.09006667
129	0x3ee9c79d	0.45660105
130	0x3e694cdc	0.22783226
131	0x3e5bac50	0.21452451
132	0x3e7ca1ee	0.24671146
133	0x3e2a1067	0.1660782
134	0x3ebac2f9	0.36476877
135	0x3e199a6d	0.15000315
136	0x3eb0438b	0.3442653
137	0x3e64a34a	0.22327915

fc2.weight f4 [69, 138]
0	0xbd8d19ba	-0.068896726
1	0xbdae2730	-0.08503568
2	0xbd08f7e4	-0.033439532
3	0x3dadc69e	0.08485149
4	0xbcf7797b	-0.030209294
5	0xbc17673c	-0.009240922
6	0x3d78190e	0.06057077
7	0xbd642017	-0.055694666
8	0x3da82ef4	0.082120806
9	0x3c2c8eb8	0.010532074
10	0x3cb2f77a	0.021846522
11	0xbd6f7ca2	-0.05846847
12	0xbc97567a	-0.018473852
13	0xbd7dd502	-0.06197072
14	0x3d26ed28	0.040753514
15	0x3d8351a6	0.064120576
16	0x3c657b52	0.014006453
17	0x3dad7736	0.08470003
18	0x3caf2eb8	0.021384582
19	0xbd0c92ae	-0.034319572
20	0xbd73cc38	-0.05952093
21	0x3bdf70ef	0.0068188827
22	0x3a6f80dd	0.00091363286
23	0xbdb44ef1	-0.088041194
24	0x3d96143b	0.073280774
25	0xbd973b58	-0.07384366
26	0xbd18bd65	-0.037289996
27	0x3cbc5361	0.022988977
28	0xbbf0b3be	-0.0073456457
29	0xbd2c0e46	-0.0420058
30	0x3dcfe684	0.10151389
31	0x3d2c776b	0.042106073
32	0xbb42ad4d	-0.0029705346
33	0x3d131b29	0.035914574
34	0x3a743e7d	0.0009317173
35	0xbd42c743	-0.047553312
36	0x3dcad4ef	0.09903895
37	0xbcbd9f0c	-0.023147129
38	0xbd664f63	-0.056228053
39	0x3dae82e9	0.08521063
40	0xbd4c330c	-0.04985337
41	0xbd1e6d31	-0.03867835
42	0xbbdeb2b8	-0.0067962073
43	0xbd831d45	-0.06402067
44	0x3c19dc4b	0.009390901
45	0xbd7ccc0b	-0.061718028
46	0xbdb1f520	-0.08689332
47	0xbc4a8100	-0.012359858
48	0xbd5673fd	-0.05235671
49	0xbd6d98eb	-0.058007162
50	0x3c3d03c4	0.011536542
51	0xbd0ca144	-0.034333482
52	0xbc6d19fe	-0.014471529
53	0x3c1b490b	0.009477864
54	0xbd8b57f8	-0.06803888
55	0x3d6ccbd6	0.05781158
56	0x3d6e994d	0.058251668
57	0x3cae2efb	0.021262636
58	0x3d8a7580	0.067606926
59	0x3dda989f	0.106736414
60	0xbd8ed0c1	-0.069734104
61	0xbc7cb753	-0.015424567
62	0x3d57ee28	0.052717358
63	0x3d4e42e1	0.05035675
64	0xbda1258b	-0.07868489
65	0x3d7fc42b	0.06244294
66	0xbd6e965c	-0.058248863
67	0xbd1e86f5	-0.038702924
68	0xbd847be1	-0.064689405
69	0xbd3cc2b4	-0.04608412
70	0x3d6f82b2	0.05847425
71	0x3db1ed1c	0.08687803
72	0x3d30277c	0.043006405
73	0xbdbdca5e	-0.09267114
74	0xbd270be2	-0.040782817
75	0xbd0f7186	-0.035020374
76	0x3d503033	0.050827216
77	0xbbb50713	-0.005524525
78	0x3ca89198	0.020577237
79	0x3d8e0080	0.06933689
80	0x3d3c08c8	0.045906812
81	0xbc809116	-0.015694182
82	0xbdb307de	-0.08741735
83	0x3d5fcceb	0.054638784
84	0xbd41934f	-0.047259625
85	0x3cad1ff6	0.021133404
86	0xbda1f636	-0.07908289
87	0xbc597c07	-0.013274199
88	0x3da57c84	0.0808039
89	0xbd9b128a	-0.075718954
90	0xbce50124	-0.027954645
91	0xbd1a02aa	-0.037600197
92	0x3b138ca7	0.0022514255
93	0x3ce88a6a	0.028386313
94	0x3d2a3832	0.0415575
95	0x3ca13920	0.01968056
96	0x3d91515c	0.07095596
97	0xbda2693c	-0.07930228
98	0x3d9dbeb5	0.0770239
99	0x3c2edf8a	0.010673413
100	0xbdac1419	-0.08402271
101	0x3d8b7a9e	0.06810497
102	0x3d5a709f	0.05333006
103	0x3cd546e8	0.026034787
104	0xbd3b2cf5	-0.04569717
105	0xbce9ef48	-0.028556481
106	0x3d2986f5	0.04138847
107	0xbce60024	-0.028076239
108	0xbd5798d9	-0.052636
109	0xbd40c550	-0.047063172
110	0x3c98c6c9	0.018649476
111	0xbd2b1d7b	-0.04177616
112	0xbd71f9e8	-0.05907622
113	0x3d4ba018	0.049713224
114	0xbd80cf50	-0.06289542
115	0x3dc4235a	0.09577055
116	0x3cab4029	0.020904617
117	0xbd6531e9	-0.0559558
118	0x3db946df	0.09046721
119	0x3da0a8fb	0.078447305
120	0xbd316d28	-0.04331699
121	0x3d6c53f0	0.057697237
122	0xbd1e03c7	-0.03857782
123	0xbc94e7b7	-0.018176896
124	0x3d70260d	0.058630038
125	0xbdc5a3ff	-0.096504204
126	0x3d337905	0.043816585
127	0x3c87045f	0.016481576
128	0xbd8d2d48	-0.06893402
129	0x3c849da8	0.016188458
130	0x3c9d4755	0.019199053
131	0xbcd65646	-0.026164185
132	0xbd1f7c95	-0.03893717
133	0x3dbdcae7	0.09267216
134	0x3c05a5ba	0.008157188
135	0xbd2c6b01	-0.042094234
136	0xbd81d3f8	-0.06339258
137	0xbd732f96	-0.059371553
138	0x3bf9d2b2	0.007623994
139	0x3daae72e	0.08344875
140	0xbcc226b8	-0.023700103
141	0x3d95a8c5	0.07307581
142	0xbca2c8dc	-0.019871168
143	0xbd5d7d64	-0.05407466
144	0x3d064ab4	0.032786086
145	0xbd6a3aaa	-0.057184853
146	0x3d4596e6	0.04823961
147	0x3d7f9173	0.06239457
148	0xbc765453	-0.015034753
149	0x3c66cc15	0.014086743
150	0xbdd2f73e	-0.10301064
151	0xbcb1f34c	-0.021722458
152	0xbc32b8e0	-0.010908335
153	0x3c22f43b	0.009945924
154	0x3d1b7e56	0.03796228
155	0xbda41c03	-0.08013155
156	0xbd1a11c1	-0.037614588
157	0xbd606270	-0.054781377
158	0x3d92a304	0.07159999
159	0x3d3b427c	0.0457177
160	0xbc70f42e	-0.0147066545
161	0x3db01e69	0.0859955
162	0x3d4d4508	0.05011466
163	0x3d6c00d8	0.057617992
164	0xbc871491	-0.016489299
165	0xbd182d58	-0.03715262
166	0xbc80722c	-0.015679441
167	0x3dbe5cfe	0.092950806
168	0xbdb8c4e1	-0.09021927
169	0xbd83ddaa	-0.064387634
170	0xbda8bfb6	-0.08239691
171	0x3d7db896	0.061943613
172	0x3d443537	0.047902312
173	0x3dc622f3	0.09674635
174	0xbd683ea8	-0.05670038
175	0xbbfcbee9	-0.007713188
176	0xbd830b14	-0.06398597
177	0x3cd91911	0.02650121
178	0x3d6623e4	0.05618657
179	0x3c6fec4c	0.01464374
180	0xbce28047	-0.027649058
181	0xbd8f5833	-0.069992445
182	0xbc3d516a	-0.011555055
183	0xbdc55d69	-0.09636957
184	0xbcbfca24	-0.023411818
185	0x3cb4cd00	0.022070408
186	0xbd29e3b5	-0.041476924
187	0xbd4e3957	-0.050347652
188	0xbd3a0c4a	-0.045421876
189	0xbbf0af16	-0.0073450906
190	0x3d44373d	0.04790424
191	0xbcb7cc97	-0.022436423
192	0xbb4432ae	-0.0029937434
193	0x3d3bbbf7	0.045833554
194	0x3d64e40a	0.055881537
195	0x3d898218	0.067142665
196	0xbdb37ce1	-0.08764053
197	0x3d82f1f9	0.06393809
198	0x3db955ca	0.09049566
199	0xbbd4ef0a	-0.0064982222
200	0x3cd847c9	0.026401417
201	0x3d8145cc	0.06312141
202	0xb979fcec	-0.00023840711
203	0x3d30483b	0.043037634
204	0xbd9af620	-0.07566476
205	0x3d973e67	0.07384949
206	0x3da62c3c	0.08113906
207	0xbb1a9d4f	-0.0023592298
208	0x3c81719f	0.01580125
209	0xbd961395	-0.07327954
210	0x3d936e4b	0.07198771
211	0x3d6693dd	0.056293357
212	0xbd45d541	-0.048299078
213	0xbcbe70db	-0.023247173
214	0xbc6e1d03	-0.014533284
215	0x3d8b9923	0.06816318
216	0x3d901d15	0.07036797
217	0x3d4dfb72	0.050288625
218	0xbd0fd443	-0.035114538
219	0xbdaae58a	-0.08344562
220	0x3d1e6e9e	0.03867971
221	0x3d1aa9b3	0.037759494
222	0x3d9747a7	0.073867135
223	0xbd77740d	-0.06041341
224	0xbce1ad94	-0.027548589
225	0x3d68a2c5	0.056795854
226	0xbd8ad4e8	-0.0677889
227	0xbd7e9cf1	-0.06216139
228	0x3d29b623	0.041433465
229	0xbc309f66	-0.010780191
230	0xbdd2b02b	-0.102875076
231	0xbc470a70	-0.012148485
232	0x3cb3e170	0.021958083
233	0xbdb5e640	-0.08881807
234	0xbbe768c4	-0.0070620496
235	0xbc6271a0	-0.013821036
236	0x3d3aaac2	0.045573004
237	0xbd28e5ca	-0.04123477
238	0xbc89e7b6	-0.016834121
239	0x3cfdf6a0	0.031001389
240	0x3c42869c	0.011872914
241	0x3b283318	0.002566522
242	0xbd6b03d3	-0.057376694
243	0x3d6a2fdc	0.05717455
244	0x3d2ee009	0.042694125
245	0xbd76d3e3	-0.060260665
246	0x3d711d60	0.058865905
247	0xbdb0bd1a	-0.08629818
248	0xbcf41a1b	-0.029797604
249	0x3dcd1648	0.100140154
250	0x3a5fc436	0.00085360126
251	0x3d979524	0.07401493
252	0x3c2ad68d	0.010427129
253	0xbd946801	-0.072464
254	0xbc528a1e	-0.0128503125
255	0x3c7d14f0	0.015446886

batchnorm2.weight f4 [69]
0	0x3f800000	1.0
1	0x3f800000	1.0
2	0x3f800000	1.0
3	0x3f800000	1.0
4	0x3f800000	1.0
5	0x3f800000	1.0
6	0x3f800000	1.0
7	0x3f800000	1.0
8	0x3f800000	1.0
9	0x3f800000	1.0
10	0x3f800000	1.0
11	0x3f800000	1.0
12	0x3f800000	1.0
13	0x3f800000	1.0
14	0x3f800000	1.0
15	0x3f800000	1.0
16	0x3f800000	1.0
17	0x3f800000	1.0
18	0x3f800000	1.0
19	0x3f800000	1.0
20	0x3f800000	1.0
21	0x3f800000	1.0
22	0x3f800000	1.0
23	0x3f800000	1.0
24	0x3f800000	1.0
25	0x3f800000	1.0
26	0x3f800000	1.0
27	0x3f800000	1.0
28	0x3f800000	1.0
29	0x3f800000	1.0
30	0x3f800000	1.0
31	0x3f800000	1.0
32	0x3f800000	1.0
33	0x3f800000	1.0
34	0x3f800000	1.0
35	0x3f800000	1.0
36	0x3f800000	1.0
37	0x3f800000	1.0
38	0x3f800000	1.0
39	0x3f800000	1.0
40	0x3f800000	1.0
41	0x3f800000	1.0
42	0x3f800000	1.0
43	0x3f800000	1.0
44	0x3f800000	1.0
45	0x3f800000	1.0
46	0x3f800000	1.0
47	0x3f800000	1.0
48	0x3f800000	1.0
49	0x3f800000	1.0
50	0x3f800000	1.0
51	0x3f800000	1.0
52	0x3f800000	1.0
53	0x3f800000	1.0
54	0x3f800000	1.0
55	0x3f800000	1.0
56	0x3f800000	1.0
57	0x3f800000	1.0
58	0x3f800000	1.0
59	0x3f800000	1.0
60	0x3f800000	1.0
61	0x3f800000	1.0
62	0x3f800000	1.0
63	0x3f800000	1.0
64	0x3f800000	1.0
65	0x3f800000	1.0
66	0x3f800000	1.0
67	0x3f800000	1.0
68	0x3f800000	1.0

batchnorm2.bias f4 [69]
0	0x00000000	0.0
1	0x00000000	0.0
2	0x00000000	0.0
3	0x00000000	0.0
4	0x00000000	0.0
5	0x00000000	0.0
6	0x00000000	0.0
7	0x00000000	0.0
8	0x00000000	0.0
9	0x00000000	0.0
10	0x00000000	0.0
11	0x00000000	0.0
12	0x00000000	0.0
13	0x00000000	0.0
14	0x00000000	0.0
15	0x00000000	0.0
16	0x00000000	0.0
17	0x00000000	0.0
18	0x00000000	0.0
19	0x00000000	0.0
20	0x00000000	0.0
21	0x00000000	0.0
22	0x00000000	0.0
23	0x00000000	0.0
24	0x00000000	0.0
25	0x00000000	0.0
26	0x00000000	0.0
27	0x00000000	0.0
28	0x00000000	0.0
29	0x00000000	0.0
30	0x00000000	0.0
31	0x00000000	0.0
32	0x00000000	0.0
33	0x00000000	0.0
34	0x00000000	0.0
35	0x00000000	0.0
36	0x00000000	0.0
37	0x00000000	0.0
38	0x00000000	0.0
39	0x00000000	0.0
40	0x00000000	0.0
41	0x00000000	0.0
42	0x00000000	0.0
43	0x00000000	0.0
44	0x00000000	0.0
45	0x00000000	0.0
46	0x00000000	0.0
47	0x00000000	0.0
48	0x00000000	0.0
49	0x00000000	0.0
50	0x00000000	0.0
51	0x00000000	0.0
52	0x00000000	0.0
53	0x00000000	0.0
54	0x00000000	0.0
55	0x00000000	0.0
56	0x00000000	0.0
57	0x00000000	0.0
58	0x00000000	0.0
59	0x00000000	0.0
60	0x00000000	0.0
61	0x00000000	0.0
62	0x00000000	0.0
63	0x00000000	0.0
64	0x00000000	0.0
65	0x00000000	0.0
66	0x00000000	0.0
67	0x00000000	0.0
68	0x00000000	0.0

batchnorm2.running_mean f4 [69]
0	0xbf34fe19	-0.7070022
1	0x3f05471c	0.5206163
2	0x3ed11398	0.4083526
3	0x3f1150d8	0.5676398
4	0xbf36379f	-0.7117862
5	0x3f14a154	0.5805867
6	0xbed0d935	-0.40790716
7	0x3f0a5be5	0.5404647
8	0x3efba330	0.4914794
9	0x3f39e4dd	0.7261484
10	0x3eb0af9c	0.3450898
11	0x3edc6218	0.4304359
12	0xbedfdb68	-0.4372208
13	0x3ee10542	0.43949324
14	0xbeb4a4bd	-0.35281935
15	0xbf180574	-0.5938332
16	0xbf086366	-0.5327667
17	0xbefb2642	-0.49052626
18	0xbf17bd53	-0.5927326
19	0xbed4e5cb	-0.41581568
20	0xbf25e145	-0.6479686
21	0x3ef409d7	0.47663757
22	0xbeff1287	-0.49818823
23	0x3f14e707	0.5816502
24	0xbee44369	-0.4458268
25	0xbf11be9b	-0.56931466
26	0xbebbfe93	-0.36717662
27	0x3dc074eb	0.093973
28	0x3f013b49	0.50481087
29	0x3e16bd8e	0.14720747
30	0xbf1a80c6	-0.6035274
31	0xbf19be2f	-0.6005582
32	0xbf09c1d9	-0.53811413
33	0xbed53e60	-0.4164915
34	0xbf21bc70	-0.6317816
35	0x3ee1d115	0.4410483
36	0xbed756fe	-0.42058557
37	0x3f161a34	0.5863373
38	0x3ef7f8fa	0.48432142
39	0x3eab7551	0.33487943
40	0xbec75cdc	-0.38938034
41	0xbf12c92f	-0.5733823
42	0xbf3bbfbf	-0.73339456
43	0xbf2485d8	-0.6426673
44	0xbf0f0cfe	-0.558792
45	0xbf164c67	-0.5871033
46	0x3ee22681	0.4417
47	0x3ee9b194	0.45643294
48	0x3ec7e9e8	0.39045644
49	0xbef32071	-0.47485688
50	0x3f21edfd	0.63253766
51	0x3ef48f54	0.477656
52	0xbf1009f1	-0.5626517
53	0x3e8c8f86	0.2745325
54	0x3f00a350	0.50249195
55	0xbf282481	-0.656807
56	0x3ed9ece9	0.4256356
57	0xbf1e9fd5	-0.61962634
58	0xbf3ea57a	-0.7447125
59	0x3ecd7f6b	0.40136275
60	0xbf1dafcb	-0.61596364
61	0xbeccf70d	-0.40032235
62	0xbf20d23c	-0.6282079
63	0x3f1c5da7	0.610804
64	0xbecb6010	-0.39721727
65	0xbec49ec0	-0.38402367
66	0xbf07d0de	-0.5305308
67	0x3e75689a	0.23965684
68	0xbf173257	-0.5906119

batchnorm2.running_var f4 [69]
0	0x3d72ebeb	0.05930702
1	0x3e046d58	0.12932336
2	0x3d7f5bc6	0.06234338
3	0x3d9a3ea3	0.07531478
4	0x3d47f5ee	0.04881852
5	0x3dfad5ae	0.122477874
6	0x3dc01aef	0.09380137
7	0x3de80c42	0.11330463
8	0x3d8e7f7d	0.0695791
9	0x3e896bc5	0.26840034
10	0x3df805ed	0.12110505
11	0x3e169941	0.14706899
12	0x3e526142	0.20544913
13	0x3e4e110d	0.20123692
14	0x3e190093	0.14941625
15	0x3e2967c5	0.16543491
16	0x3e73025f	0.23731373
17	0x3db4cfea	0.08828719
18	0x3dabd522	0.08390261
19	0x3db254c4	0.08707574
20	0x3d49ecfe	0.04929828
21	0x3dc15419	0.094398685
22	0x3e0476d0	0.12935948
23	0x3df9e1ef	0.122012965
24	0x3e05227a	0.13001433
25	0x3db59725	0.08866719
26	0x3d181215	0.03712662
27	0x3d685dd8	0.05673012
28	0x3da1fd5a	0.07909651
29	0x3f68d84a	0.9095503
30	0x3d666a2b	0.056253593
31	0x3e0806f2	0.132839
32	0x3e351d70	0.17687011
33	0x3d7712f0	0.060320795
34	0x3d4b43b6	0.04962512
35	0x3eba1c64	0.36349785
36	0x3e56b6c7	0.20968162
37	0x3da8909e	0.082307085
38	0x3e2aad6e	0.1666772
39	0x3dc0b4ed	0.09409509
40	0x3e08c4a4	0.13356262
41	0x3d509b62	0.050929435
42	0x3dcabf22	0.09899737
43	0x3d7eed90	0.062238276
44	0x3e1b9f65	0.15197523
45	0x3e02a7a1	0.12759258
46	0x3d68267e	0.056677334
47	0x3e279df7	0.16368853
48	0x3d6ca30c	0.05777268
49	0x3e3f68e5	0.18692358
50	0x3e5354e0	0.20637846
51	0x3dadfffa	0.08496089
52	0x3da2ba47	0.07945686
53	0x3dfb5525	0.122720994
54	0x3d4ec4f7	0.05048081
55	0x3d48b749	0.04900292
56	0x3d480bec	0.048839495
57	0x3d8dcb8a	0.069235876
58	0x3d97af79	0.07406516
59	0x3f1afa97	0.6053862
60	0x3cb74e79	0.022376286
61	0x3ea2992d	0.3175749
62	0x3dab90cf	0.083772294
63	0x3dd336ac	0.10313162
64	0x3e229176	0.15875801
65	0x3ea0abd8	0.31381106
66	0x3e3e718b	0.18598
67	0x3d944279	0.07239241
68	0x3d390b05	0.045176525

fc3.weight f4 [46, 69]
0	0xbd2ef447	-0.04271343
1	0x3d780470	0.060551107
2	0xbd4add88	-0.049527675
3	0x3dfdfd5e	0.124018416
4	0xbdb5ee44	-0.08883336
5	0x3e0f51a6	0.1399599
6	0x3cda6d61	0.026663484
7	0x3df2416e	0.11828886
8	0xbd04a7b3	-0.032386493
9	0x3e038afe	0.1284599
10	0x3dc2744c	0.09494838
11	0x3df7f92c	0.12108073
12	0xbd932653	-0.07185044
13	0xbccf8acc	-0.025334738
14	0xbdc9a394	-0.09845653
15	0xbe0e7c93	-0.13914709
16	0xbdc94325	-0.0982726
17	0x3c56aded	0.013102991
18	0x3ca2eb9a	0.019887734
19	0x3d872b59	0.06600065
20	0xbdb37668	-0.087628186
21	0xbdc27f51	-0.0949694
22	0xbd30e51a	-0.04318724
23	0x3dfe0f2d	0.12405238
24	0x3d5a8ace	0.05335503
25	0x3b87dbaa	0.004146059
26	0x3c1999df	0.009375065
27	0x3dc08413	0.09400191
28	0x3df4cfd0	0.119536996
29	0x3de37a1b	0.11107274
30	0xbdde6ba4	-0.108603746
31	0xbcf20f12	-0.029548202
32	0x3d3af191	0.045640532
33	0x3ca86b44	0.02055896
34	0x3d8c675a	0.0685565
35	0x3b2b1518	0.0026105102
36	0x3d97f59c	0.07419893
37	0x3dd84df0	0.105617404
38	0xbc9aa43e	-0.018877145
39	0xbdc2e55d	-0.09516404
40	0xbd4297f9	-0.047508214
41	0xbc6fc05f	-0.014633267
42	0xbdb80e40	-0.08987093
43	0xbdab45ba	-0.08362909
44	0x3da21c7a	0.07915588
45	0x3d8496eb	0.06474098
46	0x3d76546c	0.060139105
47	0x3d4a01d6	0.049318157
48	0xbda1d99d	-0.079028346
49	0xbdbb6b2c	-0.09151301
50	0x3d11a712	0.03555972
51	0x3d9c3662	0.0762756
52	0xbdda49bc	-0.10658595
53	0xbd3033af	-0.04301804
54	0x3d34b0aa	0.044113792
55	0x3d614f52	0.055007286
56	0xbd05bbfc	-0.03264998
57	0xbe0f2d54	-0.13982135
58	0x3d8cf0dc	0.06881878
59	0xbd4e4c97	-0.05036601
60	0xbc0f8a33	-0.008760977
61	0x3d989c29	0.0745166
62	0x3d78b8c2	0.060723074
63	0xbd6632ad	-0.056200672
64	0x3d1d3efb	0.03839014
65	0x3c86f1e1	0.016472759
66	0xbd257bf5	-0.040401418
67	0x3d965920	0.07341218
68	0xbdee5a6c	-0.1163834
69	0xbdbe9a8c	-0.09306821
70	0x3b0bc572	0.0021327403
71	0xbd46dd61	-0.048550967
72	0x3d0203ff	0.031742092
73	0x3d6050e2	0.054764636
74	0x3d6fc853	0.058540653
75	0xbc8747c5	-0.016513715
76	0x3dd0ec94	0.10201374
77	0x3dab60e5	0.083680905
78	0x3d143d32	0.036191173
79	0xbd386795	-0.04502066
80	0xbd1bf21f	-0.0380727
81	0x3d5d5781	0.05403853
82	0xbdb674f7	-0.08909028
83	0x3ddff683	0.1093569
84	0x3dfce698	0.1234867
85	0x3d251d87	0.040311363
86	0x3d43eb65	0.04783191
87	0xbdbe1dac	-0.09283003
88	0x3c9aac6d	0.018881047
89	0x3df0f1f4	0.11764899
90	0xbe00db02	-0.12583545
91	0x3d65a68d	0.05606704
92	0xbdb83e3d	-0.08996246
93	0x3c5f77a2	0.0136393625
94	0x3deadfb9	0.11468453
95	0x3dedfda3	0.11620643
96	0xbd5fbe37	-0.054624762
97	0x3d926c6a	0.071495846
98	0x3d54eb75	0.05198236
99	0xbca98f64	-0.020698257
100	0xbcd7b017	-0.026329083
101	0x3dbe7f7e	0.09301661
102	0x3dd74136	0.10510485
103	0x3cf8f000	0.030387878
104	0xbde8d75b	-0.11369201
105	0xbd3bf893	-0.045891356
106	0x3d9c8277	0.07642072
107	0x3d9433b8	0.07236427
108	0xbd91b714	-0.071149975
109	0x3d2cb2ef	0.042162832
110	0x3cd85d9e	0.026411828
111	0x3cdff0b2	0.027336452
112	0x3d2c3956	0.042046867
113	0xbdb08436	-0.08618967
114	0xbca8bddb	-0.020598343
115	0xbcf78e34	-0.030219175
116	0x3d89c11a	0.06726284
117	0xbdcf5d79	-0.1012525
118	0x3dffeef6	0.1249675
119	0x3d8ef638	0.06980556
120	0xbd54cd4b	-0.051953595
121	0xbd8be8e7	-0.06831532
122	0xbd8056b6	-0.06266539
123	0x3d845b88	0.06462771
124	0x3d0ccbab	0.03437392
125	0xbde0def9	-0.10980029
126	0xbcd76c72	-0.026296828
127	0x3d970ad3	0.073751114
128	0x3cca1f2e	0.02467307
129	0x3db31611	0.08744443
130	0x3bdad2dd	0.006677969
131	0x3dbbf4e7	0.09177571
132	0xbde36b0f	-0.11104404
133	0x3c4cbcff	0.012496232
134	0xbcc13910	-0.02358678
135	0x3cb62744	0.02223552
136	0xbd9bfcbd	-0.076165654
137	0xbde12a57	-0.10994404
138	0x3da30552	0.07959999
139	0xbd2effbc	-0.042724356
140	0xbca0aa27	-0.019612385
141	0x3d9f51c8	0.077792704
142	0xbb607794	-0.0034250962
143	0x3d3c210d	0.045929957
144	0x3daf54c5	0.085610904
145	0xbd09329b	-0.033495527
146	0xbd3ba2c4	-0.045809522
147	0xbdb6dc74	-0.08928767
148	0xbdc95c4f	-0.098320596
149	0x3c8dfe21	0.017333092
150	0xbd111def	-0.035428938
151	0x3d65ff48	0.05615166
152	0x3d81050a	0.06299789
153	0xbc104e8d	-0.00880779
154	0xbcb2d79d	-0.021831328
155	0xba4a3f14	-0.0007715088
156	0xbd7fc94b	-0.062447827
157	0x3ce9f5fe	0.028559681
158	0x3e0d37b9	0.13790788
159	0xbe07f56e	-0.13277218
160	0x3dd095d7	0.1018483
161	0xbdc6acf3	-0.09700956
162	0x3dd5b93b	0.104357205
163	0x3db0a883	0.08625891
164	0x3c5f85ca	0.013642738
165	0x3d2ab7bd	0.041679133
166	0x3c878626	0.01654346
167	0xbd8f8a5d	-0.070088126
168	0xbcb0f8b8	-0.021602973
169	0xbd19012a	-0.037354626
170	0x3d4e8f03	0.050429355
171	0x3dc2ffd6	0.09521453
172	0x3dbcfc6e	0.09227835
173	0xbcb6a2d0	-0.022294432
174	0xbc65b7cd	-0.014020872
175	0xbdee4dab	-0.11635908
176	0x3da9be59	0.08288259
177	0xbdc19c5d	-0.09453652
178	0xbd6c0b5f	-0.05762803
179	0xbda87ebc	-0.08227298
180	0xbda5d140	-0.08096552
181	0x3d5f7a9b	0.054560285
182	0x3d3568d7	0.044289436
183	0x3d301d38	0.042996615
184	0xbcd28eed	-0.025702918
185	0x3d6d1823	0.057884347
186	0xbcf1eb4f	-0.02953115
187	0x3dd30d51	0.10305274
188	0xbdbc1920	-0.0918448
189	0x3b73c34c	0.0037195263
190	0x3db66396	0.08905713
191	0xbdaa71ae	-0.08322464
192	0xbdfbded7	-0.12298363
193	0xbc6de75e	-0.014520494
194	0x3bb70f6f	0.0055865566
195	0x3dff59ca	0.12468298
196	0x3cf8548c	0.030313753
197	0xbdacc869	-0.08436663
198	0x3dd8ca92	0.10585512
199	0x3d11adf7	0.035566296
200	0xbc9ed8ab	-0.019390425
201	0xbdbd5d2a	-0.09246285
202	0xbdbc75c0	-0.092021465
203	0x3c90aefd	0.017661566
204	0x3af317b7	0.0018546496
205	0x3d14a33b	0.03628848
206	0xbc181ed5	-0.009284695
207	0xbdc53905	-0.09630016
208	0xbc05fed1	-0.008178429
209	0xbdc92755	-0.09821955
210	0xbdb71b8c	-0.08940801
211	0xbd9dd25f	-0.07706141
212	0x3d8bb6ae	0.06821953
213	0xba856989	-0.0010178547
214	0xbb5dc99a	-0.0033842088
215	0x3d6535d6	0.055959545
216	0xbdaa9dec	-0.083309025
217	0xbdc4477b	-0.09583946
218	0x3d41aeff	0.04728603
219	0x3dcad3c7	0.099036746
220	0x3d6c3f91	0.05767781
221	0xbce9419f	-0.028473673
222	0xbd9983b9	-0.07495827
223	0xbdaee185	-0.08539108
224	0xbe028811	-0.12747218
225	0xbe035044	-0.12823588
226	0x3c570f4f	0.013126208
227	0x3d5cd717	0.053916063
228	0x3de1f831	0.11033667
229	0x3c9ecdda	0.019385267
230	0x3e072e68	0.13201296
231	0xbc953c00	-0.018217087
232	0x3da4cf44	0.08047345
233	0x3d24d984	0.0402465
234	0x3ddf10ea	0.10891898
235	0xbc87e9fe	-0.016591068
236	0xbd180825	-0.037117142
237	0xbdfd2686	-0.123608634
238	0xbcea8d52	-0.02863184
239	0xbd964a10	-0.07338345
240	0xbdcc5487	-0.0997706
241	0xbdd59fae	-0.10430847
242	0x3d35d26b	0.044390123
243	0xbdd1e21f	-0.10248207
244	0xbd0e8fff	-0.034805294
245	0xbdc3a90f	-0.0955373
246	0x3dd52fa8	0.1040948
247	0xbc98cfee	-0.018653836
248	0x3d57029d	0.052492727
249	0xbdb173ab	-0.0866464
250	0x3da9ef1f	0.08297562
251	0xbd9706a4	-0.073743135
252	0xbbb23895	-0.005438874
253	0x3dcc94bf	0.099893086
254	0x3c2c2060	0.010505766
255	0x3d62669d	0.05527364

batchnorm3.weight f4 [69]
0	0x3f800000	1.0
1	0x3f800000	1.0
2	0x3f800000	1.0
3	0x3f800000	1.0
4	0x3f800000	1.0
5	0x3f800000	1.0
6	0x3f800000	1.0
7	0x3f800000	1.0
8	0x3f800000	1.0
9	0x3f800000	1.0
10	0x3f800000	1.0
11	0x3f800000	1.0
12	0x3f800000	1.0
13	0x3f800000	1.0
14	0x3f800000	1.0
15	0x3f800000	1.0
16	0x3f800000	1.0
17	0x3f800000	1.0
18	0x3f800000	1.0
19	0x3f800000	1.0
20	0x3f800000	1.0
21	0x3f800000	1.0
22	0x3f800000	1.0
23	0x3f800000	1.0
24	0x3f800000	1.0
25	0x3f800000	1.0
26	0x3f800000	1.0
27	0x3f800000	1.0
28	0x3f800000	1.0
29	0x3f800000	1.0
30	0x3f800000	1.0
31	0x3f800000	1.0
32	0x3f800000	1.0
33	0x3f800000	1.0
34	0x3f800000	1.0
35	0x3f800000	1.0
36	0x3f800000	1.0
37	0x3f800000	1.0
38	0x3f800000	1.0
39	0x3f800000	1.0
40	0x3f800000	1.0
41	0x3f800000	1.0
42	0x3f800000	1.0
43	0x3f800000	1.0
44	0x3f800000	1.0
45	0x3f800000	1.0
46	0x3f800000	1.0
47	0x3f800000	1.0
48	0x3f800000	1.0
49	0x3f800000	1.0
50	0x3f800000	1.0
51	0x3f800000	1.0
52	0x3f800000	1.0
53	0x3f800000	1.0
54	0x3f800000	1.0
55	0x3f800000	1.0
56	0x3f800000	1.0
57	0x3f800000	1.0
58	0x3f800000	1.0
59	0x3f800000	1.0
60	0x3f800000	1.0
61	0x3f800000	1.0
62	0x3f800000	1.0
63	0x3f800000	1.0
64	0x3f800000	1.0
65	0x3f800000	1.0
66	0x3f800000	1.0
67	0x3f800000	1.0
68	0x3f800000	1.0

batchnorm3.bias f4 [69]
0	0x00000000	0.0
1	0x00000000	0.0
2	0x00000000	0.0
3	0x00000000	0.0
4	0x00000000	0.0
5	0x00000000	0.0
6	0x00000000	0.0
7	0x00000000	0.0
8	0x00000000	0.0
9	0x00000000	0.0
10	0x00000000	0.0
11	0x00000000	0.0
12	0x00000000	0.0
13	0x00000000	0.0
14	0x00000000	0.0
15	0x00000000	0.0
16	0x00000000	0.0
17	0x00000000	0.0
18	0x00000000	0.0
19	0x00000000	0.0
20	0x00000000	0.0
21	0x00000000	0.0
22	0x00000000	0.0
23	0x00000000	0.0
24	0x00000000	0.0
25	0x00000000	0.0
26	0x00000000	0.0
27	0x00000000	0.0
28	0x00000000	0.0
29	0x00000000	0.0
30	0x00000000	0.0
31	0x00000000	0.0
32	0x00000000	0.0
33	0x00000000	0.0
34	0x00000000	0.0
35	0x00000000	0.0
36	0x00000000	0.0
37	0x00000000	0.0
38	0x00000000	0.0
39	0x00000000	0.0
40	0x00000000	0.0
41	0x00000000	0.0
42	0x00000000	0.0
43	0x00000000	0.0
44	0x00000000	0.0
45	0x00000000	0.0
46	0x00000000	0.0
47	0x00000000	0.0
48	0x00000000	0.0
49	0x00000000	0.0
50	0x00000000	0.0
51	0x00000000	0.0
52	0x00000000	0.0
53	0x00000000	0.0
54	0x00000000	0.0
55	0x00000000	0.0
56	0x00000000	0.0
57	0x00000000	0.0
58	0x00000000	0.0
59	0x00000000	0.0
60	0x00000000	0.0
61	0x00000000	0.0
62	0x00000000	0.0
63	0x00000000	0.0
64	0x00000000	0.0
65	0x00000000	0.0
66	0x00000000	0.0
67	0x00000000	0.0
68	0x00000000	0.0

batchnorm3.running_mean f4 [69]
0	0x3f837bb2	1.0272124
1	0xbf4c533e	-0.7981452
2	0xbf8a58f5	-1.0808398
3	0x3f5358fc	0.82557654
4	0xbf9c8dcc	-1.2230773
5	0x3f18e80b	0.5972907
6	0xbf870d55	-1.0550944
7	0xbf590652	-0.8477527
8	0xbf6b9aa8	-0.9203286
9	0x3fae8197	1.3633298
10	0xbf7798e5	-0.96717674
11	0xbf82e723	-1.0226787
12	0x3fa7c8f7	1.3108205
13	0x3f8c8308	1.0977488
14	0xbf752202	-0.95755017
15	0x3f82d18d	1.02202
16	0xbf88a23a	-1.0674508
17	0x3f88454b	1.0646147
18	0xbf908754	-1.1291299
19	0xbf7cc44e	-0.9873704
20	0x3fad1f3e	1.3525159
21	0xbf7fb3d9	-0.998838
22	0xbf981636	-1.1881778
23	0xbf8df8e5	-1.1091582
24	0x3f830405	1.0235602
25	0xbf7cf390	-0.98809147
26	0x3fb2e5d8	1.3976393
27	0xbf6226a5	-0.88340217
28	0x3f416ce2	0.75556767
29	0x3f7a5d2c	0.9779842
30	0xbf7044d8	-0.9385505
31	0x3fadbaa1	1.357258
32	0xbf93eec8	-1.1557245
33	0x3f74a294	0.95560575
34	0xbf72c9e3	-0.94839305
35	0x3f95d34c	1.1705108
36	0xbf6654db	-0.8997323
37	0xbf8e8bc6	-1.1136405
38	0x3f90deac	1.1317954
39	0x3faa3eb1	1.3300382
40	0x3f4bfcac	0.7968242
41	0xbf991aeb	-1.196134
42	0xbf6d9b26	-0.9281486
43	0x3f8012e9	1.0005771
44	0xbf85fb1d	-1.0467259
45	0x3f5ba990	0.85805607
46	0x3c673882	0.014112594
47	0xbd15854a	-0.036504067
48	0xbdea1e2e	-0.114315376
49	0xbe005ba0	-0.12534952
50	0xbc8c17de	-0.017101225
51	0x3d178087	0.036987808
52	0xbd86ee03	-0.06588366
53	0x3d054c5d	0.03254353
54	0x3d007d5e	0.03136956
55	0xbe1155c2	-0.1419287
56	0xbd62eac1	-0.05539966
57	0x3ea77ccb	0.32712397
58	0x3ee117a9	0.43963364
59	0xbe3b7179	-0.18305005
60	0x3db09364	0.086218625
61	0x3dad443c	0.0846028
62	0xbd14a63e	-0.036291353
63	0x3dbcb46a	0.09214099
64	0x3db4f05a	0.08834906
65	0xbd69deca	-0.057097234
66	0xbe3f053d	-0.18654342
67	0x3db86dd2	0.090053216
68	0x3dbde6d9	0.09272546

batchnorm3.running_var f4 [69]
0	0x3e7a1325	0.24421366
1	0x3d22b892	0.0397268
2	0x3d64cc4b	0.05585889
3	0x3e343eaa	0.1760203
4	0x3d86a14a	0.06573732
5	0x3e95c0ba	0.292486
6	0x3d3fc711	0.046820704
7	0x3d79e720	0.061011434
8	0x3dff59ac	0.124682754
9	0x3e77e63f	0.24208926
10	0x3d704288	0.0586572
11	0x3dcb8ae9	0.099386044
12	0x3e80741e	0.2508859
13	0x3ebca1ce	0.36842197
14	0x3e014806	0.12625131
15	0x3e6c05b5	0.23049052
16	0x3d01ec28	0.031719357
17	0x3e5dbf03	0.21654896
18	0x3d16e65a	0.036840774
19	0x3d2eac3e	0.04264473
20	0x3e921274	0.28529704
21	0x3e075411	0.13215663
22	0x3d24a8f4	0.04020019
23	0x3d8a621f	0.06756996
24	0x3e464547	0.19362365
25	0x3e216025	0.15759332
26	0x3ebb2568	0.36551976
27	0x3d21b9ed	0.039483953
28	0x3dddd5bd	0.10831783
29	0x3e1f34fe	0.15547559
30	0x3d7ddc6c	0.06197779
31	0x3e9a753e	0.30167574
32	0x3d81eaf8	0.06343645
33	0x3e0f003c	0.13964933
34	0x3da18539	0.07886738
35	0x3e6bab66	0.23014602
36	0x3de88a8c	0.11354551
37	0x3d40663d	0.046972502
38	0x3ef5528a	0.47914535
39	0x3ed6a53f	0.41922948
40	0x3e08a085	0.13342483
41	0x3d51da64	0.051233664
42	0x3cbfbc50	0.023405224
43	0x3e67532d	0.22590323
44	0x3db48891	0.088151105
45	0x3df8ab66	0.12142067
46	0x3f0e8406	0.556702
47	0x3f1e530d	0.61845475
48	0x3f0c132a	0.5471674
49	0x3f0c6ffd	0.5485838
50	0x3f02913f	0.5100288
51	0x3f072e0e	0.5280465
52	0x3efd7094	0.49499953
53	0x3f082e77	0.531959
54	0x3f0792e4	0.5295851
55	0x3f0e0ae3	0.5548536
56	0x3efcdd60	0.49387646
57	0x40a26498	5.0747795
58	0x40a3b643	5.1159987
59	0x3f034a8e	0.51285636
60	0x3f00bc40	0.50287247
61	0x3f021c5e	0.50824535
62	0x3eff9278	0.49916434
63	0x3efff522	0.4999171
64	0x3f008843	0.5020792
65	0x3ee927de	0.4553823
66	0x3f018cc4	0.50605416
67	0x3eff5c0e	0.4987492
68	0x3efb0452	0.49026734
